Utilities/Test1.tflite (tflite, 3172 bytes, 5 tensors)

conv2d_1/Conv2D_bias f4 [10]
00000000: 0000 0000 0000 0000 0000 0000 0000 0000
00000010: 0000 0000 0000 0000 0000 0000 0000 0000
00000020: 0000 0000 0000 0000
0.0 0.0 0.0 0.0 0.0 0.0 0.0 0.0
0.0 0.0

conv2d_1/kernel f4 [1, 3, 3, 10]
00000000: 1396 4fbe 1244 81bd f478 9cbd 982e 5d3e
00000010: c04e c23b 9a43 173e c4e7 1ebd 5817 0dbd
00000020: 4107 33be acaa 1d3e ee4d e0bd 9a16 5d3e
00000030: ecf9 5d3e b9fb 02be 5cc4 b73d 1e31 3dbe
00000040: 2118 3cbe c2f7 7abe d0a7 ff3d 1869 393e
00000050: 00a0 bb3c 98fc abbc 26a6 3e3e e869 d9bc
00000060: afbb 66be 5868 d53d 505b 4c3e 209d 5f3d
00000070: 148d 58bd c48b 963d 1655 233e fbc6 59be
00000080: 64f0 0ebd 2c3b c6bd 1a81 6f3e d888 c53d
00000090: 6006 4e3d cc4f 5a3e ac7b 46bd fc4e 793e
000000a0: be51 0dbe 6060 df3c 546d 56be dc33 58be
000000b0: 3c00 36be 1600 563e 8044 3b3c 3af0 203e
000000c0: 7afa 1cbe 80bf 4cbd 4810 7b3d 3c05 febd
000000d0: c6a0 013e f8e3 d3bc 04d3 853d 2831 f13d
000000e0: 28e0 3fbd 248b dbbd 0037 103e b475 0cbe
000000f0: 4ce4 2f3e 98fd 4ebe 0251 05be 764b 783e
00000100: 8c1a dabd 0830 2b3d 3851 a9bd c432 933d
00000110: 40f5 613d 40fa 70bc 2294 37be a8fc 123e
00000120: 864a 90bd f63d 03be 20c7 333e c045 5c3b
00000130: fc63 b4bd e21c 96bd 147f 623e ac32 d13d
00000140: 5cfd 163e da72 523e 28b5 623d 7c22 3e3e
00000150: 38bc 473e 0ceb 02bd 00bc 54be 60d1 c53d
00000160: 2e37 5d3e 0efb efbd
-0.20272093 -0.063118115 -0.076402575 0.21599805 0.005929798 0.14771882 -0.038795248 -0.03444609
-0.17483236 0.15397137 -0.10952364 0.21590653 0.21677369 -0.12791337 0.089729995 -0.18475768
-0.1836858 -0.24508575 0.124831796 0.18106496 0.022903442 -0.02099447 0.18618068 -0.026539758
-0.22532533 0.104202926 0.19956708 0.054593205 -0.052868918 0.07350877 0.15950426 -0.21267311
-0.034897223 -0.09679255 0.23389092 0.096452415 0.05029905 0.21319503 -0.048457786 0.24346536
-0.13800713 0.027267635 -0.20940143 -0.21113533 -0.17773527 0.2089847 0.011429906 0.15716639
-0.15329924 -0.049987316 0.061294824 -0.12403342 0.12658986 -0.02586554 0.06534389 0.11776954
-0.04684463 -0.10719898 0.14083481 -0.13716775 0.17176932 -0.20213926 -0.13019183 0.24247536
-0.10649595 0.041793853 -0.08267444 0.07187417 0.05516553 -0.014708102 -0.17927602 0.14354193
-0.07045464 -0.12816605 0.17556429 0.003361091 -0.08808133 -0.07329728 0.22118789 0.10214743
0.14745086 0.20551625 0.055348545 0.18567842 0.19505394 -0.03196244 -0.20774841 0.09659076
0.2160308 -0.11717807

conv2d_2/Conv2D_bias f4 [10]
00000000: 0000 0000 0000 0000 0000 0000 0000 0000
00000010: 0000 0000 0000 0000 0000 0000 0000 0000
00000020: 0000 0000 0000 0000
0.0 0.0 0.0 0.0 0.0 0.0 0.0 0.0
0.0 0.0

conv2d_2/kernel f4 [1, 5, 5, 10]
00000000: 561e 44bd f68a 60bd c010 303c f094 49bc
00000010: e844 f73d 5075 20bd 9276 143e 382b aa3d
00000020: e00d f63c 7ca1 14bd 4056 6cbc ce9c 143e
00000030: b07e 3ebc 5e22 e2bd ea81 05be 3e15 843d
00000040: dbb3 9dbd c89d 7a3d 2663 063e 22d7 acbd
00000050: a619 053e 300a ca3d b4a2 243d 84e5 7b3d
00000060: 805f a8bc f8dc 0d3e 1af4 ca3d e2d7 e1bd
00000070: 4b60 01be f01b 1fbd bc1f c0bc c0f0 153e
00000080: 243f cd3d ca98 b83d e011 eebc ca61 8d3d
00000090: d8b6 ca3d 6479 f6bd 6ed9 c1bd 4468 f7bc
000000a0: f27e 0bbe 28c2 cbbc e0f5 a43d 0486 e8bc
000000b0: 3cf2 adbd f00d 02bd aea2 6dbd 922e 14bd
000000c0: c4d5 a43d 50a5 ff3d 8066 4f3b 4063 0ebe
000000d0: 2433 3d3d 2cb9 653d d8c7 d3bd e9dd a5bd
000000e0: 08df 0f3d 7613 e3bd e02c d3bd 11b9 dfbd
000000f0: 60ae c13d f664 bbbd 31e7 10be 2c19 e53d
00000100: 928c 143e 2c09 a7bd d00d e8bd 2479 363d
00000110: b7db c8bd c050 f4bb 68c2 963d a0f2 673c
00000120: 4ec3 11be c436 6abd e001 25bc 381b 13be
00000130: 387b e1bc e6a2 0a3e 6c59 063e a4a4 6b3d
00000140: ec7e 1ebd c01e 1cbc 30bf d73c 52a2 55bd
00000150: 9813 c23c c9ae b3bd 02d7 063e 1c92 0a3e
00000160: 88da a73d 62fb 6fbd 00d6 94bb ba3a 12be
00000170: 2c6e fb3d 88da d3bd ebaa 0abe 7947 c1bd
00000180: bcaa 3abd cbf8 f4bd 0065 75bb b0ec 383d
00000190: 8045 e9ba ca23 56bd 5cfc ce3d e45c e3bc
000001a0: 905e c13c 8671 0bbe c0a4 c03b 000f afbd
000001b0: 4072 9b3b 8427 eebc c9c7 8abd 005f 41ba
000001c0: cc0b 653d dacd c1bd 1629 153e 284b 0c3d
000001d0: 94bf eebc a088 523c 4c44 bd3d d075 c93d
000001e0: 4c7c 9b3d 4635 8e3d 12eb 913d 98f1 2b3d
000001f0: 84c5 2c3d 80cd c03d 42d6 60bd d031 2b3c
00000200: 6085 d0bb dc91 f03d 10e4 733c d023 833d
00000210: 50ed 0fbe 88cd 99bc b868 b0bc 4cc6 683d
00000220: e80d 003e c9cc 02be bea4 7dbd a623 043e
00000230: 34a1 833d 0030 ecb8 2830 b4bc 180e 893d
00000240: 009a 92ba 20f8 86bd 4feb b2bd 1c63 f53d
00000250: 2cfc f6bd dbad bfbd 10a1 603c 7c14 863d
00000260: 10b1 223d a627 91bd 0ebc 133e 722d 0c3e
00000270: b8c6 523d 38b8 f53d 709c de3d 5074 ffbd
00000280: b89a 0d3d 006e de3d 02ed febd 8a76 60bd
00000290: d282 953d 0cf5 1ebd e844 e53d 7486 ed3d
000002a0: a245 32bd 5406 03be 9681 8abd 46dc 033e
000002b0: 8052 ddbd 5488 55bd 5cde 03be a2f9 e7bd
000002c0: b835 b6bc 7468 3a3d c04d 5ebc 544b f2bc
000002d0: 9033 1d3d 4a57 143e 1043 71bc 146f dd3d
000002e0: de06 c9bd 46ce 4bbd ecb3 79bd 56e3 8d3d
000002f0: e8f1 24bd 68c9 d23d 60bc d63d c0ad 0e3e
00000300: 2256 bebd a00a 1e3c 7c99 583d ea8b ecbd
00000310: 901b e1bc 5aab ab3d 209e cb3c e8a7 e23d
00000320: c877 7cbd 703c 80bc a519 9dbd b699 21bd
00000330: 242e f33d 1cae e53d 0c97 80bd 8261 edbd
00000340: 50ba 86bc 3ce0 adbd 6862 f2bd 8080 a3bb
00000350: 184e 573d 762b 4fbd 60b9 edbd 98b6 5fbd
00000360: 106d 51bc f262 09be aafa 043e a891 97bc
00000370: 7656 a43d 2822 edbd 46eb b43d 74e5 113e
00000380: fcef 24bd 90a4 333d 00c4 9339 a527 04be
00000390: 7200 01be 2022 5c3d 8046 d73d ccaa 1c3d
000003a0: 60a0 43bd 347a 0cbd f0e5 893d 4aff d5bd
000003b0: 9264 9ebd 7cf8 723d 3274 8d3d 00c0 313a
000003c0: a8ee f13d 70cf 6ebc 0417 0cbd 18ae b63c
000003d0: d04f 353d 50f7 56bd 6c02 91bd f057 59bc
000003e0: c07b 0d3e 4c1c 563d
-0.047880493 -0.054820023 0.010746181 -0.012303576 0.1207369 -0.039174378 0.14498356 0.083090246
0.030035913 -0.036286816 -0.0144248605 0.14512941 -0.011626884 -0.11041711 -0.1303784 0.06449364
-0.0770032 0.06118563 0.1312376 -0.08439471 0.12998065 0.09865224 0.04019423 0.06149818
-0.02055335 0.13853824 0.0990984 -0.110275045 -0.12634389 -0.038845003 -0.023452632 0.1464262
0.10021809 0.09013517 -0.029061258 0.069034174 0.09898156 -0.12034872 -0.094652995 -0.030201085
-0.13622645 -0.024872854 0.080547094 -0.028384216 -0.08493468 -0.031751573 -0.05801647 -0.036177225
0.08048585 0.12482703 0.0031646788 -0.13905048 0.04619135 0.056084797 -0.103408515 -0.08098967
0.03512481 -0.11087696 -0.103112936 -0.109239705 0.094570875 -0.09150116 -0.14150693 0.11186442
0.14506748 -0.08156046 -0.113307595 0.044549122 -0.09807532 -0.007455915 0.07361299 0.014156967
-0.14234659 -0.057181135 -0.010071248 -0.14365852 -0.027524576 0.13538703 0.13120049 0.05753006
-0.03869526 -0.009528816 0.026336282 -0.052156754 0.023690984 -0.08773572 0.13167956 0.13532299
0.081959784 -0.058589347 -0.0045421124 -0.14280215 0.12276873 -0.10344416 -0.13541763 -0.094374605
-0.04557298 -0.11961516 -0.0037444234 0.045147598 -0.0017797202 -0.052280225 0.101067275 -0.027754255
0.023604661 -0.13617525 0.0058790147 -0.08547783 0.0047438443 -0.029071577 -0.06776387 -0.0007376522
0.055919454 -0.09463091 0.14566454 0.034251362 -0.029144086 0.012849957 0.09241542 0.09836924
0.07592067 0.06943755 0.07124914 0.04197845 0.042180553 0.09414196 -0.054891832 0.010448888
-0.006363556 0.117465705 0.014885917 0.06403315 -0.14055371 -0.018774763 -0.021534309 0.056829736
0.12505305 -0.12773432 -0.06192469 0.12904224 0.064272314 -0.000112622976 -0.021995619 0.06692141
-0.0011184812 -0.06590295 -0.08736288 0.11981794 -0.12059817 -0.09359332 0.013710275 0.06546876
0.03971964 -0.070876405 0.14427206 0.13689211 0.051459044 0.119980276 0.10869682 -0.12473357
0.03457138 0.108608246 -0.124475494 -0.054800548 0.073003426 -0.038807914 0.111947834 0.115979105
-0.04352344 -0.12795383 -0.06762998 0.12876996 -0.10806751 -0.052131966 -0.12877792 -0.113269106
-0.022242412 0.04550977 -0.013568342 -0.029576935 0.038379252 0.14486423 -0.014725462 0.10812202
-0.09815763 -0.049757265 -0.060962602 0.069281265 -0.040269762 0.102923214 0.104851484 0.13933468
-0.09293772 0.009646088 0.05288075 -0.11550124 -0.027478963 0.08382292 0.024855673 0.11067182
-0.06163767 -0.015653819 -0.07670907 -0.03945323 0.11874035 0.11214849 -0.0627881 -0.11590864
-0.016446263 -0.08490035 -0.11835176 -0.0049896836 0.05256471 -0.050578557 -0.11607623 -0.054617494
-0.01278235 -0.13416651 0.12986246 -0.018502071 0.080243036 -0.115787804 0.08833937 0.14247686
-0.04026793 0.04385811 0.00028184056 -0.12905748 -0.12597826 0.05374348 0.10511494 0.038248822
-0.047760367 -0.03429623 0.0673331 -0.10449083 -0.07734026 0.059319004 0.06906928 0.00067806244
0.11813098 -0.014575824 -0.034201637 0.022299811 0.04426557 -0.05248195 -0.0708054 -0.013265595
0.13816738 0.05227308

conv2d_3/kernel f4 [1, 2, 2, 10]
00000000: 236f 65be 8f53 2cbe b588 8a3e 0ef2 4abe
00000010: 1385 95be 25bc 973e a0a9 f93c 6662 5f3e
00000020: 183a ef3d c8fc b3bd e0fd 523d 7df5 27be
00000030: 193a 67be 90ee a4bd 08d7 29bd 045e 58be
00000040: 9afe 383e 8015 cc3c bf74 983e c723 893e
00000050: 9079 9abd 78bf 4a3d 4020 2e3c f623 6cbe
00000060: 59c1 99be 8da0 823e 94ad a63d 00e9 e6ba
00000070: 4b7d 52be 0256 4e3e d134 2abe b7eb 0ebe
00000080: ed26 25be 16a5 583e 38e3 9fbd 12b0 473e
00000090: 7850 7f3d 88ec abbd 91c7 9e3e 9c0f b13d
-0.22405677 -0.1682875 0.27057424 -0.19818899 -0.2920309 0.2963573 0.030476391 0.2181488
0.116810024 -0.087884486 0.051511645 -0.1640224 -0.22580756 -0.08053315 -0.041464835 -0.21129614
0.18065873 0.024912596 0.2977657 0.26785108 -0.075427175 0.049499005 0.010627806 -0.23060593
-0.30030325 0.25513116 0.08138576 -0.0017617047 -0.20555608 0.20149997 -0.1662171 -0.13957106
-0.1612813 0.21156725 -0.078070104 0.19500759 0.0623326 -0.08394724 0.31011632 0.086455554
