Training_tools/Neurnet/keras3.tflite (tflite, 5624 bytes, 7 tensors)

conv2d_1/Conv2D_bias f4 [10]
000000 00 00 00 00 00 00 00 00 00 00 00 00 00 00 00 00
       0.0 0.0 0.0 0.0
000010 00 00 00 00 00 00 00 00 00 00 00 00 00 00 00 00
       0.0 0.0 0.0 0.0
000020 00 00 00 00 00 00 00 00
       0.0 0.0

conv2d_1/kernel f4 [1, 3, 3, 10]
000000 3c a6 76 bd c0 7a 19 3d e4 c4 af bd 68 6a c9 3d
       -0.060217127 0.03747058 -0.08582476 0.098347485
000010 8c 54 a1 bd b6 3c 30 be 38 f1 40 3d b0 90 2b be
       -0.07877454 -0.1721066 0.047105044 -0.16754413
000020 00 12 99 3b 38 9b 3f bd 08 b9 30 3d 56 77 67 be
       0.004671335 -0.046778888 0.04314521 -0.22604117
000030 ec 47 0e 3e bc 5b cf 3d 00 f1 9d ba dc 48 1f 3e
       0.13894624 0.10124919 -0.0012049973 0.15555137
000040 ec be ed bd 78 ca 9e 3d 0c 43 cf 3d ae aa df bd
       -0.11608681 0.077534616 0.1012021 -0.109212264
000050 7c 7b 19 bd 6c ee 1c bd 22 f8 2b be e8 00 c0 bc
       -0.03747128 -0.038313314 -0.16793874 -0.023437932
000060 bc b7 0f bd f4 2f f6 3d 20 81 b3 bc d0 11 2c 3d
       -0.035087332 0.12020865 -0.021912158 0.042009175
000070 a8 7f 67 3e 12 27 d4 bd f8 ec 5e 3d 58 62 a6 bc
       0.2260729 -0.103590146 0.05442521 -0.020310566
000080 48 cc 48 be e3 aa f8 bd d2 31 27 3e 60 be 9d bd
       -0.19609177 -0.12141969 0.16327599 -0.07702327
000090 c8 2a fb 3d 3e 34 d3 bd 30 ee 13 3e 0a a5 76 be
       0.12264019 -0.10312699 0.1444633 -0.24086395
0000a0 a8 19 58 be 3a 56 bc bd d2 83 9b bd 58 cb 0f 3e
       -0.21103537 -0.09196134 -0.07593502 0.14042413
0000b0 28 68 a5 3d 4c e6 11 be 3c 6a f3 bd 48 7b e2 bc
       0.08076507 -0.14248008 -0.11885497 -0.027646676
0000c0 dc 01 f0 3d cc ec 6b 3e 8e 3f 55 3e 66 c6 31 be
       0.11719105 0.2303955 0.20825025 -0.17360839
0000d0 1a 61 a8 bd c0 69 4f bb da 8a 33 be 50 5b 19 bc
       -0.08221646 -0.0031648725 -0.17533436 -0.0093601495
0000e0 7c 1a e1 3d c0 a6 cc 3d 94 dd a9 3d 3a ba 36 be
       0.109913796 0.099927425 0.08294216 -0.17844477
0000f0 18 ba ec bd b5 a6 4b be f4 f7 1d be 30 3d 82 bc
       -0.11558932 -0.19887812 -0.15426618 -0.015898317
000100 aa 82 3f be 7c 78 20 bd c2 5d 8d bd f4 b7 8b bd
       -0.18702188 -0.039177403 -0.069026485 -0.06822196
000110 dc 42 dc 3d 42 a6 39 3e cc 07 28 3e 02 40 c9 bd
       0.1075494 0.18129829 0.16409224 -0.09826662
000120 bc 78 2c 3e 94 9d d4 bd 60 66 4e bd 98 70 86 bd
       0.16842932 -0.10381618 -0.0503906 -0.06564444
000130 56 68 7b 3e cc 33 f1 bd 20 ad bb 3d f0 da 36 bc
       0.2455152 -0.117774576 0.0916388 -0.011160597
000140 90 2f 6f 3d 98 46 06 bd 6c 90 f2 bd da 3a 47 be
       0.05839497 -0.032782167 -0.118439525 -0.19456044
000150 c0 8c 11 3e d0 9e 4c 3d 4c b6 20 be 94 a9 1b 3e
       0.14213848 0.049956143 -0.1569454 0.15201408
000160 5e da bd bd 54 a9 58 bd
       -0.09270166 -0.05289586

conv2d_2/Conv2D_bias f4 [10]
000000 00 00 00 00 00 00 00 00 00 00 00 00 00 00 00 00
       0.0 0.0 0.0 0.0
000010 00 00 00 00 00 00 00 00 00 00 00 00 00 00 00 00
       0.0 0.0 0.0 0.0
000020 00 00 00 00 00 00 00 00
       0.0 0.0

conv2d_2/kernel f4 [1, 5, 5, 10]
000000 6e fa 08 3e 88 ae 9b 3c b1 b4 11 be a8 5a c5 3d
       0.13376781 0.019004121 -0.14229085 0.09636432
000010 1c dd 36 3d 16 98 be 3d 97 f5 b8 bd b8 af 8f bc
       0.04464446 0.09306352 -0.090312175 -0.017539844
000020 c7 9a 12 be b2 55 61 bd 08 16 38 3d 02 33 af 3d
       -0.14316855 -0.055013366 0.044942886 0.08554651
000030 cc 6e 13 3e 78 d9 d3 3d 7a ec 89 3d 64 e5 13 3e
       0.14397734 0.10344213 0.067345574 0.14442974
000040 70 16 4a 3c 48 22 6b 3d b6 78 f6 bd bc cc 31 3d
       0.012334451 0.05740574 -0.120347425 0.04340814
000050 00 80 98 bb 76 a4 8c 3d 32 21 a0 bd 44 a6 0f 3e
       -0.0046539307 0.06867306 -0.078188315 0.14028269
000060 8c c6 44 3d 14 d8 ce 3d dc 59 d8 3d 40 59 8a bb
       0.04804091 0.100998074 0.10564014 -0.004222065
000070 70 1b db 3d b2 b7 ea bd 6b 5f c6 bd 73 fe c2 bd
       0.10698593 -0.11460818 -0.09686168 -0.095211886
000080 2d 2e 9e bd 9c 38 03 3e d2 07 87 3d f0 f9 15 3c
       -0.07723651 0.12814564 0.065932885 0.009153828
000090 5e 48 0b 3e 88 a3 f7 3d 03 b9 8f bd ae 55 12 bd
       0.13601825 0.12091738 -0.0701771 -0.03572624
0000a0 66 1d 97 3d 60 dc 5c 3c 60 36 c1 3b 48 20 a7 bc
       0.07378654 0.013480276 0.0058963746 -0.020401135
0000b0 e6 b6 68 bd 76 fd 5d bd b8 fd 8f 3c 70 c9 7b 3c
       -0.05681505 -0.054196797 0.017577037 0.015367851
0000c0 60 71 09 3c b0 e4 05 3d 38 d6 b8 3d e2 2c f3 bd
       0.008388847 0.032688797 0.09025234 -0.11873795
0000d0 4a 8d 58 bd d6 37 95 bd 62 5c 01 3e ae d0 ba 3d
       -0.05286912 -0.072860405 0.12632897 0.09121834
0000e0 24 cf e2 3d 2c f6 52 3d 70 05 df 3c c8 f5 fc 3d
       0.11074665 0.0515043 0.027224272 0.123515666
0000f0 78 d8 62 bd f8 ad f0 3d 20 15 e8 3d 50 88 0a 3d
       -0.055382222 0.11751932 0.11332154 0.033821404
000100 7e 51 b0 3d 50 d4 00 bd 2c 52 b1 3d 23 b7 a5 bd
       0.086092934 -0.031452477 0.08658251 -0.08091571
000110 f0 cd cd 3d 30 c8 4a 3c 74 5d c9 bc 96 49 0e be
       0.10049045 0.01237683 -0.024580695 -0.13895258
000120 e0 af b4 bb de 79 0b be 7a 82 cf 3d c0 c8 d6 3c
       -0.00551413 -0.13620707 0.10132308 0.026218772
000130 e8 07 e7 3d 20 74 11 3e b6 a5 07 be 5b 03 81 bd
       0.11280805 0.14204454 -0.13246807 -0.06299468
000140 40 fc ad 3c f8 c3 ff 3d 10 49 5b 3d e6 76 04 3e
       0.021238446 0.1248855 0.053536475 0.12935981
000150 1c 8b 68 3d 5b cc 08 be a0 73 86 3c a4 87 7b bd
       0.05677329 -0.13359205 0.016412556 -0.061408654
000160 34 4b c9 3d fc 93 4e 3d 0c 3d 50 3d aa d2 ce 3d
       0.09828797 0.050434098 0.05083947 0.10098775
000170 60 ad 65 bc 3a 30 0d 3e 70 8b 1c 3c 04 c9 d9 3d
       -0.014018387 0.13787928 0.009554729 0.10634044
000180 da f0 4c bd a0 3c e4 3d e0 11 68 bd 6c 2a ec 3d
       -0.05003438 0.11144376 -0.056657672 0.11531529
000190 46 93 d9 bd 96 49 51 bd 02 f4 0b bd d0 98 00 3d
       -0.10623793 -0.051095568 -0.03416825 0.031395733
0001a0 68 9e e6 3c c4 64 2a bd 30 7f 16 3d 80 b0 11 3e
       0.028151706 -0.041600004 0.03674239 0.14227486
0001b0 38 f5 dc 3d 30 9c e1 3d 28 88 12 be 60 c3 e9 3c
       0.10788959 0.110161185 -0.14309752 0.028535545
0001c0 6c 3c 09 be f1 be d8 bd 66 c8 51 bd 33 2e ba bd
       -0.13401955 -0.10583294 -0.051216505 -0.09090843
0001d0 70 69 b6 3d 6a b4 3a bd 8c 14 d1 3d ce 4d a6 3d
       0.08906829 -0.045582213 0.10208997 0.08120309
0001e0 a8 43 b1 3d a4 0a 68 3d 10 57 8f 3d f4 e7 f3 bd
       0.086554825 0.056650773 0.06999028 -0.11909476
0001f0 6f cf f5 bd 3c b8 96 3d 3f 7d ff bd 20 a9 a2 3d
       -0.120024554 0.07359359 -0.12475061 0.07942414
000200 d0 06 98 3d d3 23 8e bd 70 a2 87 bc c6 b5 eb bd
       0.074231744 -0.06940427 -0.016556948 -0.1150928
000210 ca ba 29 bd 38 ad 0b bd 76 58 19 bd 98 be 15 be
       -0.0414379 -0.03410074 -0.03743788 -0.14623487
000220 e0 7e a9 3d 69 59 ae bd b0 e9 11 3e 00 60 25 bc
       0.082761526 -0.085131474 0.14249301 -0.010093689
000230 84 46 42 bd 30 53 33 3c 70 fb 40 bc 37 f2 0e be
       -0.04743053 0.010945126 -0.011778697 -0.13959585
000240 2c 16 6f bd 08 3f cd bc a8 de 4c 3d cc 52 41 3d
       -0.058370754 -0.02505447 0.05001703 0.047198102
000250 b0 05 16 3d b8 ff c7 3d 2e 23 15 bd 80 14 7d bb
       0.036626518 0.09765571 -0.036410503 -0.0038616955
000260 7c 42 d7 3d 84 22 34 3d 88 47 41 bd d4 94 0c 3d
       0.10510728 0.04397823 -0.04718736 0.03432162
000270 44 e7 d1 bc 04 c4 f7 3d a0 0a 0e bc 3c 4b 29 3d
       -0.025622971 0.12097934 -0.008669525 0.041331515
000280 cd ee 85 bd 50 d4 f0 bd 30 20 4a 3c 54 8c 96 bd
       -0.06539688 -0.117592454 0.012336776 -0.07350984
000290 1e ca 6d bd 80 50 58 3b 0a 0e 56 bd b4 d0 2e 3d
       -0.058054082 0.0033006966 -0.052259482 0.042679504
0002a0 6c 1f d4 3d 54 bb 51 3d 0e 97 1d bd 78 62 63 3d
       0.10357556 0.05120404 -0.038474135 0.05551383
0002b0 30 75 54 3d ec b5 1f 3d a4 a0 d9 3d 62 bc 02 bd
       0.05186957 0.038991854 0.10626343 -0.031917937
0002c0 c0 cb 31 3c 45 ec 8e bd 78 db ae bd 7c 28 7b 3d
       0.0108518 -0.069786586 -0.08537954 0.061317906
0002d0 30 68 a2 bd 8c 49 4d 3d 90 ba 94 3d c8 70 47 3d
       -0.079300284 0.050118968 0.072621465 0.04869154
0002e0 10 e1 3e 3d b0 51 85 3c 2b 3e 16 be e4 8d d0 3d
       0.046601355 0.016274303 -0.14672153 0.101833135
0002f0 d0 1b 16 3e 76 a7 12 be 44 b0 25 3d 36 a1 01 3e
       0.14659047 -0.14321694 0.040451303 0.12659153
000300 9c 99 cf 3d d2 ea 0e 3e a0 fa 47 bd 06 8a b2 3d
       0.101367205 0.13956764 -0.048823 0.08717732
000310 e8 4b 03 3e 9c 0d 0c 3e 48 c7 67 3d a8 c7 76 3d
       0.12821925 0.13677067 0.056586534 0.060249
000320 d4 a7 57 3d 00 a4 40 3a 40 98 09 3e 29 33 a1 bd
       0.052650288 0.00073486567 0.13436985 -0.07871086
000330 76 8e 14 be 10 4b 42 3d ee d1 24 bd 00 27 8e ba
       -0.1450747 0.047434866 -0.040239267 -0.0010845363
000340 3c bc 3e 3d 32 a7 0f be 72 8e 1d bd 60 aa e5 bb
       0.046566233 -0.14028624 -0.038465925 -0.0070088357
000350 85 ae 9d bd c0 df af bd 88 1e 55 3d a8 20 40 3d
       -0.076993026 -0.08587599 0.05203107 0.046906143
000360 c3 b4 94 bd 36 a6 bd 3d ea 81 98 3d 2e 1b 9f 3d
       -0.0726104 0.09260218 0.07446654 0.07768856
000370 a8 38 af 3c b0 a7 32 3c f8 b0 04 3d 6c 33 f8 3d
       0.02138932 0.010904238 0.032395333 0.12119183
000380 60 8b f3 3d a6 55 a6 3d 92 78 bf 3d c0 fb ba 3b
       0.11891818 0.08121805 0.09349169 0.0057062805
000390 ea 7c 90 3d 00 83 6a 3c 80 f1 e6 3d 00 4a a1 bd
       0.070550755 0.014313459 0.11276531 -0.078754425
0003a0 60 51 43 bc 8c 1c 99 bd c8 1a 64 3d 00 e4 a5 bb
       -0.011921257 -0.07476148 0.055689603 -0.00506258
0003b0 50 9d 32 bc c0 94 0c bd 1c 0b a3 3d 44 72 f5 bc
       -0.010901764 -0.034321547 0.07961103 -0.029961713
0003c0 98 56 a2 3c 12 ea 15 bd 88 d6 3c bd 84 78 eb bc
       0.019816682 -0.03660018 -0.04610303 -0.02874399
0003d0 04 56 cc bc 54 8f 3e 3d e6 5f 09 3e 80 96 db 3b
       -0.02494336 0.046523407 0.13415489 0.0067012906
0003e0 54 cc 23 3d fa ba c9 3d
       0.039989784 0.09850116

conv2d_3/Conv2D_bias f4 [10]
000000 00 00 00 00 00 00 00 00 00 00 00 00 00 00 00 00
       0.0 0.0 0.0 0.0
000010 00 00 00 00 00 00 00 00 00 00 00 00 00 00 00 00
       0.0 0.0 0.0 0.0
000020 00 00 00 00 00 00 00 00
       0.0 0.0

conv2d_3/kernel f4 [1, 7, 7, 10]
000000 1d ad ba 3d 68 f7 d6 bd 9a c1 17 3d 2c 9c 11 bd
       0.0911505 -0.10496408 0.037049867 -0.035549328
000010 8e 78 ab bd 24 26 30 bd 30 54 9f bd 49 6c 35 bd
       -0.08372603 -0.043005124 -0.07779729 -0.044292722
000020 16 48 0d 3d e6 2d 45 3d cc e8 b7 bd 23 b7 bf bd
       0.034492575 0.048139475 -0.08979949 -0.093611024
000030 f7 0a b8 bd c0 e2 85 bd 87 64 39 bd de 0f c6 bd
       -0.089864664 -0.0653739 -0.045261886 -0.09670995
000040 ee 0a 14 3d c0 3b 1c bd 7d 55 a7 3d bb ee d2 bd
       0.036143236 -0.03814292 0.081706025 -0.102994405
000050 82 59 ac bd 00 91 0c 3b 06 45 27 3d 54 01 e1 bc
       -0.0841551 0.0021448731 0.04083731 -0.027466454
000060 3d a7 d0 3d e4 79 98 3c 29 a3 51 bd 02 e9 1d 3d
       0.10188148 0.01861281 -0.051180992 0.03855229
000070 b0 d5 5f 3c 63 ae 9b 3d 8b f2 81 3d f8 66 d7 bc
       0.013661787 0.07601621 0.063450895 -0.026294217
000080 c8 de aa bc 63 17 a1 bd 0f 64 aa bd 4a d5 0c 3d
       -0.020858184 -0.07865789 -0.08319866 0.034383096
000090 46 85 13 3d 92 86 3f 3d c0 8a 40 bc af 3e c9 bd
       0.03601577 0.046759196 -0.011751831 -0.09826409
0000a0 2d 12 a0 3d db d7 c8 3d 00 0d 24 ba 22 c8 42 3d
       0.07815967 0.09806796 -0.00062580407 0.047554143
0000b0 38 6a 0c 3c 54 fc bc 3c d7 b5 a5 3d cc 46 85 3c
       0.008570246 0.023069538 0.08091324 0.01626911
0000c0 e7 d0 c4 3d ec 5e 9b bc 04 d1 1c bd d0 a4 81 bc
       0.096101575 -0.01896616 -0.03828527 -0.015825659
0000d0 00 35 9b 3a a8 45 11 bd b3 bd aa 3d 34 65 ef 3c
       0.0011841357 -0.03546682 0.083369635 0.029223062
0000e0 f4 1d 86 bd 04 30 cd 3c 60 06 4d bb e5 aa ad bd
       -0.06548682 0.02504731 -0.0031284317 -0.08479861
0000f0 48 59 3d 3c a8 0b 91 3c 75 9a 81 3d fa 47 5b 3d
       0.011556931 0.017705753 0.063282885 0.05353544
000100 40 c6 2c bd 18 40 d7 bc e0 61 d5 bd de 91 5a bd
       -0.042181253 -0.02627568 -0.10419059 -0.053361766
000110 c4 0a 85 bc 7d af bc 3d f0 91 e0 bb 30 fe de bc
       -0.016240485 0.09213159 -0.0068533346 -0.027220815
000120 8b 62 c4 bd d2 d0 24 3d f0 18 10 bd 0e 82 7c 3d
       -0.09589108 0.04023821 -0.035180032 0.061647467
000130 ac 59 23 bd 06 aa c3 bd a0 8f 62 3c 50 30 00 bd
       -0.03988044 -0.09553914 0.013828188 -0.031296074
000140 dc 24 df bc a8 a1 ba bd 45 22 37 bd 32 62 11 3d
       -0.027239256 -0.09112865 -0.044710416 0.035494037
000150 2c 28 8f 3c 9d e6 ca 3d 4e ee 0c 3d 2a 01 75 bd
       0.01747521 0.09907267 0.034406953 -0.059815563
000160 18 ee 05 bc 06 7b 7b bd a3 4f a1 3d 14 c4 57 bd
       -0.008174442 -0.06139662 0.078765176 -0.05267723
000170 9a 8e 12 bd 46 e4 78 3d 34 7a 8f bd dd cb 91 bd
       -0.035780527 0.060764574 -0.0700573 -0.07118962
000180 15 16 d3 3d 19 d8 b6 bd 2c 38 d8 3c 40 a6 2a bd
       0.10306946 -0.08927936 0.026393972 -0.041662455
000190 7a 01 52 3d 5a 79 9e bd 65 24 96 3d 10 3b fe 3b
       0.05127094 -0.0773799 0.073311605 0.0077585056
0001a0 63 97 99 3d c1 69 c5 3d a3 44 a7 3d 79 fc ce 3d
       0.07499578 0.096393116 0.08167388 0.10106749
0001b0 a0 ed ea bc 27 53 c2 3d 24 93 ab bd 34 4b f6 3c
       -0.028677762 0.09488516 -0.08377674 0.030065157
0001c0 04 a0 f1 3c 7d 26 9b 3d 30 e7 65 bc 6b 26 ae 3d
       0.029495247 0.075757004 -0.01403217 0.085034214
0001d0 56 3c ae bd 5a 83 60 3d f3 58 be 3d ae 4d 2e 3d
       -0.08507602 0.054812767 0.092943095 0.04255455
0001e0 80 0b f0 3b 50 db 8b bd 66 95 ac bd 56 89 63 3d
       0.0073255897 -0.0682894 -0.08426933 0.055550896
0001f0 e2 b2 02 bd 62 b6 c6 bd a9 89 ac bd 65 da 80 3d
       -0.031908877 -0.097027555 -0.08424694 0.062916555
000200 7f 96 d4 3d 18 fb 07 3c 58 bb ea bc 90 40 b4 bb
       0.10380267 0.0082996115 -0.028653786 -0.0055008605
000210 69 05 8a 3d 9e d3 28 3d 8d d6 5c bd 77 05 c0 3d
       0.06739313 0.04121744 -0.05391555 0.09376042
000220 9e fb 35 3d 9c 8c ce bd 33 a7 94 bd ce 59 04 bd
       0.044429414 -0.10085413 -0.07258453 -0.032312207
000230 07 dd 5d bd c5 2f d7 3d a2 6f 9a bd b9 e1 88 3d
       -0.054165866 0.10507158 -0.075408235 0.06683678
000240 e0 30 cb bd 5e 71 47 3d 93 0a b7 3d b4 07 e9 3c
       -0.099214315 0.0486921 0.08937564 0.028446056
000250 17 1a a5 bd b8 88 36 3c fa ac 94 bd 70 45 9a 3c
       -0.08061617 0.011140995 -0.07259555 0.018831939
000260 60 89 d8 bb f8 1f ae bc c0 43 97 bc 78 fe 41 3c
       -0.0066081733 -0.021255478 -0.018464923 0.011840455
000270 7f 23 99 3d 04 e2 f5 3c a4 af 9f bc 51 12 90 bd
       0.074774735 0.030015 -0.019492932 -0.070347436
000280 66 1d 02 bd 32 fa 27 3d b0 b7 9c 3b bc 71 cf bc
       -0.031766318 0.04101009 0.0047826394 -0.025322787
000290 c7 f4 cb 3d 26 ad 02 3d a0 f1 72 bc 6d f0 8d 3d
       0.09958797 0.03190341 -0.014828116 0.06930623
0002a0 00 ef cd ba 59 9a 9a 3d b8 94 9e 3c c8 4e d3 bd
       -0.0015711486 0.07548971 0.019358024 -0.10317761
0002b0 8d ac d2 bd 7c 33 df 3c 80 db bb bd f2 e0 77 bd
       -0.10286818 0.02724623 -0.09172726 -0.06051726
0002c0 49 2c 91 3d 9d 11 b8 3d c0 7f 9c bd f8 22 72 bd
       0.07088525 0.089877345 -0.07641554 -0.05911538
0002d0 40 26 62 bb 76 21 8e bd ee 85 2f 3d 66 b4 31 3d
       -0.0034507662 -0.06939976 0.042852335 0.043384932
0002e0 41 44 86 3d 54 b6 a7 bc c2 62 3f 3d 87 00 aa bd
       0.06555987 -0.020472683 0.046725042 -0.08300882
0002f0 84 f9 87 bd ca ee 2e 3d ed dc b9 bd 32 88 10 3d
       -0.06639388 0.042708196 -0.090753414 0.035286136
000300 00 ad c3 ba 30 09 81 bc 78 5e a9 bc 52 90 14 3d
       -0.0014928877 -0.015751451 -0.020674929 0.036270447
000310 34 0b d9 3c 1c 2b 69 bd 09 3e 95 bd 36 fb 77 3d
       0.0264946 -0.056925878 -0.07287223 0.060542308
000320 fc 97 88 bd 9f 63 95 bd 92 bc c2 bd 00 c8 45 bb
       -0.06669614 -0.07294392 -0.09508623 -0.0030179024
000330 23 ab 9d bd 17 99 96 3d 12 76 52 3d 5d 8c 8b 3d
       -0.07698657 0.07353418 0.051382132 0.068138815
000340 8a 95 39 3d 17 28 4b bd b8 73 34 bc 68 ac 7a 3c
       0.045308627 -0.04959878 -0.011013918 0.015299894
000350 3c 48 c3 bd 76 52 82 bd c8 fe 34 3c 9f b1 c2 bd
       -0.09535262 -0.063633844 0.011047073 -0.09506535
000360 2f 01 8c 3d 0d 3d a5 3d ac 5c cb bd 16 66 b5 bd
       0.06836163 0.08068285 -0.09929785 -0.08857362
000370 1e 43 c5 bd 36 80 5d 3d 26 6f 6a bd 3a a0 55 3d
       -0.09631942 0.05407735 -0.057234906 0.052154757
000380 22 78 25 3d fd db bb 3d 08 eb 44 3c 64 32 ca bd
       0.04039777 0.09172819 0.012018926 -0.098728925
000390 b8 5c 34 3c a0 64 8a 3b 9d a4 b5 3d cc 13 e1 3c
       0.011008434 0.004223421 0.08869288 0.02747526
0003a0 09 b2 bb bd 7c ae a6 bd 98 5e e5 bc 9c 26 e3 3c
       -0.09164817 -0.08138749 -0.027999207 0.027728371
0003b0 0b ab 3e bd c0 62 4d bd 06 65 18 3d bb f4 9f 3d
       -0.046549838 -0.050143003 0.03720572 0.078103505
0003c0 6b b3 8e 3d 5b a2 83 3d 2a 95 5e bd 8c 51 b1 bc
       0.06967815 0.06427451 -0.054341473 -0.02164533
0003d0 fb 98 32 bd a7 69 94 3d d7 56 b0 3d 60 ab 06 bc
       -0.043602925 0.07246714 0.086103134 -0.00821957
0003e0 ef 5d 94 3d ad d1 d7 3d b6 3d 23 bd d5 ca cd bd
       0.07244479 0.10538039 -0.039853774 -0.10048453
0003f0 8f 28 b4 3d 0d eb 9c bd b1 2e 8b 3d a2 a1 6e 3d
       0.087967984 -0.0766202 0.06796015 0.058259614

conv2d_4/kernel f4 [1, 2, 2, 10]
000000 18 59 38 be a0 e8 e9 bd 90 89 64 be cb 32 b1 3e
       -0.18002737 -0.11421323 -0.22318101 0.34609064
000010 c9 74 aa 3e 3e 34 8e be a1 76 96 3e 40 53 41 be
       0.33292225 -0.27774233 0.29387382 -0.18879414
000020 64 c2 9d bd 56 7d 5d 3e 0a 9c 7b 3e 5d 9c 95 3e
       -0.07703093 0.21629843 0.24571243 0.29220858
000030 f7 18 90 3e a0 e4 92 be 30 cc f5 bc 68 c3 66 3d
       0.28144047 -0.28690052 -0.03000459 0.056338698
000040 3c fe dc bd 7a d5 8f be 84 d8 90 bd 69 d8 b8 3e
       -0.10790679 -0.28092557 -0.07072547 0.36102608
000050 70 51 98 bd a4 51 8f bd f8 d3 3b bd 92 45 63 be
       -0.07437408 -0.069979936 -0.045856446 -0.22194508
000060 e0 49 fa bd 2e 70 51 3e 68 0c ca 3d 0a 5c 46 3e
       -0.12221122 0.2045295 0.098656476 0.19371048
000070 f0 73 a3 bc e2 94 18 be aa a5 73 be fd 0b a6 3e
       -0.019952744 -0.14900544 -0.23793665 0.3243102
000080 f4 36 10 be 9e 41 73 be 4b 36 62 be 8c e7 9a bd
       -0.14083463 -0.237555 -0.22091024 -0.07563695
000090 48 31 34 be 90 95 1b bd 80 13 34 3c bf b8 88 3e
       -0.17596924 -0.03798443 0.010990977 0.2670345
