SZakdoga/Neurnet/keras2.tflite (tflite, 5624 bytes, 7 tensors)

conv2d_1/Conv2D_bias f4 [10]
0	0x00000000	0.0
1	0x00000000	0.0
2	0x00000000	0.0
3	0x00000000	0.0
4	0x00000000	0.0
5	0x00000000	0.0
6	0x00000000	0.0
7	0x00000000	0.0
8	0x00000000	0.0
9	0x00000000	0.0

conv2d_1/kernel f4 [1, 3, 3, 10]
0	0x3db87484	0.090065986
1	0x3d6f1ad0	0.05837518
2	0x3c782800	0.0151462555
3	0x3e1a32d8	0.15058458
4	0xbe3f885b	-0.18704359
5	0xbd83ac64	-0.06429365
6	0xbe33ca96	-0.17557749
7	0x3e63c594	0.22243339
8	0x3e499408	0.19685376
9	0xbcf63248	-0.030053273
10	0xba2be200	-0.0006556809
11	0x3d65e308	0.056124717
12	0xbcdf0038	-0.027221784
13	0xbd3d23b4	-0.046176627
14	0xbe63b138	-0.22235572
15	0x3d1eb0e0	0.0387429
16	0xbd236444	-0.039890543
17	0x3d96a12c	0.0735496
18	0xbdb2780e	-0.08714305
19	0xbdd8e65a	-0.10590811
20	0xbe107a78	-0.14109218
21	0xbe0d5150	-0.1380055
22	0x3dedd670	0.11613166
23	0xbdc33d4c	-0.09533176
24	0x3d96bbd4	0.07360044
25	0x3e0c7ea8	0.1372019
26	0xbe465745	-0.19369228
27	0x3d463758	0.048392624
28	0xbd7413b4	-0.059589103
29	0xbe1fa850	-0.1559155
30	0x3e3ecaf6	0.18632111
31	0x3e45a958	0.19302881
32	0xbcb0f7b0	-0.021602482
33	0x3debbd64	0.11510733
34	0xbe438cd9	-0.19096698
35	0x3e3cc6e8	0.18435252
36	0xbd49f3b8	-0.049304694
37	0x3d2d47c8	0.042304784
38	0xbcbf8510	-0.023378879
39	0xbe046306	-0.129284
40	0xbe19afdb	-0.1500849
41	0xbdce1afc	-0.100637406
42	0x3be81b40	0.0070833266
43	0x3e6a6588	0.22890294
44	0xbda4dcb8	-0.08049911
45	0x3e640af0	0.22269797
46	0x3e07e216	0.13269839
47	0xbca4bff0	-0.020111054
48	0xbd41d768	-0.047324568
49	0x3d98bd84	0.07458022
50	0x3e798f64	0.24371105
51	0x3dededac	0.11617598
52	0xbe4aeab8	-0.198161
53	0x3e48e668	0.19619143
54	0x3dfc864c	0.123303026
55	0x3e224254	0.15845615
56	0xbe0774c0	-0.1322813
57	0xbd5a4074	-0.053284124
58	0xbdb89140	-0.09012079
59	0x3e596e30	0.2123344
60	0x3dd0a22c	0.10187182
61	0x3e5b8570	0.21437621
62	0xbe2311cd	-0.15924759
63	0xbe78cdcc	-0.24297255
64	0xbd4834c4	-0.048878446
65	0x3e68cc12	0.22734097
66	0x3d2e17a0	0.042503
67	0x3d82a9c8	0.063800395
68	0x3d46c350	0.04852611
69	0xbe13b066	-0.1442276
70	0x3cd60640	0.026126027
71	0x3e380e34	0.17974168
72	0xbda08592	-0.078379765
73	0x3cb42440	0.021989942
74	0x3c2d8580	0.010590911
75	0xbe3aa206	-0.1822587
76	0x3e16d3ec	0.1472928
77	0x3e561406	0.20906076
78	0xbde51cb2	-0.11187114
79	0xbddb1e54	-0.10699144
80	0x3e36d466	0.17854461
81	0xbe305fc6	-0.17224035
82	0x3dd756c4	0.10514596
83	0x3df88404	0.12134555
84	0x3e79d5f8	0.24398029
85	0xbd87a966	-0.06624107
86	0x3e331da4	0.17491776
87	0x3dbd2440	0.0923543
88	0xbdb8a86c	-0.09016499
89	0xbe5525ff	-0.20815276

conv2d_2/Conv2D_bias f4 [10]
0	0x00000000	0.0
1	0x00000000	0.0
2	0x00000000	0.0
3	0x00000000	0.0
4	0x00000000	0.0
5	0x00000000	0.0
6	0x00000000	0.0
7	0x00000000	0.0
8	0x00000000	0.0
9	0x00000000	0.0

conv2d_2/kernel f4 [1, 5, 5, 10]
0	0x3df7485c	0.12074348
1	0x3dbfe2de	0.09369443
2	0x3d9210bc	0.07132098
3	0xbb14e600	-0.0022720098
4	0xbe0255e8	-0.12728083
5	0x3da45e04	0.080257446
6	0x3be4a960	0.006978199
7	0x3da89724	0.08231953
8	0x3da68d56	0.081324264
9	0x3dd624e8	0.10456258
10	0x3ddbe660	0.107373
11	0xbb8ffae0	-0.0043939203
12	0x3da0b520	0.07847047
13	0xbe0b52a7	-0.13605748
14	0xbd2ccf02	-0.042189606
15	0x3e13475e	0.14382693
16	0xbcc6e3dc	-0.024278574
17	0xbd8ea787	-0.06965547
18	0xbc3f3880	-0.0116711855
19	0x3d8bd0d0	0.06826937
20	0x3d87857c	0.06617257
21	0x3d1adf14	0.0378104
22	0xbd812d3b	-0.06307455
23	0x3d743718	0.059622854
24	0x3a1e6200	0.0006041825
25	0x3d74cb88	0.059764415
26	0x3ceaebe8	0.028676942
27	0x3c295b10	0.010336652
28	0x3df108bc	0.11769244
29	0x3da94b24	0.08266285
30	0xbde94aa6	-0.11391191
31	0x3df4ea44	0.11958745
32	0xbcfba10c	-0.030716442
33	0x3cbce8c8	0.023060217
34	0x3dc8aeec	0.09798989
35	0xbd642614	-0.055700377
36	0x3cf47368	0.029840186
37	0x3dbfe7c6	0.09370379
38	0xbdafcb80	-0.085837364
39	0xbdd9a766	-0.10627632
40	0xbad45300	-0.0016199052
41	0x3dac20ee	0.08404718
42	0x3e041274	0.12897664
43	0xbd31d9e2	-0.04342068
44	0xbdd5bc48	-0.104363024
45	0xbda5ef02	-0.08102228
46	0xbcd90eb8	-0.026496276
47	0xbdd326d2	-0.10310139
48	0x3dfe7a64	0.12425688
49	0x3ca2fcb0	0.019895881
50	0xbdd5aba6	-0.1043313
51	0xbdfd4594	-0.123667866
52	0xbc86f028	-0.016471937
53	0xbc72d040	-0.0148201585
54	0xbe0e1c33	-0.13877945
55	0xbdd53e96	-0.10412328
56	0xbddc7298	-0.107640445
57	0xbdeee0aa	-0.11663945
58	0x3da445a0	0.080210924
59	0xbc8e8f88	-0.017402425
60	0xbd18466c	-0.037176535
61	0x3d0453c4	0.032306448
62	0xbdbeb3e5	-0.09311656
63	0x3df0f088	0.11764628
64	0xbb777ec0	-0.0037764758
65	0x3e09f1a2	0.13471082
66	0x3e07797e	0.1322994
67	0x3dfc8b04	0.123312026
68	0xbca2c910	-0.019871265
69	0xbdab232a	-0.083563164
70	0x3d75e768	0.06003514
71	0xbdcd3b8f	-0.100211255
72	0xbe07fab3	-0.13279228
73	0xbdaf3331	-0.08554686
74	0x3ddba9ec	0.107257694
75	0x3dbff11e	0.09372161
76	0x3df82440	0.12116289
77	0x3d91a1ee	0.07110964
78	0xbcc0e6c8	-0.023547545
79	0xbe102e1a	-0.14080086
80	0xbe1608d6	-0.14651808
81	0xbd81c8a8	-0.063371
82	0xbe06c0d6	-0.13159499
83	0xbdfae27c	-0.1225023
84	0xbd9df0d2	-0.077119485
85	0xbd0f5102	-0.034989364
86	0x3c51bdd0	0.0128016025
87	0x3c2da350	0.010598019
88	0xbe00a021	-0.12561084
89	0x3cc44108	0.02395679
90	0x3d07db6c	0.03316824
91	0x3d245a80	0.04012537
92	0x3d067d60	0.03283441
93	0xbe02b799	-0.1276535
94	0xbd1cf178	-0.03831622
95	0xbd06aae0	-0.032877803
96	0xbe091faa	-0.13390985
97	0x3dacaaf2	0.08431043
98	0x3ddece0c	0.10879144
99	0x3c531780	0.012884021
100	0x3d36dd54	0.04464467
101	0x3e0f8baa	0.14018121
102	0xbcec40e0	-0.028839529
103	0xbd3529f4	-0.044229463
104	0xbd889b1f	-0.06670212
105	0xbdb835a0	-0.08994603
106	0xbd7e070c	-0.06201844
107	0xbde16d6c	-0.11007199
108	0xbdd9aa1d	-0.1062815
109	0xbda446b2	-0.080212966
110	0xbd7b5e1a	-0.06136904
111	0x3e01ee6a	0.12688604
112	0x3df64540	0.12024927
113	0x3d92091c	0.07130644
114	0x3d88d172	0.066805735
115	0x3b815900	0.003947377
116	0x3dd729f4	0.10506049
117	0xbde432c7	-0.111424975
118	0x3d27c8ac	0.04096286
119	0xbe04fa32	-0.12986067
120	0xbc488ee0	-0.012241095
121	0xbd5251c4	-0.05134751
122	0xbcddd0f4	-0.027077176
123	0x3e0a5956	0.13510641
124	0xbdef628e	-0.1168872
125	0x3df38f1c	0.1189253
126	0x3d716b70	0.05894035
127	0x3cda6810	0.026660949
128	0xbced44b4	-0.028963424
129	0xbd9495e0	-0.07255149
130	0xbcaa28f0	-0.020771474
131	0xbbb03720	-0.005377665
132	0x3c726550	0.014794663
133	0xbd16741a	-0.036731817
134	0xbd6dc3ea	-0.058048166
135	0xbd8da802	-0.069168106
136	0x3d9413f2	0.07230367
137	0xbda25514	-0.079263836
138	0xbde3c1ab	-0.111209236
139	0xbccbef10	-0.024894267
140	0x3e14fbe8	0.1454922
141	0xbdef4314	-0.11682716
142	0x3da419aa	0.080127075
143	0x3e05a92c	0.13052815
144	0xbd71edae	-0.05906456
145	0x3d9a8ec8	0.075467646
146	0xbda0511c	-0.078279704
147	0xbdd29f6d	-0.10284314
148	0xbdc70ec0	-0.0971961
149	0xbd1b6f10	-0.037947714
150	0xbdb7ca7f	-0.0897417
151	0x3cee89c0	0.029118419
152	0x3df6b5c4	0.12046388
153	0x3e052646	0.13002881
154	0x3d64ad88	0.055829555
155	0xbcf63ea0	-0.030059159
156	0xbd9f6409	-0.07782752
157	0x3dd8dcc8	0.10588986
158	0xbd6732b0	-0.056444824
159	0x3de66f74	0.11251727
160	0x3d4d33e0	0.0500983
161	0x3dcf5936	0.101244375
162	0x3e02cc50	0.12773252
163	0xbdaaad7f	-0.08333873
164	0x3d86e18c	0.065859884
165	0xbc002280	-0.007820725
166	0x3d8b966e	0.068158016
167	0xbc20f090	-0.00982298
168	0xbde89e9a	-0.11358376
169	0x3de20318	0.11035746
170	0xbd5f596c	-0.05452864
171	0xbd8ac5cf	-0.0677601
172	0xbe07ffce	-0.13281175
173	0x3de93a88	0.11388117
174	0x3d86d6c8	0.06583935
175	0xbd6e8942	-0.058236368
176	0xbde654ad	-0.112466194
177	0x3c3482b0	0.011017486
178	0x3e0fb672	0.14034441
179	0xbde73065	-0.112885274
180	0xbd1ea63e	-0.03873276
181	0xbd646ae8	-0.055766016
182	0x3c74cd00	0.014941454
183	0x3d3b4d38	0.04572794
184	0xbe0bc546	-0.13649473
185	0xbcd74628	-0.02627857
186	0xbc9cf678	-0.019160494
187	0x3c692d30	0.014231965
188	0x3e0ee246	0.13953504
189	0xbdeb06d4	-0.11475912
190	0x3dc9b02e	0.09848057
191	0x3daff048	0.08590752
192	0x3dc724a6	0.09723787
193	0x3d74c0f0	0.059754312
194	0x3d423e20	0.04742253
195	0xbc9f2a08	-0.019429222
196	0x3e0ef7ae	0.1396167
197	0xbde49911	-0.111620076
198	0xbdb26510	-0.087106824
199	0x3dd87aa0	0.10570264
200	0xbdb38306	-0.08765225
201	0xbc490f40	-0.012271702
202	0x3d9d4dca	0.07680853
203	0x3dfd8fec	0.123809665
204	0xbca67000	-0.020317078
205	0x3bff6300	0.007793784
206	0x3dfbaf40	0.12289286
207	0x3d4732a0	0.048632264
208	0xbde3cdfc	-0.11123273
209	0xbd8f0660	-0.06983638
210	0x3dfafc84	0.12255195
211	0xbd5b3318	-0.053515524
212	0xbda8c4a2	-0.0824063
213	0x3dcd0848	0.10011345
214	0x3d80b044	0.0628362
215	0xbd9469ba	-0.07246728
216	0xbd9d188e	-0.07670699
217	0xbd01996e	-0.031640463
218	0x39e59800	0.00043791533
219	0x3d6f10c8	0.058365613
220	0xbced42c8	-0.028962508
221	0x3d16d9a8	0.036828667
222	0xbdcef698	-0.10105628
223	0xbd884cdb	-0.06655284
224	0xbdf32a3e	-0.118732914
225	0x3c97ad80	0.018515348
226	0x3d9731da	0.07382555
227	0xbbbc7120	-0.0057507902
228	0xbd9c5565	-0.07633475
229	0x3df1decc	0.11810073
230	0x3c661130	0.014042184
231	0x3dd8e2dc	0.10590145
232	0xbdc3e75e	-0.09565614
233	0x3d1582f8	0.036501855
234	0xbe15849e	-0.1460137
235	0x3e12e034	0.14343339
236	0x3da2ddd2	0.07952465
237	0xbd76b7ee	-0.060234003
238	0xbd876f25	-0.06612996
239	0xbd3a8d46	-0.045544885
240	0x3e094c96	0.13408121
241	0x3d67dca8	0.05660692
242	0x3de1e450	0.11029875
243	0xbe11dee1	-0.14245178
244	0xbcd478f4	-0.025936581
245	0x3e08cd8e	0.13359663
246	0xbd048916	-0.032357298
247	0x3dd756a0	0.10514569
248	0xbdbe2216	-0.09283845
249	0x3befd8e0	0.0073195547

conv2d_3/Conv2D_bias f4 [10]
0	0x00000000	0.0
1	0x00000000	0.0
2	0x00000000	0.0
3	0x00000000	0.0
4	0x00000000	0.0
5	0x00000000	0.0
6	0x00000000	0.0
7	0x00000000	0.0
8	0x00000000	0.0
9	0x00000000	0.0

conv2d_3/kernel f4 [1, 7, 7, 10]
0	0x3c212ab8	0.009836845
1	0xbda6cba5	-0.08144311
2	0x3d9198bf	0.07109212
3	0xbaeda0c0	-0.0018129572
4	0xbdbb9ca5	-0.09160737
5	0x3d531e2a	0.05154244
6	0x3d689a76	0.05678793
7	0xba0b5780	-0.0005315468
8	0x3dc2bc4f	0.09508573
9	0xbc61c1a8	-0.013779081
10	0x3dd7a6ff	0.10529899
11	0x3da2414f	0.07922613
12	0xbd690db3	-0.05689783
13	0xbd323296	-0.043505274
14	0x3ca95e84	0.020674951
15	0x3d948e05	0.072536506
16	0xbcf7154c	-0.030161522
17	0x3dccf195	0.100070156
18	0xbc9011e0	-0.017586648
19	0xbd97efd7	-0.07418793
20	0xbdc4b0c0	-0.09604025
21	0x3d7532ae	0.059862785
22	0x3bfad460	0.0076547116
23	0xbd2b817e	-0.04187154
24	0xbc7baae8	-0.015360571
25	0x3bf26880	0.0073977113
26	0x3db5e423	0.08881404
27	0x3daeb67d	0.085309006
28	0x3bea9d20	0.007159844
29	0xbdc401f7	-0.09570687
30	0xbdc0bebf	-0.09411382
31	0xbdd36041	-0.10321093
32	0xbd977bcc	-0.07396659
33	0x3dbbce09	0.091701575
34	0xbd9835d1	-0.0743214
35	0x3d9b77ed	0.075912334
36	0x3d669ed6	0.05630382
37	0xbcfb0900	-0.03064394
38	0xbc136988	-0.008997329
39	0xbdc7a1ea	-0.097476795
40	0xbca1dffc	-0.019760124
41	0xbc7d2e50	-0.015452936
42	0x3d64c3d2	0.05585081
43	0xbd50f054	-0.051010445
44	0x3d00c3de	0.031436794
45	0x3db17aa9	0.08665974
46	0x3db1263f	0.08649873
47	0xbd64ea9f	-0.055887815
48	0x3db2d73f	0.08732461
49	0x3d842ef7	0.0645427
50	0xbdc4457e	-0.09583567
51	0x3dc57cf3	0.09642973
52	0xbdd5249e	-0.10407375
53	0x3d59b496	0.053150736
54	0xbd5d49c4	-0.054025427
55	0x3d6246f6	0.055243455
56	0x3d7c74c2	0.061634786
57	0xbd85b380	-0.065283775
58	0xbd9c0803	-0.076187156
59	0x3dcc74cb	0.09983214
60	0xbaf06500	-0.0018340647
61	0x3dc5ffc7	0.09667926
62	0xbcfea314	-0.031083621
63	0xbd04d452	-0.032429047
64	0x3d7e6f8a	0.06211809
65	0xbdc4d15e	-0.09610246
66	0xbcf0b9b0	-0.029385418
67	0xbdbb995c	-0.0916011
68	0xbd4ca5d7	-0.049962845
69	0xbdac25e4	-0.084056646
70	0x3c2f0498	0.010682248
71	0xbda689aa	-0.08131726
72	0x3d9ebcc5	0.07750849
73	0x3d3d88e6	0.046273135
74	0xbd8a253f	-0.067453854
75	0x3d9b1bc5	0.07573656
76	0xbcca21a4	-0.024674244
77	0xbdbf7fe4	-0.09350565
78	0x3d121dc2	0.03567291
79	0x3a99a940	0.0011723414
80	0xbbf1b3d0	-0.0073761716
81	0x3c3fe738	0.011712842
82	0xbdc99d7e	-0.098444924
83	0xbd282770	-0.041053236
84	0x3d95a13d	0.073061444
85	0xbda28c36	-0.07936899
86	0x3dbd471d	0.092420794
87	0xbd0e764a	-0.034780778
88	0x3cdedb0c	0.027204059
89	0x3cf034dc	0.02932208
90	0xbcc33a80	-0.023831606
91	0xbdb0eb8a	-0.086386755
92	0xbdc0404c	-0.09387264
93	0x3d90d72b	0.0707229
94	0x3d684af6	0.056712113
95	0xbbda2840	-0.00665763
96	0x3c4e27c0	0.012582719
97	0x3cf67274	0.030083872
98	0x3db9e693	0.09077182
99	0xbc2ebd10	-0.010665193
100	0x3c63afc0	0.0138968825
101	0xbc925cf8	-0.017866597
102	0x3dc5eb3b	0.09664007
103	0x3dc82a11	0.097736485
104	0x3da5c049	0.08093316
105	0xbbdf0420	-0.0068059117
106	0xbcb38334	-0.021913148
107	0x3dc9296f	0.09822356
108	0xbd845612	-0.06461729
109	0xbcd3544c	-0.025797032
110	0xbc837424	-0.016046591
111	0x3cedc8a4	0.029026337
112	0xbcecdb90	-0.02891329
113	0xbc7c9eb8	-0.015418701
114	0x3cbec984	0.02328945
115	0x3dc117dd	0.0942838
116	0xbc97c100	-0.018524647
117	0xbb9e3270	-0.00482779
118	0x3d76d0f2	0.06025786
119	0xbd473c7b	-0.048641663
120	0xbd655982	-0.055993564
121	0x3c22c790	0.009935275
122	0xbd8d713c	-0.06906363
123	0xbcf86d24	-0.03032548
124	0x3ca66974	0.020313956
125	0x3d8aa1d9	0.06769151
126	0xbdb4f2ed	-0.08835397
127	0x3dd6d7f1	0.10490406
128	0x3db498bb	0.088181935
129	0xbcaaedf8	-0.020865425
130	0x3bc91650	0.006136693
131	0x3dd063d9	0.101752944
132	0x3c172228	0.009224452
133	0xbd3b45aa	-0.045720734
134	0xbd8197de	-0.063277945
135	0xbdb37e1e	-0.08764289
136	0xbd97ce28	-0.07412368
137	0xbc6471c8	-0.013943143
138	0x3d92f83b	0.071762525
139	0xbdc6300c	-0.09677133
140	0xbd550897	-0.052010145
141	0xbd8701b8	-0.06592125
142	0x3d9fe9a3	0.078082345
143	0x3d33bd56	0.043881737
144	0x3cbdcc04	0.023168571
145	0xbd812e27	-0.06307631
146	0x3dd38097	0.10327261
147	0xbbb1eb90	-0.0054296926
148	0xbd4e0578	-0.050298184
149	0x3d094d86	0.033521198
150	0x3c240a18	0.010012172
151	0xbd5d6e23	-0.054060113
152	0xbc48a280	-0.012245774
153	0xbdcc094b	-0.0996271
154	0xbcc36398	-0.023851201
155	0xbd4f61b2	-0.05063028
156	0xbd19173c	-0.037375674
157	0x3c9ef2e0	0.019402921
158	0x3d525cfe	0.051358216
159	0xbda47a6b	-0.08031162
160	0xbd789146	-0.06068542
161	0xbc965ef8	-0.018355832
162	0x3d1ef64a	0.0388091
163	0xbdbcee55	-0.09225146
164	0x3dc1f6dd	0.094709136
165	0x3dce3365	0.100683965
166	0xbd56d6b6	-0.052450858
167	0xbb9f1fa0	-0.004856065
168	0x3c972d64	0.018454261
169	0x3cd8037c	0.026368849
170	0x3a692f00	0.0008895248
171	0xbd755a22	-0.05990041
172	0xbd65981a	-0.05605326
173	0x3d38cb26	0.045115612
174	0x3db96ff3	0.09054556
175	0xbc79b588	-0.015241034
176	0x3c37d3e8	0.011219956
177	0xbd3fcaeb	-0.046824377
178	0x3d8f1715	0.069868244
179	0xbd4a71bf	-0.049424883
180	0x3d206e86	0.039167903
181	0xbd25f73e	-0.04051899
182	0x3cf0ea0c	0.029408477
183	0x3ccc8cc4	0.024969466
184	0xbd34ccf8	-0.044140786
185	0x3d599f2e	0.05313032
186	0xbd0044c8	-0.031315595
187	0x3d8da6bd	0.069165684
188	0x3da7af4d	0.08187733
189	0xbdaf5c36	-0.0856251
190	0xbdbbb275	-0.09164897
191	0xbd83007a	-0.06396575
192	0x3d93d5f1	0.072185405
193	0xbd4293a5	-0.047504086
194	0xbdbfd6bc	-0.09367129
195	0x3d7dd752	0.061972924
196	0x3d0d5556	0.03450521
197	0xbdc528a6	-0.09626894
198	0x3d18be8e	0.037291102
199	0x3d41567e	0.047201626
200	0x3cfba65c	0.030718975
201	0xbd86c942	-0.06581356
202	0xbca24644	-0.019808896
203	0x3c7af228	0.015316524
204	0xbd9d74b2	-0.076882735
205	0xbd0ef7da	-0.03490434
206	0xbd453e6f	-0.048155244
207	0x3c31e4f0	0.010857806
208	0x3cb83a5c	0.022488765
209	0x3d6270d6	0.05528339
210	0xbdaeca70	-0.08534706
211	0xbd54d38c	-0.05195956
212	0x3dc3dfad	0.09564147
213	0xbdc61269	-0.0967148
214	0xbd803aae	-0.06261192
215	0xbdc98228	-0.098392785
216	0x3d6c722e	0.057726078
217	0xbd4a4792	-0.04938466
218	0xbdc4e41f	-0.09613823
219	0x3db5214f	0.08844244
220	0xbdd41875	-0.10356227
221	0xbd1a70e6	-0.037705325
222	0xbdc15caa	-0.094415024
223	0x3badff90	0.0053100064
224	0xbcbd9e30	-0.023146719
225	0x3d1f4866	0.038887404
226	0x3dd33f9d	0.10314868
227	0x3d99bce1	0.07506729
228	0xbdbf8e26	-0.093532845
229	0x3d97481f	0.07386803
230	0xbd9719c4	-0.07377961
231	0x3c5ed4e0	0.013600558
232	0xbc92530c	-0.017861865
233	0xbcdfdf3c	-0.027328126
234	0x3d4a435a	0.049380638
235	0xbc3845a8	-0.011247076
236	0xbdc506f0	-0.09620464
237	0xbd149b7a	-0.036281087
238	0xbd6abd25	-0.05730929
239	0xbd903922	-0.07042147
240	0xbd9266cd	-0.07148514
241	0x3d444ea6	0.047926567
242	0xbbc445d0	-0.0059897676
243	0xbc1c00f0	-0.009521708
244	0x3dd529db	0.10408374
245	0x3d9c07db	0.07618686
246	0x3c37caa0	0.011217743
247	0x3da55fb9	0.08074898
248	0x3d9588d3	0.07301488
249	0x3db9bcb7	0.090691976
250	0x3dc9dcc3	0.0985656
251	0x3d282302	0.04104901
252	0x3d234dd2	0.039869137
253	0xbd0fa2b8	-0.03506729
254	0x3bc2ffd0	0.0059509054
255	0x3dc80617	0.097667865

conv2d_4/kernel f4 [1, 2, 2, 10]
0	0x3e983cd3	0.29733905
1	0xbe5451e1	-0.2073436
2	0xbea0bab8	-0.31392455
3	0x3d0b18e0	0.03395927
4	0x3e92865f	0.28618142
5	0x3e90001b	0.2812508
6	0xbdf69270	-0.120396495
7	0x3e7f508a	0.24933067
8	0xbe8e97f0	-0.27850294
9	0x3eaa955d	0.3331708
10	0xbe745c5d	-0.23863359
11	0xbd199a30	-0.03750056
12	0xbddbf3fc	-0.10739896
13	0x3e765742	0.24056724
14	0x3e3c6a6e	0.18399975
15	0x3d4f5930	0.050622165
16	0xbc73c9a0	-0.014879614
17	0xbd4a0da8	-0.04932943
18	0x3ddd71e8	0.108127415
19	0xbe779f92	-0.24181965
20	0xbe294442	-0.16529945
21	0xbcca4f80	-0.024696112
22	0x3dc45080	0.09585667
23	0xbe670d8e	-0.22563764
24	0x3dc788c4	0.09742883
25	0x3dbc69fc	0.091999024
26	0x3dba5ab4	0.090993315
27	0xbd3d7160	-0.0462507
28	0x3e8cd115	0.27503267
29	0x3eaeef55	0.3416697
30	0xbd27efb0	-0.04100007
31	0x3e2cb456	0.16865668
32	0x3e8ae389	0.2712672
33	0xbe62d59c	-0.22151798
34	0x3e7f68e6	0.2494236
35	0x3e76dbbe	0.24107262
36	0xbd7c22e0	-0.061556697
37	0xbe5ea1c1	-0.21741392
38	0x3d9240bc	0.07141253
39	0x3e3fd44a	0.18733326
