Cropping_tool/weights/CONV_17.npy (npy, 36992 bytes, 1 tensors)

array f4 [96, 1, 1, 96]
000000 5a 75 16 be e9 8f 20 bc 0a 2c 92 bc 96 eb a1 bd
       -0.14693204 -0.009799936 -0.017843265 -0.079062626
000010 80 85 f0 3c 10 99 12 bd c3 99 a3 3d 60 f5 ad 3c
       0.029360533 -0.035790503 0.07988312 0.021235168
000020 82 2e 89 bd 13 60 08 3c c2 3d d1 bd 4c 1b 51 be
       -0.06698324 0.008323687 -0.102168575 -0.20420569
000030 8c 00 b4 3d fc 18 0b be 05 b3 8d 3e 08 fb de bd
       0.08789167 -0.1358375 0.27675644 -0.10887724
000040 22 10 99 be 90 6d 48 3d b8 2d d1 3b e6 44 92 3d
       -0.2989512 0.048932612 0.006383624 0.071420476
000050 c2 d0 95 3d c1 64 7e bd 55 b3 13 3d 2e 23 6b bd
       0.07315208 -0.062107805 0.036059696 -0.057406597
000060 a1 5e 44 3d c2 8a d8 3d d9 af 51 be 80 5f f2 3c
       0.047941808 0.10573341 -0.20477237 0.029586554
000070 d7 10 93 bd cc 97 da 3d 48 94 eb 3a 69 13 51 bc
       -0.07180946 0.10673484 0.0017973268 -0.012760975
000080 99 ee e8 bd 36 e7 4e 3d 8b e5 c7 3d d5 4b c2 bd
       -0.11373634 0.05051347 0.09760579 -0.0948712
000090 b8 b3 56 3d e0 61 0a bd 56 5b 3b be e1 3d 61 3d
       0.052417487 -0.033784747 -0.1829656 0.054990653
0000a0 58 cb ba bd 3b 5e 92 3e b3 07 16 be 70 f8 d8 3d
       -0.09120816 0.28587517 -0.14651375 0.10594261
0000b0 74 0b d6 bd 54 2f 8b 3d f3 18 8a be 12 0d 74 bd
       -0.10451403 0.067961365 -0.2697216 -0.059582777
0000c0 1c 69 0a 3e 52 7d d3 bd b9 65 ea 3d cb 62 c5 3d
       0.13516659 -0.10326637 0.11445183 0.09637984
0000d0 8a 77 34 bd 3b 69 16 be 0c d2 a7 3c 5b 56 05 be
       -0.044059314 -0.1468858 0.0204859 -0.13021223
0000e0 4c 66 ac bc c1 68 20 bd ea 5a 94 bc 64 7a d9 3d
       -0.021044873 -0.0391624 -0.018109757 0.10619047
0000f0 42 f4 95 3d 0e 7e b0 3d 37 a6 b1 bc c3 9e 4b be
       0.07321979 0.08617793 -0.021685703 -0.19884782
000100 96 b6 d3 3d 68 0d c2 bb 03 d2 2c 3d 23 23 65 3e
       0.1033756 -0.0059220083 0.04219247 0.22376685
000110 18 47 ac 3e 51 0f bc bc 3f fd ca bd fb 80 0c be
       0.3364799 -0.022956522 -0.09911584 -0.13721077
000120 6d ba 40 bb b0 1c 7f 3d a3 0a a9 3d 39 9d f5 bd
       -0.0029407993 0.062283218 0.08253982 -0.119928785
000130 65 27 f1 3d 83 b3 b5 bc 01 1d 19 3d 24 b5 4c bd
       0.11775092 -0.022180324 0.037381176 -0.049977437
000140 0a e3 40 be b0 64 f0 bc 9d a6 79 3c 8c 92 3b 3b
       -0.18836609 -0.029344887 0.015237478 0.0028621284
000150 a4 96 e8 bc 15 c8 a1 3c c6 2a 36 bd ee 78 f2 3b
       -0.028392144 0.019748727 -0.044474386 0.00739967
000160 82 92 f8 3d ea 60 9b 3d 04 2b 6d 3d 89 81 52 3d
       0.12137319 0.07586844 0.05790235 0.051393066
000170 82 10 8e bd e6 a9 41 bd 86 35 b9 bb 42 bb 2e bd
       -0.06936742 -0.04728117 -0.0056521324 -0.04265905
000180 c9 45 73 bd f1 64 06 3f 26 5c 31 bd 35 b0 d7 bd
       -0.059392724 0.52497774 -0.04330077 -0.10531656
000190 44 be 83 3c 8e 3f ba bc 84 8b a2 3d 5a fc 8f 3d
       0.016081937 -0.022735383 0.07936767 0.07030554
0001a0 82 86 eb 3b 8d 6d 11 3e ba 54 cb 3c f2 bc bc 3d
       0.0071876654 0.14201947 0.024820674 0.09215726
0001b0 99 56 51 3c 55 1e 22 3d 40 5d 88 bd 33 de 8d bd
       0.012776994 0.039579708 -0.06658411 -0.06927147
0001c0 e7 2e da bd b8 ff 38 bd cc c6 2e bd fa 90 c7 bd
       -0.10653477 -0.045165747 -0.042670056 -0.09744449
0001d0 60 8b 65 bb 0f d7 90 bc ee ed 59 bc f0 36 18 3c
       -0.00350257 -0.017680673 -0.013301356 0.009290442
0001e0 55 a9 b8 bc 3d d9 cf 3c 6e 08 2a 3d 3b 7e 96 bd
       -0.022541681 0.025372142 0.041511945 -0.07348295
0001f0 93 81 6e bd 00 8b 95 3c f6 81 12 bd 10 44 48 bd
       -0.05822904 0.018254757 -0.03576847 -0.048893034
000200 e0 54 aa 3c 11 12 19 be 85 23 68 3e 87 c4 30 bd
       0.020792425 -0.14948298 0.226698 -0.043156173
000210 b2 2d e4 bd 1d c0 c6 3b 11 5c fc bd 5e 95 a9 3a
       -0.11141528 0.006065382 -0.12322248 0.0012938192
000220 a4 72 2c 3d 7d e4 df 3a 37 bd 5c 3c 51 ca 53 bc
       0.042101517 0.0017081645 0.013472847 -0.012926654
000230 6b 84 d4 3a e6 9d 3e 3e 8f b3 d7 3d cb ea 18 3d
       0.001621378 0.18614921 0.10532295 0.03733329
000240 d3 d0 70 3d e6 9e 36 3d b5 da 37 3d 6c 84 68 bd
       0.0587929 0.04458513 0.04488631 -0.056766912
000250 ad 71 08 3d e4 c9 ef bc 6e 3e b4 bc 42 ed 8f bb
       0.033311535 -0.029271074 -0.022002425 -0.004392297
000260 55 af 80 3d f2 6b 65 bc 95 49 67 3e d5 df 4a 3c
       0.06283442 -0.014002787 0.22586663 0.012382467
000270 c0 eb d1 bd e3 a4 e7 bd b2 c3 81 3d e6 66 32 3b
       -0.10250044 -0.113107465 0.06336154 0.0027221977
000280 64 2f 8e 3c e6 f1 b9 bc d4 20 8b bd 3f 69 5b bc
       0.017356582 -0.022698354 -0.06793371 -0.013391792
000290 a1 87 bc bc b6 5b 05 be ac 8a 5b be 1d 28 9f bd
       -0.023013892 -0.13023266 -0.21439618 -0.07771323
0002a0 0b 63 82 3d 06 dd 84 bd 2f 4d aa bc 8c 09 2a 3d
       0.06366547 -0.064874694 -0.020788757 0.04151301
0002b0 16 95 76 3b ca 3f 8d bc d8 e8 1f 3c 0a f1 c4 3c
       0.0037625483 -0.017242331 0.009760104 0.024040718
0002c0 da 3a b4 3d 74 85 c0 3c 55 e6 a4 bb 7d eb 87 bd
       0.088002875 0.023501135 -0.0050323405 -0.06636713
0002d0 a8 79 46 3d 7a b3 8e 3d 24 81 27 3e c0 36 49 3d
       0.048455864 0.06967826 0.16357857 0.04912448
0002e0 e9 74 e7 3c 23 cf b3 3d 3a 4d ba ba c6 13 c9 bd
       0.02825399 0.087797426 -0.0014213689 -0.098182246
0002f0 5d 2a a1 bc 94 f1 d7 3d 05 7f 90 bc c8 2d 98 bd
       -0.01967352 0.10544124 -0.017638693 -0.07430607
000300 4f 44 fd 3c d7 fe 23 3b b9 61 a0 3e 73 cf e3 3c
       0.030916361 0.0025023723 0.31324556 0.02780888
000310 85 ff 3f 3d 80 63 13 3c 91 a5 8e bd 8f 73 9d bc
       0.04687454 0.008995891 -0.06965173 -0.019220142
000320 b6 49 ad 3b ba 2c 24 bc 64 54 b8 3d 92 ba 08 bd
       0.005288328 -0.010020429 0.09000471 -0.033381052
000330 83 cd 04 3c d5 80 5f 3d 55 93 ca bc ae 78 7e ba
       0.008105638 0.054566223 -0.024728457 -0.0009707314
000340 c7 23 b2 bc 3d 47 37 bd 5c 8d 4e 3d 46 fc 82 3d
       -0.021745576 -0.044745672 0.05042778 0.063957736
000350 63 58 8a bc 64 c7 f0 bd 8e b1 86 3d 25 52 e9 3c
       -0.01688785 -0.11756781 0.065768346 0.028481552
000360 9a d6 33 bc 6c 76 e0 3c a1 3a 36 3c 8b 47 18 bd
       -0.010976458 0.027400218 0.011122377 -0.037177604
000370 10 a4 d4 bc 04 67 fa bb 74 9f fc bc 22 e6 64 bd
       -0.025957137 -0.007641675 -0.030837752 -0.055883534
000380 74 80 a6 3d 84 38 81 bc f7 e0 d5 bc 76 66 e3 bc
       0.08129969 -0.015774019 -0.026108248 -0.027758818
000390 70 60 13 3d d4 af b3 3d f5 d1 85 bd a0 51 1b be
       0.03598064 0.08773771 -0.06534187 -0.15167856
0003a0 f6 91 26 bd db a8 d7 3c f5 7c 28 be ab c0 8f 3d
       -0.040666543 0.026325634 -0.16453917 0.070191704
0003b0 6f cd b4 3c 5f 62 0b 3e d7 da 89 bd 56 ab 69 3a
       0.022070615 0.13611744 -0.067311935 0.00089137757
0003c0 f1 94 3f 3d 48 78 9d 3c 5f 16 e4 3c 46 da ad bd
       0.0467729 0.019222394 0.027842699 -0.08488898
0003d0 75 a0 ae 3d 7f 6a 67 3d 2b 3d 83 3d 04 25 06 3d
       0.085266985 0.056498047 0.06408151 0.032750145
0003e0 b7 1d 46 bd f5 b5 b9 bc 60 cc 39 bd 50 1c 9a 3d
       -0.048368182 -0.022669772 -0.045360923 0.075249314
0003f0 f3 0e 8c 3e a5 97 f9 bc 38 bc cf 3d ff dd a8 38
       0.27355155 -0.030467818 0.10143322 8.052214e-05
