Cropping_tool/weights/CONV_14.npy (npy, 36992 bytes, 1 tensors)

array f4 [96, 1, 1, 96]
0	0xbe554cb7	-0.20830046
1	0x3d30a1bb	0.04312299
2	0xbda0d935	-0.07853929
3	0x3d231fb4	0.039825156
4	0xbcc99560	-0.02460736
5	0x3de54684	0.111950904
6	0xbd65a8b5	-0.056069095
7	0x3e161647	0.14656936
8	0x3df4ea89	0.119587965
9	0x3cc373c7	0.023858918
10	0xbe32a359	-0.17445125
11	0xbbb9cbdc	-0.005670054
12	0xbc174073	-0.0092316745
13	0xbd8e8610	-0.06959164
14	0x3dede52e	0.11615978
15	0xbd901bc9	-0.070365496
16	0x3d90987d	0.07060335
17	0xbdb5dc49	-0.08879907
18	0x3ce444bc	0.027864806
19	0x3db226fc	0.08698842
20	0x3dacf3bc	0.08444926
21	0xbb108a2e	-0.0022055018
22	0xbc207fb8	-0.0097960755
23	0xbca52375	-0.020158509
24	0xbd0e84ee	-0.03479474
25	0x3d9d10d2	0.07669224
26	0xbe5abad9	-0.21360339
27	0xbe026abe	-0.12736031
28	0x3e275bcf	0.16343616
29	0x3c89204c	0.016739033
30	0x3dfaa849	0.12239129
31	0xbda515f7	-0.0806083
32	0x3ce1dfcd	0.027572537
33	0x3d3607d8	0.044441074
34	0x3df24971	0.11830414
35	0x3e37a21f	0.17932938
36	0x3da0ab24	0.078451425
37	0x3cae1091	0.021248134
38	0xbd8f5ddc	-0.07000324
39	0xbc18225b	-0.009285535
40	0xbc852003	-0.016250616
41	0x3e814cf0	0.2525401
42	0xbbb33d1a	-0.0054699304
43	0xbde7b2d2	-0.11313404
44	0xbd22692c	-0.03965108
45	0xbc7e5a36	-0.015524438
46	0x3d982425	0.07428769
47	0xbcbb95b3	-0.02289853
48	0x3da23411	0.07920087
49	0xbe31d95e	-0.17368075
50	0xbd9b9380	-0.07596493
51	0x3dd803fa	0.105476335
52	0xbd737d2a	-0.059445538
53	0x3da78ed7	0.081815414
54	0x3d7f270d	0.0622931
55	0xbbcce098	-0.0062523596
56	0xbd29676a	-0.04135839
57	0x3d1a3594	0.037648752
58	0xbb3ff37a	-0.002928941
59	0x3d0df615	0.03465851
60	0xbca10b7b	-0.019658795
61	0xbd906439	-0.07050366
62	0x3d4b9948	0.049706727
63	0x3d6100a8	0.054932266
64	0xbdc6e550	-0.09711707
65	0xbdc85984	-0.09782699
66	0x3d82bb09	0.063833304
67	0x3d393c04	0.04522325
68	0xbd31a6aa	-0.043371834
69	0xbe124403	-0.14283757
70	0x3e3c1625	0.18367822
71	0x3ddf8161	0.10913349
72	0x3d272b0c	0.040812537
73	0xbba54341	-0.0050434177
74	0xbc181c0a	-0.009284029
75	0x3d712681	0.05887461
76	0x3db58bf4	0.088645846
77	0xbdab7586	-0.08372025
78	0xbdaca78f	-0.08430397
79	0xbe647152	-0.22308853
80	0x3d6ad928	0.057336003
81	0x3d65e3ff	0.056125637
82	0xbcc3efe7	-0.023918105
83	0x3c089464	0.00833616
84	0x3c9270b1	0.017876001
85	0x3e34dc24	0.17662102
86	0xbc6dd332	-0.014515685
87	0xbd623296	-0.055224024
88	0x3d84ec12	0.06490339
89	0x3d529134	0.051408008
90	0xbc33f53a	-0.01098376
91	0xbd8dd299	-0.06924934
92	0x3e524ea9	0.20537819
93	0x3dd0e20e	0.101993665
94	0xbc1be762	-0.009515615
95	0xbcab0e22	-0.020880762
96	0xbdafa5b1	-0.08576525
97	0x3e33d3c4	0.17561251
98	0xbe31bebc	-0.17357916
99	0xbd5c2689	-0.053747687
100	0xbd95e7f4	-0.07319632
101	0x3b2fef80	0.0026845634
102	0xbd5d73e1	-0.05406559
103	0x3cb8fbe9	0.022581058
104	0x3d28f13f	0.041245695
105	0x3c3f5b0e	0.011679424
106	0xbc5bab09	-0.013407477
107	0xbc8eb231	-0.017418953
108	0x3c320ae9	0.010866859
109	0xbcd14654	-0.02554623
110	0x3cc0b6cb	0.023524662
111	0xbc976c8c	-0.018484376
112	0x3c153dcc	0.009108972
113	0xbdd45eeb	-0.10369667
114	0x3cb0dc11	0.02158931
115	0xbcedd005	-0.029029856
116	0x3db1adc5	0.08675722
117	0x3d7a03bc	0.061038718
118	0x3c0ce972	0.00860058
119	0x3d8dcb50	0.069235444
120	0x3e0aec50	0.13566709
121	0x3cf37cfa	0.02972268
122	0xbba1642e	-0.0049252724
123	0xbc02854a	-0.007966349
124	0x3d95b710	0.07310307
125	0x3dbd7440	0.092506886
126	0x3e07a4d1	0.13246466
127	0x3e1361e1	0.14392807
128	0x3d0d4243	0.03448702
129	0x3dd2eca8	0.10299045
130	0x3d649101	0.05580235
131	0x3db17de0	0.08666587
132	0xbce7a8a1	-0.02827865
133	0x3de2199b	0.1104004
134	0xbd845ad0	-0.064626336
135	0xbdba57e3	-0.09098794
136	0xbc7e3b64	-0.0155170895
137	0xbdcba97b	-0.09944435
138	0xbda44257	-0.08020466
139	0xbe02b257	-0.12763344
140	0x3dc7ba36	0.09752314
141	0xbe1419be	-0.14462945
142	0x3d9c8f7b	0.07644554
143	0x3d423a33	0.047418784
144	0xbcb0667c	-0.021533243
145	0xbe323dbc	-0.17406362
146	0xbc83844a	-0.016054291
147	0x3dea02ea	0.11426337
148	0xbddac038	-0.10681194
149	0x3e0c3c35	0.13694842
150	0x3d2c0227	0.04199424
151	0xbdc03785	-0.093855895
152	0xbd3f8a64	-0.04676284
153	0xbb97a318	-0.0046275966
154	0x3c101c6d	0.00879584
155	0xbe1e2714	-0.15444595
156	0x3de2e0b2	0.110780135
157	0x3df75e9a	0.12078591
158	0x3de7590f	0.112962835
159	0xbc1ced68	-0.009578086
160	0xbe1ffe5d	-0.15624376
161	0x3dcb132b	0.099157654
162	0xbdfa2e19	-0.12215824
163	0x3d2b2b6f	0.04178947
164	0x3df60bb1	0.12013949
165	0xbdee743b	-0.11643263
166	0x3decb31d	0.11557601
167	0x3d8f11c5	0.06985811
168	0x3d3a940e	0.045551352
169	0x3d46a1ea	0.048494257
170	0x3da97b6e	0.082754955
171	0xbda56f2c	-0.08077845
172	0xbdeb252b	-0.114816986
173	0x3df09a2e	0.117481574
174	0x3de0e81c	0.10981771
175	0xbe051ba8	-0.12998831
176	0xbd872758	-0.06599301
177	0x3d014cdf	0.03156745
178	0x3d30f9da	0.043207027
179	0xbd7c34d7	-0.06157383
180	0xbba70a22	-0.0050976435
181	0x3c9dde55	0.019271055
182	0x3e10ce0b	0.14141099
183	0x3dab12f4	0.083532244
184	0xbd154280	-0.036440372
185	0xbc816e03	-0.015799528
186	0xbd487f49	-0.048949514
187	0xbb966778	-0.004589971
188	0x3d17543f	0.036945578
189	0xbdc97a21	-0.09837747
190	0x3e0b5e96	0.136103
191	0x3dcdd89c	0.100510806
192	0xbe21cf63	-0.15801768
193	0x3d66c7d5	0.05634292
194	0x3f01e187	0.5073475
195	0xbdd24ad4	-0.102681786
196	0xbbfb3b95	-0.007667015
197	0x3e0d9092	0.1382468
198	0x3e09d37b	0.1345958
199	0x3d330b3e	0.043711893
200	0x3d4368a8	0.04770723
201	0xbc625552	-0.013814287
202	0xbc38f0db	-0.011287893
203	0xbd33036a	-0.043704428
204	0xbd9e12f7	-0.07718461
205	0x3d206844	0.039161935
206	0x3ccec0eb	0.025238475
207	0x3c4a0edf	0.012332647
208	0x3c046839	0.008081489
209	0x3c89df2f	0.016830055
210	0xbd7a8663	-0.061163317
211	0xbcd334ab	-0.02578195
212	0x3d86889b	0.06569024
213	0xbdab8c86	-0.08376412
214	0xbc9ccce0	-0.01914066
215	0x3dc0f2aa	0.094212845
216	0xbd927161	-0.071505316
217	0xbc94bfc0	-0.01815784
218	0xbd94d0ef	-0.072664134
219	0xbd9ac55e	-0.07557176
220	0x3d1c12db	0.03810392
221	0x3d945a68	0.07243806
222	0xbd7affb7	-0.061279025
223	0xbd126616	-0.035741888
224	0x3e325b28	0.17417586
225	0xbc36e41a	-0.011162782
226	0x3c0401ef	0.008057102
227	0x3db9f735	0.09080354
228	0xbe086cb9	-0.13322724
229	0x3d3ac1a9	0.045594845
230	0x3d9a050b	0.07520493
231	0x3c97e9bd	0.018544072
232	0xbd385b53	-0.04500897
233	0xbcbfed81	-0.02342868
234	0xbdee06d2	-0.116223946
235	0xbc8f9676	-0.0175278
236	0xbd786402	-0.06064225
237	0xbd54e26e	-0.051973753
238	0xbe01ac94	-0.1266349
239	0x3c4d0884	0.012514237
240	0x3dfef38a	0.12448795
241	0x3dc0bf73	0.09411516
242	0xbb804894	-0.003914902
243	0xbd1ee540	-0.03879285
244	0xbdd5939d	-0.104285456
245	0x3c54cde9	0.012988546
246	0xbdba01d3	-0.09082379
247	0x3e1ba569	0.15199818
248	0x3da6bf74	0.081419855
249	0xbdf32537	-0.118723325
250	0x3c637847	0.013883657
251	0x3e204efd	0.15655132
252	0x3e48b880	0.19601631
253	0xbd882553	-0.06647744
254	0xbd9ea603	-0.07746508
255	0xbc46802e	-0.012115521
