Cropping_tool/weights/CONV_11_BIAS.npy (npy, 448 bytes, 1 tensors)

array f4 [80]
0.5622248 1.2635216 1.1224194 1.8674002 0.9347223 0.28252366 0.06541206 0.44391486
2.0922773 1.6170433 2.218451 2.0182436 2.7616975 1.2910876 -0.34436727 0.916921
1.2388382 1.0965545 2.004002 2.1203425 1.5098778 -0.34760928 0.88642275 1.9149246
3.658098 1.5881747 -2.47526 1.3282735 0.20171906 0.3894232 0.37128982 1.7268301
0.45230663 -0.743296 1.4678942 1.7214736 -0.13547331 -0.86890405 -0.4370358 1.1608107
3.461671 1.7537562 0.3208922 0.10674033 0.5323086 -0.02903691 0.13867721 0.5136697
-0.20829333 2.4668648 1.7064426 0.017730743 0.4089639 0.6856925 0.303169 1.4825213
0.73329246 0.90657204 0.030848846 0.7285771 0.37785822 2.1281343 0.32862622 -0.75834894
0.79290175 1.430949 0.829507 -2.556758 0.23925965 0.24320796 -2.381147 0.065340005
-0.11676795 0.8867163 0.31970793 -0.8107039 0.4185812 0.53686595 0.28580025 0.2820698
00000000: f7ed 0f3f 13bb a13f 70ab 8f3f f806 ef3f
00000010: f649 6f3f f1a6 903e c2f6 853d cf48 e33e
00000020: dfe7 0540 46fb ce3f 1afb 0d40 e72a 0140
00000030: a7bf 3040 5c42 a53f e850 b0be 56bb 6a3f
00000040: 4092 9e3f e65b 8c3f 9241 0040 b1b3 0740
00000050: ad43 c13f d8f9 b1be 9aec 623f 401c f53f
00000060: 471e 6a40 4f49 cb3f a96a 1ec0 de04 aa3f
00000070: 718f 4e3e 7a62 c73e b319 be3e c508 dd3f
00000080: bc94 e73e a648 3ebf f5e3 bb3f 3f59 dc3f
00000090: 84b9 0abe 7f70 5ebf 28c3 dfbe 7295 943f
000000a0: 058c 5d40 157b e03f fc4b a43e ad9a da3d
000000b0: 6045 083f d0de edbc 6601 0e3e dc7f 033f
000000c0: d94a 55be 1de1 1d40 b66c da3f 1040 913c
000000d0: b763 d13e 8b89 2f3f f838 9b3e 42c3 bd3f
000000e0: 0eb9 3b3f 1b15 683f b8b6 fc3c 0784 3a3f
000000f0: a276 c13e 5a33 0840 b241 a83e 2823 42bf
00000100: 9cfb 4a3f 5629 b73f 925a 543f eca1 23c0
00000110: 7b00 753e 820b 793e b664 18c0 fbd0 853d
00000120: 0924 efbd d7ff 623f c2b0 a33e 4a8a 4fbf
00000130: 4650 d63e 0c70 093f 6954 923e 746b 903e
