Cropping_tool/weights/CONV_15.npy (npy, 36992 bytes, 1 tensors)

array f4 [96, 1, 1, 96]
00000000: 3e13 2fbe f72d 323e daad 233c ef77 56bd
00000010: cc78 cf3d 5000 ec3b da53 8d3c b123 1c3e
00000020: c63f 95bd 9d80 85bd 42cf b33d 0a9f 973d
00000030: ef92 81bd b978 bfbd d597 b63e aa2f 773c
00000040: 4508 82bd f5de a3bd 8d2d 2b3d 3898 0bbe
00000050: 877f 793d 7792 70bc bac2 a93c 4f30 b7bd
00000060: fdfa c73b e41d ba3c 02a3 6abe b94c dd3c
00000070: 622f 72bd d1e5 f73d c4f3 e33d af8d 9fbd
00000080: 4cf9 b03c 6844 4d3c 8f81 c5bc 2201 d03b
00000090: 7a2b d9bd 1ad7 0dbe c5a0 283b dd9d ea3c
000000a0: df67 3cbd 921d 2dbd 7690 a8bd dc34 18bc
000000b0: 0d7f c7bd 4cc8 8e3d 5121 173d b8df c93d
000000c0: 413f 30be 0727 f03c b5c0 b4bc 0a5a ecbd
000000d0: 1143 033e a0f2 5cbd a347 24bd 46de 0f3d
000000e0: e79f 49be 12d9 d1bd ebe8 8f3d c9de 1cbe
000000f0: c7a9 11bd dd41 003d 66b9 e5bc cc64 c3bd
00000100: c6dd a43d 7430 c23c 01ec b9bc 035a 313e
00000110: bbcd 3e3d db7a 01be 0814 4e3e 1fea 84bc
00000120: 6fae 61be 2665 0e3e 8103 46bd 783c 96bd
00000130: 08c0 d83c 3d66 793c 2d1c ee3d 2bb0 1c3e
00000140: 20db 8abd 8694 c13d 26bb 8dbe 187d d5bd
00000150: 3d07 313d 9a27 a5bd 4bed 0a3e 535f 4e3d
00000160: e3cf 233d 68d6 e73d c4d6 813d e377 0fbd
00000170: 77f4 65be 5c9f a0bd 5dcb 053c d8be 513e
00000180: 2d8e 133c 42f8 d03e dbaa 263d 281a 813d
00000190: e363 a3bd bd72 32bd d2ba aa3c d75f 1ebd
000001a0: 6610 023d e97b 82bc e7bf 0f3d db44 d73d
000001b0: 562d 90bd fc16 87bd 8c3b dc3d f21e 8c3d
000001c0: 0f6c de3c da81 c4bb 2263 543d b139 44bd
000001d0: 6e8d 293d a0df 3ebc cadb 60bd b9f8 a6bd
000001e0: 3b8b 443d 8dc9 8abc a84a f8bc 64ae 21be
000001f0: 3f21 21bd b8c6 bcbc 249d 9abc b099 23bd
00000200: 0c69 84bd 2d97 48bd fe6e 783c 9587 77bc
00000210: 8ab2 86bc 5be1 8b3d daa8 6b3e f96b 11bd
00000220: dfd1 263e b86c b4bd 8c3d 10be 0a01 cebd
00000230: 5591 613d e455 193d 705e 9ebc 78d5 193d
00000240: c13c 03be 8105 9a3c 4a37 6bbd 8104 6e3d
00000250: dc26 393d e9cf c5bd ca19 80bd 1e13 0b3e
00000260: 98e0 35bc 19b6 ecb9 6c65 08be 9ed2 85bb
00000270: 4a16 57bd 65e5 01bd 0aff a53d b1a3 49bd
00000280: 0299 27bc b5bd fb3d a556 97bc dbee c53d
00000290: ecb1 02be 4e5a 7d3c 562b 253e 777f c43b
000002a0: 3934 453d d4bd 42bd 8f7c e1bc 4619 e6bd
000002b0: c9a2 b73d 96cf 4bba e2a9 3dba fc0f 1a3e
000002c0: f87b abbd c200 013e 236d febd 0dde a83d
000002d0: 94ed b43d ca2f 92bc c6c8 bfbc 1103 803d
000002e0: cbb5 0abb 7bed b5bc fb08 573c 7d97 8abd
000002f0: bf5b 0dbd ce57 373d 9158 16be 1b71 3a3e
00000300: ab56 6b3d 983f a23d 9097 e73e 6898 383c
00000310: e680 4ebd fc59 1ebe d563 84bc 9bc2 c03c
00000320: ddb9 f6ba af82 093d c5f7 053e e9e0 3ebc
00000330: 0b43 e83c c9ff 87bd 1398 74bc bcb3 fcbc
00000340: 0896 8abc 0865 45bd efc5 c3bc 9b2c 08bd
00000350: 1f28 e5bb b3e8 2e3d 9531 173d 2e6a 8bbc
00000360: 766f 853d 8633 103c dca2 fabd dce1 5abd
00000370: 7487 a23d 49b2 a63d 49c4 913d 033d 963b
00000380: fe9c c9bc 65c6 cd3d 06a1 86bd 9e3a e1bc
00000390: c2db 953c a4da 26bd 636b a03c d14e c4bd
000003a0: 1038 e23c 3d10 093e f30c 3e3c 2d2a 0e3d
000003b0: c928 22be ce20 8f3d 9f0b 5cbd 3ff2 b0bc
000003c0: 0fdc 81bd 47da 06bd ec2a fe3d be0d 4cbe
000003d0: 911f 7d3d 381e 793d 7ef2 623d f445 9f3d
000003e0: d0d6 b8bd 563e afbc b291 163c 469e ea3c
000003f0: 06d2 0dbe 7be7 0fbd 93bd 173e 4cc8 f9bb
-0.17097184 0.17400347 0.00999018 -0.05236047 0.10130462 0.0072021857 0.017251898 0.1524799
-0.072875544 -0.06518672 0.08779766 0.07403381 -0.063268535 -0.09349198 0.35662714 0.015087048
-0.063492335 -0.0800151 0.041791487 -0.13632286 0.060912635 -0.014683357 0.020722736 -0.08944761
0.006102918 0.022719331 -0.22913745 0.027014123 -0.05912722 0.12104381 0.11130479 -0.07790696
0.021603249 0.012528516 -0.02410963 0.0063477913 -0.106039956 -0.13851586 0.0025730592 0.028639728
-0.045997497 -0.04226453 -0.08230679 -0.009289946 -0.0974103 0.06971797 0.036897007 0.09857124
-0.1721163 0.029315485 -0.022064546 -0.11540611 0.12818553 -0.053942323 -0.04010738 0.035124086
-0.19689904 -0.10246481 0.070268475 -0.15319361 -0.035562303 0.031312812 -0.028042506 -0.0954071
0.080501124 0.023704745 -0.022695543 0.17319493 0.04658292 -0.12644522 0.20124829 -0.016224919
-0.22039197 0.13905773 -0.048343185 -0.07335752 0.026458755 0.015222129 0.11626468 0.15301578
-0.06780076 0.09452157 -0.27681845 -0.1042425 0.043219794 -0.08064194 0.13567083 0.050383877
0.039993178 0.113201916 0.063397914 -0.035026442 -0.22456537 -0.078428954 0.008166161 0.20482957
0.009006065 0.40814406 0.040690284 0.06303817 -0.07978036 -0.043566454 0.020841036 -0.03866562
0.03175392 -0.015928226 0.03509512 0.1051118 -0.07039897 -0.06596181 0.10753545 0.0684184
0.027151136 -0.005996925 0.051852353 -0.04790658 0.041394643 -0.011649996 -0.054897107 -0.08152909
0.047984343 -0.01694181 -0.030309036 -0.15789181 -0.039338347 -0.023043975 -0.018873759 -0.03994149
-0.064653486 -0.048972297 0.015163181 -0.015108009 -0.016442556 0.068300925 0.2301363 -0.03550336
0.16290997 -0.08809799 -0.14085978 -0.10058792 0.05507024 0.037435427 -0.01933214 0.037557095
-0.12816145 0.018801453 -0.057425775 0.058109764 0.045203075 -0.09658796 -0.06254919 0.13581511
-0.011100911 -0.000451491 -0.1331994 -0.0040839454 -0.05251149 -0.03171291 0.081052855 -0.049228374
-0.010229351 0.12292043 -0.018473933 0.09664699 -0.12763184 0.015463425 0.16129813 0.0059966403
0.048145507 -0.047544315 -0.027525214 -0.11235289 0.08966596 -0.0007774768 -0.00072350923 0.1504516
-0.083732545 0.12597945 -0.1242316 0.08245478 0.08834377 -0.017845053 -0.023411166 0.06250585
-0.0021165486 -0.022207966 0.0131247 -0.06767175 -0.034511324 0.04476147 -0.14682223 0.18207209
0.0574557 0.07922286 0.4523282 0.011266805 -0.050415896 -0.15464014 -0.016160885 0.023530295
-0.0018823702 0.033571895 0.13082798 -0.011650302 0.028352281 -0.06640584 -0.014928835 -0.030847423
-0.016917244 -0.048192054 -0.023898093 -0.033245664 -0.006993308 0.042702388 0.03691252 -0.017018404
0.065154 0.008801347 -0.12238094 -0.053438053 0.07935992 0.08139474 0.071175165 0.00458491
-0.024610993 0.100476064 -0.065736815 -0.027493771 0.018293265 -0.040735856 0.019582456 -0.095853455
0.027614623 0.133851 0.011599767 0.03470819 -0.15835871 0.06988679 -0.05372202 -0.021599887
-0.06340801 -0.03292301 0.124105304 -0.19927117 0.061797682 0.060819834 0.05540704 0.077770144
-0.09025347 -0.021392029 0.00919001 0.028639924 -0.13849649 -0.035132866 0.1481841 -0.007622754
