Cropping_tool/weights/CONV_16_BIAS.npy (npy, 512 bytes, 1 tensors)

array f4 [96]
1.6420567 0.017450362 2.083925 0.94289184 3.3022134 1.6058366 0.4808471 -1.5031359
0.36290675 0.2818434 0.18105118 1.3866735 0.9709787 0.2629016 -0.6560917 0.9272065
0.90583116 3.1628983 1.6144184 1.1285815 0.9794844 1.6390741 1.6248884 0.21871817
3.0203705 -0.032670025 0.08589076 0.56899154 1.6545255 0.5389437 4.420374 2.333076
1.6465831 0.7265711 1.7760836 1.2647121 -1.5306679 2.3001587 2.5850286 3.5091069
-0.94731855 -2.4571223 2.1557713 -1.276809 0.9334622 -0.47510588 1.0191603 1.4681298
-1.4514691 0.44670048 2.840292 1.3773241 2.0008748 -0.34436637 2.226616 2.376292
3.9217746 0.24839133 1.3856692 0.36120954 2.503048 -0.6500304 0.8347361 1.703944
-0.15856172 2.0788028 -0.20242755 0.3693959 -0.4152972 -3.5350256 0.15380694 1.2121037
0.6671313 1.0277928 -0.40198395 -0.058456477 3.9605086 2.1371021 1.0748252 1.124562
3.15694 -0.049261075 1.7157003 1.1509185 -0.30160567 -0.79169124 -0.21161819 1.2974429
0.86028165 -0.31501997 0.04448303 1.2093196 1.7861636 -1.5453014 -0.59874135 1.6344507
00000000: ea2e d23f 10f4 8e3c 075f 0540 5c61 713f
00000010: 7757 5340 0e8c cd3f 9731 f63e c266 c0bf
00000020: eace b93e c74d 903e 7b65 393e 847e b13f
00000030: 0f92 783f 0a9b 863e a0f5 27bf 685d 6d3f
00000040: 8de4 673f ed6c 4a40 43a5 ce3f 5c75 903f
00000050: 7dbf 7a3f 2ecd d13f 58fc cf3f a8f7 5f3e
00000060: c04d 4140 01d1 05bd 7fe7 af3d 6ea9 113f
00000070: 7ec7 d33f 37f8 093f b473 8d40 1e51 1540
00000080: 3cc3 d23f 9000 3a3f b556 e33f 16e2 a13f
00000090: edec c3bf cd35 1340 1c71 2540 3595 6040
000000a0: 7883 72bf 7e41 1dc0 28f8 0940 7a6e a3bf
000000b0: 61f7 6e3f 1441 f3be d873 823f adeb bb3f
000000c0: bdc9 b9bf edb5 e43e 58c7 3540 284c b03f
000000d0: 550e 0040 ca50 b0be e080 0e40 2b15 1840
000000e0: 5bfe 7a40 4c5a 7e3e 9c5d b13f 75f0 b83e
000000f0: f031 2040 6468 26bf 44b1 553f d61a da3f
00000100: 015e 22be 1b0b 0540 2b49 4fbe 7621 bd3e
00000110: d6a1 d4be dc3d 62c0 917f 1d3e 3726 9b3f
00000120: 1ec9 2a3f b78e 833f d7d0 cdbe 0f70 6fbd
00000130: f978 7d40 48c6 0840 df93 893f a6f1 8f3f
00000140: 4e0b 4a40 fbc5 49bd 119c db3f 4c51 933f
00000150: 0f6c 9abe 47ac 4abf 70b2 58be 9c12 a63f
00000160: 6b3b 5c3f 4c4a a1be d633 363d fcca 9a3f
00000170: 02a1 e43f 70cc c5bf 1d47 19bf ae35 d13f
