Cropping_tool/weights/CONV_15_BIAS.npy (npy, 512 bytes, 1 tensors)

array f4 [96]
000000 a8 88 2b bf 99 5c 31 3f 4d a7 95 3f e7 07 7e 3f
       -0.67005396 0.6928192 1.1691681 0.9923081
000010 9c 18 c2 3f 3b 5b af 3f aa 0c b1 3f 2a ea 90 3d
       1.516376 1.3699716 1.383199 0.07075913
000020 09 be a1 be 9d 8d 6e 3f 84 9a ac 3e 0d 41 0b 40
       -0.31590298 0.93184835 0.33711636 2.1758454
000030 e4 3a f3 3f b2 05 a4 bf 6e 7c 93 3e 09 4c 43 3f
       1.9002347 -1.2814238 0.2880587 0.76287895
000040 cf 54 1f bf df f9 4c 40 e9 72 24 40 fd 9e cb bf
       -0.6223878 3.202751 2.5695136 -1.5907894
000050 bd 31 b3 3f d4 30 01 40 e9 0f f9 be 2f 84 3a be
       1.3999554 2.0186052 -0.4864495 -0.18214487
000060 a0 01 de 3f 93 c5 89 3f fd 8f 65 bf 04 de 67 3e
       1.7344246 1.076342 -0.89672834 0.22643286
000070 b1 92 1f 40 7b 11 5b 3f d9 38 9d bf 43 49 01 c0
       2.4933283 0.8557355 -1.2282974 -2.0200965
000080 95 23 52 be f5 f4 1f 3f 23 6c 29 3f 72 48 a4 3f
       -0.20521386 0.6248315 0.6618063 1.2834609
000090 09 c7 4c 3f 1a 90 4e 40 5d 3f 40 40 3c 3d 56 40
       0.79991204 3.2275453 3.0038674 3.3474874
0000a0 d7 f0 cf 3e 10 27 76 bf b0 57 0a 40 0f 4e 51 3f
       0.40613434 -0.96153355 2.161602 0.8175973
0000b0 6e f3 1f 3f c8 ad cc 3c 65 47 9f 3f a4 c0 fb 3e
       0.6248082 0.02498521 1.2443663 0.4917041
0000c0 e7 3a 25 bf 9e c9 e7 3f bf 4b e9 bf a4 53 7d 3f
       -0.64543 1.8108404 -1.8226241 0.9895575
0000d0 a5 20 b3 3f e2 66 b6 bd 6e 5f 80 3e ae 88 c2 be
       1.3994337 -0.08906342 0.25072807 -0.37994903
0000e0 e9 b1 73 40 e2 ee 0f 3f 37 70 5f 3f f8 51 3d bd
       3.8077338 0.5622388 0.872806 -0.04622075
0000f0 d9 5c 75 3f 04 cf 4a be dc c0 74 bd 41 79 d1 3f
       0.958448 -0.19805533 -0.059754238 1.6365129
000100 e4 11 a7 bf e8 e0 5a 40 35 59 d4 3e 08 4a 67 3f
       -1.3052335 3.4199772 0.4147431 0.9034734
000110 d7 9d 21 3e 3b ea c2 3f fd 8a 95 be c4 af f3 3e
       0.15782867 1.5227731 -0.29207602 0.47595036
000120 ba 30 51 3f b8 01 6f 3f 8c 14 5d 3f 0c 6f 86 bf
       0.81714976 0.93362 0.8635948 -1.0502639
000130 54 fd d7 3e a3 14 0e bf f8 45 2e 3f f6 e1 3a 40
       0.42185462 -0.5550024 0.68075514 2.9200416
000140 69 cc 97 bf b5 b0 4d 40 99 26 75 bf 7c 7c 93 3f
       -1.1859256 3.2139103 -0.9576202 1.1522365
000150 77 a5 05 40 9e 9a f5 3f 7b 64 72 3f 9e 38 c8 3f
       2.0882242 1.918781 0.9468457 1.5642278
000160 c4 43 81 3f d3 de 9e 3f 28 d4 af 3f 57 cd bd 3f
       1.0098805 1.241175 1.373662 1.482829
000170 9a d3 35 3f 75 0f 29 bf d7 6a 4c 3f 66 aa a6 3f
       0.71026003 -0.6603921 0.79850525 1.3020751
