Cropping_tool/weights/CONV_14_BIAS.npy (npy, 512 bytes, 1 tensors)

array f4 [96]
0	0xbefaed4e	-0.49009174
1	0x3f6fcf7a	0.9367596
2	0xbe19d5a2	-0.150229
3	0xc0019769	-2.0248663
4	0x3fe3062f	1.7736262
5	0x3fd25a11	1.6433736
6	0x3f19f367	0.6013703
7	0xbf90ca91	-1.1311818
8	0xbf14265a	-0.5787102
9	0xbed9f344	-0.4256841
10	0x3f231142	0.6369821
11	0x3f560ddb	0.8361489
12	0xbfccc9bd	-1.5999066
13	0xc062bb20	-3.5426712
14	0x3f1c3b4a	0.6102797
15	0x3f97c66b	1.1857427
16	0xbec425ba	-0.38310033
17	0xbefaa24b	-0.48951945
18	0x4039f9b0	2.9058647
19	0x3eab8d7e	0.33506387
20	0xbf48bcbe	-0.78413
21	0x3ed9a7b7	0.4251077
22	0x3fff952a	1.9967396
23	0x3f985180	1.1899872
24	0x3e201c85	0.1563588
25	0x3f851bfe	1.0399168
26	0xbf844dcf	-1.0336245
27	0xc026c997	-2.606054
28	0xbfa82c70	-1.3138561
29	0xbec31d0b	-0.38108096
30	0x401e8bc8	2.4772816
31	0xc00d273e	-2.2055202
32	0xbe0897f5	-0.13339217
33	0xbf36a5dc	-0.7134683
34	0x3fb28880	1.3947906
35	0x3d872692	0.065991536
36	0x3f0e343f	0.5554847
37	0xbf62ca0f	-0.88589567
38	0x3e57ace9	0.21062054
39	0x3f253948	0.6454053
40	0x3fec367c	1.8454127
41	0xbf18b5ab	-0.59652203
42	0xbe4674f2	-0.19380549
43	0x3f128787	0.5723805
44	0xbf5f8125	-0.87306434
45	0x3fa1a944	1.2629781
46	0x3f0e6ba0	0.5563297
47	0x3f09ed9d	0.53878194
48	0xbfc10f7e	-1.5082853
49	0xbf27e1a4	-0.65578675
50	0x3f27969b	0.6546418
51	0xbec36ad4	-0.3816744
52	0x3f033254	0.5124867
53	0xbf1637bc	-0.58678794
54	0x3ee41629	0.44548157
55	0xc02cec4b	-2.7019222
56	0x3e83e4f1	0.25760606
57	0xbeec0d3d	-0.4610385
58	0xbf85d6ad	-1.0456139
59	0x3faab430	1.3336239
60	0xbf22d5b6	-0.63607347
61	0x408ca730	4.3954086
62	0xbeac3dd5	-0.33640924
63	0xbfa6e1fd	-1.3037716
64	0xbf6f23b6	-0.93413866
65	0xbf8bf2e8	-1.0933504
66	0x3e99fe71	0.30076936
67	0x3e6777a7	0.22604237
68	0xbff82c55	-1.9388529
69	0x3e28455e	0.16432711
70	0xbea63894	-0.3246504
71	0xbf77a025	-0.96728736
72	0x3f132c99	0.57489926
73	0x3f572273	0.8403694
74	0x3f200f35	0.62523204
75	0xbfffa102	-1.9971011
76	0xbf004c8d	-0.5011681
77	0x3de8686a	0.113480404
78	0x3ef598c2	0.47968107
79	0x3f3b45ee	0.7315358
80	0x3fbc51e8	1.4712496
81	0x3f1c29a8	0.6100106
82	0x3f9a2f95	1.2045771
83	0x3e3c4556	0.18385825
84	0x3f1f0794	0.6212094
85	0x3ed946d9	0.42436865
86	0xbf98a6ce	-1.1925905
87	0xbf265f7c	-0.6498945
88	0xc0017b6e	-2.0231586
89	0xbe789432	-0.24275282
90	0x3eddf9e2	0.43354708
91	0x3fab1364	1.3365293
92	0xbe22fcf6	-0.1591681
93	0x40068a5d	2.102195
94	0xbf25e44e	-0.6480149
95	0xbf183502	-0.59455884
