Cropping_tool/weights/CONV_10.npy (npy, 18560 bytes, 1 tensors)

array f4 [72, 1, 1, 64]
00000000: acb3 2a3e a85c 823d 74c6 b8bc b56b 803d
00000010: 4ff9 8b3d d358 4d3c 2d35 733d 75e9 153e
00000020: 4cb1 93bd ee46 5d3d a445 76bb 0b91 a53b
00000030: 14a6 f93d 39d8 65bd 4aff b7bd c178 473d
00000040: 10e4 e3bc f891 f5bd e8a5 f43d 81be 2fbc
00000050: c00c 863e 4c6e b6be 8009 a2bd 86d1 e43d
00000060: 0fb1 a3bd c8e7 1a3e e7f8 6cbd 5830 0dbd
00000070: 751e a8bd 7bc1 84bd 0fd8 04be c5be 503d
00000080: ca44 8a3d 957e 2bbe c158 84bd e84f 1bbe
00000090: 89ff 08bd 8a02 cf3c b0b5 0fbd f31e b13d
000000a0: 157d 413d 8f4c b6bd 893c df3d b5ae 8a3c
000000b0: 5dd7 c53d 0403 0e3e 7d11 b1bc 3f21 68bd
000000c0: 8320 94bc 21b1 ffbb 4ffa 183e 05d3 dabd
000000d0: e156 003b eb49 0ebe 2702 41be 2c98 4bbd
000000e0: 6080 9c3d 6a49 0a3d 6756 42bd c27c 27be
000000f0: 0226 6b3b feff a13d d677 0c3d 66ef e2bd
00000100: 5ec7 9a3d ea10 c03e 193d e9bc 93cb 20be
00000110: 65bf 773c c521 4abb f367 bdbd 3a55 24be
00000120: 532b e43d 64a9 86bd 305e 94be bbc9 58bb
00000130: abfb f23d 96a6 783d b63d c3bd ef52 1abd
00000140: ee94 a73d 2eb6 b4bd e8f6 21be 0196 9a3d
00000150: 4bc8 593e a012 96bd 1079 79ba ab50 2d3e
00000160: a3bb 4ebd c8a7 873d 9aa3 61bd 9600 b5bd
00000170: ca09 aa3c 2368 0a3f 903d 93be f10c e0bd
00000180: 61f8 123e cb49 8fbe 2227 16be 1cc3 0d3e
00000190: f0b2 a3be ac4c 003c cd3e 133e e69e e93d
000001a0: 28cb 69be 00b3 6cbc 7836 c93d 85e4 3b3d
000001b0: 7160 bdbd ccfb 3abe befd a33d dcd9 bd3d
000001c0: 8b13 c33c 7320 653d adc8 81be 07c0 083e
000001d0: 0d48 15ba a4b7 b73d 5ae8 543e 4a81 bebd
000001e0: 4000 503e 9779 2c3d d3f9 55be 299a 6abe
000001f0: 6cfd bdbd b3c6 1dbe 59c8 a93e dbdd 2f3e
00000200: e930 48be 0483 373d 5a0e 603e c867 b8bc
00000210: 31da 0a3d 4127 4a3e 0f3d 9fbd 21bc 5f3e
00000220: 2c9d b73c 2955 bfbd 6f6a ef3d 8b4d 773d
00000230: 69bc ad3d c11a b53d 7fb1 a93c edf8 753d
00000240: fc68 7e3d caa8 633d c745 2d3e 984c 693c
00000250: 808e 023e 51d3 acbd d46e 28bd 7d1d 05bd
00000260: bad1 e4bb 4087 38bc 78d7 84bd 06a7 25bd
00000270: 50de 413d 1255 6e3e 9885 7dbc c653 153d
00000280: bfe8 02bb b02b ca3d 38ce 573c 15dc 643d
00000290: 6e87 f3bd e66e ddbd 3955 4fbd 41fa 693d
000002a0: 7de8 0d3e 3787 52bd 90be aabd 0b31 a4bd
000002b0: 85fc f23d 483e cf3c ac38 6bbd 55cf 15be
000002c0: a97b 86bd 5492 1f3c 7277 3cbb 14f4 a23d
000002d0: 65d2 cbbd e9ea ab3d 0608 053e 5fad 153e
000002e0: ac45 c3bc cc32 2a3e 5360 f2bd 7770 7b3d
000002f0: 3b28 0d3e 0921 813d db78 143e 24de c13e
00000300: 41a9 083e e3e0 073e f004 5ebd 0fe8 aebd
00000310: 71a8 623e 0900 483d 486e 20be 4499 14be
00000320: 0351 3fbe 8153 d63c b28e 80bd 26b7 12be
00000330: d36d 9e3e 07f6 653e dec5 b93d 4089 713d
00000340: a282 fbbd 1cfb b13c 5afe 8d3d 0596 8ebd
00000350: 2768 cabb 0f08 2a3e c622 953e f89b 8a3e
00000360: ca2f f13c 5112 2ebe 421e 4f3e 9b5f ebbc
00000370: cf4c f6bd 9c59 59bc e2bb 403e 046a 34be
00000380: 6e22 8b3e 9486 a9bd de79 2ebd 771b 1d3c
00000390: b0fb 7abe d200 453e b6c1 0b3e f942 853e
000003a0: 2152 773d 7461 3dbe 2085 413d 32ff ba3e
000003b0: 8802 9b3d 873a 013d 5029 853e 4ead dbbc
000003c0: b46d 08bd 2c03 1e3c dd67 d2be 63e1 d2bc
000003d0: 4b58 b33e 3fbe 81be 4d2f 37be 7ecb 593d
000003e0: cc77 6fbe e9be d53e 26de 3abe 8096 dbbe
000003f0: 52e7 d9be 8e72 163f 620b b6bb b699 d7bd
0.16670102 0.06365329 -0.022555567 0.062705435 0.06834661 0.012533384 0.059376884 0.14639838
-0.07211551 0.054022722 -0.003757813 0.005052691 0.1218988 -0.05611441 -0.089842394 0.048699144
-0.02781871 -0.11990732 0.119457066 -0.010726572 0.26181602 -0.35631025 -0.07911968 0.11172776
-0.079927556 0.1512748 -0.05785456 -0.034469932 -0.08208934 -0.06482216 -0.12973045 0.050963182
0.06751402 -0.16747506 -0.06462241 -0.151672 -0.033446822 0.025269765 -0.03508538 0.08648481
0.04723843 -0.08901321 0.10900218 0.01692901 0.09660218 0.13868338 -0.021614784 -0.05667233
-0.018081909 -0.007803098 0.14939235 -0.1068478 0.0019583034 -0.13895385 -0.18848477 -0.04970567
0.07641673 0.03376142 -0.04744568 -0.16356185 0.0035880809 0.07910155 0.034293972 -0.11080818
0.075575575 0.37512904 -0.028471516 -0.15702657 0.015121316 -0.0030842882 -0.09248342 -0.16048136
0.11141076 -0.065752774 -0.2897811 -0.0033079225 0.11864408 0.060705744 -0.09533255 -0.037676748
0.08182703 -0.088238105 -0.15816844 0.07548142 0.21267812 -0.07327771 -0.0009516636 0.16925304
-0.050471913 0.066237986 -0.055087663 -0.088380024 0.02075662 0.5406515 -0.28757906 -0.109399684
0.14352562 -0.27985987 -0.14663365 0.1384396 -0.31972456 0.00783078 0.14379425 0.114072606
-0.22831404 -0.014446974 0.09824842 0.04587223 -0.0924691 -0.18260115 0.08007382 0.09270069
0.02381303 0.05593915 -0.25348416 0.13354503 -0.00056946353 0.089705735 0.2079176 -0.09302004
0.20312595 0.042108145 -0.20896082 -0.2291037 -0.09276852 -0.15407829 0.33160666 0.17174475
-0.19549908 0.04480268 0.21880475 -0.022510424 0.03389949 0.19741537 -0.07775318 0.21849109
0.022413813 -0.09342415 0.116902225 0.060376685 0.08483202 0.088429935 0.02071452 0.060051847
0.06211184 0.05558089 0.16921149 0.014239453 0.12749672 -0.08438743 -0.04112132 -0.032498825
-0.006983009 -0.011262715 -0.0648641 -0.04044249 0.047331154 0.23274639 -0.015473746 0.036456846
-0.0019975153 0.09871614 0.013171725 0.05587395 -0.118910655 -0.10812168 -0.050618384 0.057123426
0.13858218 -0.051398482 -0.08337128 -0.08017167 0.118645705 0.025298253 -0.057427093 -0.14629872
-0.06566555 0.009739477 -0.0028757718 0.079567105 -0.09952239 0.08394415 0.12991342 0.14616917
-0.023836933 0.1662094 -0.11834779 0.06138655 0.13784878 0.06305129 0.14499228 0.37864792
0.13345815 0.13269381 -0.054203928 -0.085403554 0.22134568 0.04882816 -0.15667069 -0.14511591
-0.18683247 0.026162865 -0.06277217 -0.14327678 0.30943164 0.22457133 0.09070943 0.058968782
-0.122807756 0.021726184 0.06933279 -0.06962208 -0.0061769667 0.16604637 0.29128093 0.2707212
0.029441733 -0.16999175 0.20226386 -0.028732112 -0.12026369 -0.013265993 0.18821672 -0.17618567
0.27174705 -0.08277622 -0.04259669 0.009589068 -0.24510074 0.19238594 0.13648114 0.2602766
0.06038106 -0.18494207 0.0472461 0.36522824 0.07568842 0.031549957 0.2600808 -0.026816037
-0.033307746 0.009644311 -0.41094866 -0.025742238 0.350283 -0.2534046 -0.17889138 0.05317258
-0.23385543 0.41747215 -0.18248805 -0.4288826 -0.42559296 0.58768547 -0.005555556 -0.10527365
