Cropping_tool/weights/DCONV_5.npy (npy, 1424 bytes, 1 tensors)

array f4 [1, 3, 3, 36]
0	0x3e1a2c05	0.15055855
1	0xbf0fa37e	-0.56108844
2	0xbe821bd7	-0.25411865
3	0xbe52cdec	-0.20586365
4	0x3ed4c608	0.41557336
5	0x3e1d5cfb	0.153675
6	0x3da2966b	0.07938846
7	0x3e398cd3	0.18120126
8	0x3e5e95f6	0.21736893
9	0x3e343772	0.17599276
10	0xbe1f17a9	-0.1553637
11	0xbdc46b15	-0.09590737
12	0xbebdb96c	-0.37055528
13	0xbd9e4ea4	-0.07729843
14	0x3e0448f3	0.12918453
15	0x3e21cca8	0.15800726
16	0xbefcfb17	-0.49410316
17	0xbf0d60f4	-0.55226064
18	0xbeb6c2f4	-0.35695612
19	0x39042caa	0.0001260514
20	0xbc0863f8	-0.008324616
21	0x3d891467	0.066933446
22	0x3eeb7adf	0.4599218
23	0xbe5c2f22	-0.21502355
24	0x3a0c83b4	0.00053602015
25	0xbe082770	-0.13296294
26	0xbde20fcd	-0.1103817
27	0xbe76092e	-0.2402694
28	0xbe88706b	-0.26648268
29	0xbcfe7dcb	-0.031065842
30	0xbef09913	-0.46991786
31	0xbf17912a	-0.5920588
32	0x3f18ccf4	0.59687734
33	0x3f20517f	0.62624353
34	0x3f395d73	0.7240822
35	0x3f4c5f7b	0.7983319
36	0xbe82fd49	-0.25583866
37	0xbec1bc02	-0.3783875
38	0xbead15a8	-0.33805585
39	0x3f433742	0.7625619
40	0x3f3491e7	0.7053513
41	0x3f2fa8ab	0.6861674
42	0x3e75c9e7	0.24002801
43	0xbdff3257	-0.124607734
44	0x3cb18f3b	0.021674743
45	0x3f02cf33	0.5109741
46	0x3ef0b7ae	0.47015136
47	0xbe7ecd68	-0.24883044
48	0x3e603b08	0.21897519
49	0x3e76a6ed	0.24087115
50	0x3e7659a1	0.24057628
51	0x3f037bc3	0.5136072
52	0xbd22d242	-0.0397513
53	0xbf0bd65c	-0.5462396
54	0xbf351ce4	-0.7074721
55	0xbf6c05ba	-0.9219624
56	0xbe8a0642	-0.269579
57	0xbe855f98	-0.26049495
58	0x3ecb250b	0.396767
59	0xbf40ba4a	-0.75284255
60	0xbee425a5	-0.4455997
61	0x3d0183e1	0.03161991
62	0x3f0544a4	0.5205786
63	0x3f0cd1fb	0.55007905
64	0x3f960e72	1.1723158
65	0xbf490eba	-0.78538096
66	0x3ef058ca	0.4694274
67	0xbf6eb00b	-0.9323737
68	0x3edacca5	0.42734256
69	0x3f4987b5	0.787227
70	0x3f732078	0.9497142
71	0x3f736001	0.95068365
72	0xbf090a64	-0.5353148
73	0x3f23e66c	0.6402347
74	0x3e87bdcf	0.26512
75	0x3ebf32ab	0.37343344
76	0xbe75118f	-0.2393248
77	0x3ed20cb4	0.41025317
78	0x3dddf191	0.10837091
79	0xbeabad86	-0.33530825
80	0xbe17792b	-0.14792316
81	0x3ebcff0c	0.36913335
82	0x3f050c08	0.51971483
83	0xbe35daeb	-0.17759292
84	0x3efee1b4	0.49781573
85	0x3b96f972	0.004607373
86	0x3e82e339	0.25563982
87	0x3dcc0e32	0.09963645
88	0x3e21aeac	0.15789288
89	0xbd041113	-0.032242846
90	0x3e81a2a8	0.2531941
91	0x3d6ac480	0.057316303
92	0xbe66c4f5	-0.2253607
93	0xbf038a03	-0.51382464
94	0xbe90d4f3	-0.28287467
95	0xbf5702cc	-0.8398864
96	0xbe83e777	-0.2576253
97	0x3e81cd22	0.25351816
98	0x3ea8f1c3	0.3299695
99	0x3f2eed21	0.6833058
100	0x3f685c6b	0.9076602
101	0xbef82cea	-0.48471767
102	0x3e58dca2	0.21177915
103	0xbedf723d	-0.43641844
104	0x3f7ab899	0.97937924
105	0xbe3b7403	-0.18305974
106	0x3f812b7c	1.0091395
107	0x3f2507ce	0.64465034
108	0xbeb58fe4	-0.35461342
109	0xbeda01c0	-0.4257946
110	0xbeed37f3	-0.46331748
111	0xbdc1e1c4	-0.094668895
112	0x3e08ab15	0.13346513
113	0xbf4475d1	-0.76742274
114	0xbd4883f6	-0.048953973
115	0x3ebf1bad	0.37325802
116	0x3e008de9	0.12554134
117	0x3e47d865	0.19516142
118	0xbf19f954	-0.6014607
119	0xbd329c24	-0.04360594
120	0xbf0c8f7d	-0.54906446
121	0x3e243e50	0.16039395
122	0x3e51c003	0.20483403
123	0xbe0ce55a	-0.13759366
124	0xbf362b70	-0.7116003
125	0xbf8d5586	-1.1041725
126	0xbf44b451	-0.7683764
127	0xbe597694	-0.2123664
128	0xbd3a2255	-0.045442898
129	0xbcc0f1fe	-0.02355289
130	0x3f1adb6d	0.6049107
131	0x3e973654	0.29533637
132	0x3e2baf2e	0.16766044
133	0x3f16e16f	0.58937734
134	0xbeead040	-0.45862007
135	0xbf04f91c	-0.5194261
136	0xbf620d40	-0.8830147
137	0xbe88e6f4	-0.26738703
138	0xbf931287	-1.1490029
139	0xbe817b48	-0.2528937
140	0x3ebf8b86	0.37411135
141	0x3f71243a	0.941959
142	0x3eb5b2e5	0.35488048
143	0x3f7db586	0.9910511
144	0xbf0a8d41	-0.54121786
145	0xbe465ecc	-0.193721
146	0xbde54b85	-0.11196045
147	0x3f82f098	1.0229673
148	0x3f53298e	0.8248528
149	0xbf19538e	-0.5989312
150	0x3fb704f5	1.4298388
151	0x3f1dfdc9	0.6171537
152	0xbf0d9150	-0.55299854
153	0x3f66e339	0.90190464
154	0xbf31075c	-0.69151855
155	0x3fa958c6	1.3230217
156	0xbf8d9ca1	-1.1063424
157	0x3fbdea82	1.4837191
158	0x3f9f44b9	1.2442847
159	0x3f18bb15	0.59660465
160	0x3f3824f5	0.7193139
161	0xbf8ed9c5	-1.1160208
162	0x3d7c5879	0.06160781
163	0xbe79029a	-0.24317399
164	0xbf53a168	-0.8266816
165	0xbf8d352a	-1.1031849
166	0x3fb09018	1.3793974
167	0xbeb1a4b7	-0.3469598
168	0xbf37572e	-0.716174
169	0x3f6fb27c	0.9363172
170	0x3d715f79	0.05892894
171	0x3d4bc906	0.049752258
172	0xbf33dd87	-0.702599
173	0xbf5a71fc	-0.85330176
174	0xbeee5271	-0.46547273
175	0x3f2771b8	0.65407896
176	0x3f1d0b12	0.61345017
177	0x3f3fbaba	0.748943
178	0x3fa2d805	1.2722174
179	0x3fb6c2ec	1.4278235
180	0xbe44f35b	-0.19233458
181	0x3f1fbfda	0.6240212
182	0x3f605a52	0.8763782
183	0x3e702adf	0.23453854
184	0xbea60eba	-0.3243311
185	0x3f3455e6	0.7044357
186	0x3dbe4e32	0.09292258
187	0xbf3600e0	-0.71095085
188	0xbf04622d	-0.51712304
189	0x3f35685f	0.7086238
190	0x3f03fd71	0.51558596
191	0xbe058745	-0.13039882
192	0x3d391a1d	0.04519092
193	0x3eb346b8	0.35014892
194	0x3e0ae23d	0.13562866
195	0x3ea496b1	0.32146218
196	0x3f640b62	0.8907987
197	0xbf2e997f	-0.68202966
198	0x3f7bf042	0.9841348
199	0x3f118599	0.5684448
200	0x3e1a5f01	0.15075304
201	0xbede8731	-0.43462518
202	0x3d1ed8fe	0.03878116
203	0xbef69fcc	-0.4816879
204	0xbf2c57f1	-0.6732169
205	0x3de2c0ad	0.11071906
206	0x3daf3039	0.085541196
207	0x3f175bf1	0.59124666
208	0x3ea07968	0.31342626
209	0xbd6d927b	-0.058001023
210	0x3f28b7a9	0.65905243
211	0x3e8376c3	0.25676546
212	0x3f8d5baa	1.1043599
213	0xbf047cee	-0.5175313
214	0x3f99d676	1.2018573
215	0x3ee3d4ec	0.44498384
216	0xbee7eb9e	-0.4529695
217	0x3dd4e262	0.103947416
218	0xbe724f23	-0.23663001
219	0xbe8dceab	-0.27696738
220	0x3c0daa57	0.008646569
221	0xbe94cafb	-0.29061112
222	0xbd83714b	-0.06418093
223	0x3e9cca41	0.30623057
224	0xbdb1d7e4	-0.08683756
225	0xbd078f83	-0.033095848
226	0xbeb984ed	-0.36234227
227	0xbcb986f0	-0.022647351
228	0xbe0b5d24	-0.13609749
229	0xbdeb61e5	-0.11493281
230	0xba2aa8ab	-0.0006510119
231	0xbe96fc9b	-0.29489598
232	0x39af7e26	0.0003347259
233	0xbec4b85a	-0.384219
234	0x3dfa4954	0.122210175
235	0x3eed1978	0.46308494
236	0xbd4c11b9	-0.04982159
237	0xbd8f2f07	-0.06991392
238	0xbea3464d	-0.31889573
239	0x3e7d4a96	0.24735484
240	0x3e405736	0.18783268
241	0x3f0aa70f	0.5416116
242	0xbe887ac0	-0.2665615
243	0xbdc9612d	-0.09832988
244	0xbeb799be	-0.35859483
245	0x3eb9b761	0.3627272
246	0xbf0b5190	-0.5442133
247	0x3ead973d	0.33904448
248	0x3d7bbcf4	0.061459497
249	0x3e0a8059	0.13525523
250	0x3e91921d	0.28431788
251	0x3f2578c3	0.6463739
252	0xbd6fe6ef	-0.058569845
253	0x3f0f84ad	0.5606182
254	0xbea98d69	-0.331157
255	0xbf255cce	-0.64594734
