Cropping_tool/weights/DCONV_2.npy (npy, 992 bytes, 1 tensors)

array f4 [1, 3, 3, 24]
0	0x3e07590e	0.13217565
1	0x3e573fd6	0.21020445
2	0xbc415cbb	-0.011801894
3	0xbe53be81	-0.2067814
4	0xbf2cec1b	-0.6754777
5	0x3df3732f	0.11887204
6	0xbd628491	-0.055302206
7	0x3e3c9ec4	0.1841994
8	0x3e1c9090	0.15289521
9	0xbc4a3a63	-0.012343022
10	0xbee4a77f	-0.4465904
11	0xbea4b763	-0.32171163
12	0xbe5d0eae	-0.21587631
13	0xbd086d0d	-0.033307124
14	0xbca9e63b	-0.020739665
15	0x3d461b76	0.048366033
16	0x3d8ffc1a	0.070305064
17	0x3f59f05a	0.8513237
18	0xbc98a842	-0.01863492
19	0x3ec16254	0.3777033
20	0xbd778056	-0.060425125
21	0x3e97e089	0.29663494
22	0xbeafb47e	-0.34317392
23	0x3e9d852b	0.30765662
24	0x3ee3bb90	0.44479036
25	0x3f0aded1	0.5424624
26	0xbfa023c9	-1.2510921
27	0x3de34f09	0.11099059
28	0xbf265ac6	-0.6498226
29	0x3e15a3f1	0.1461332
30	0xbdeb8289	-0.11499507
31	0x3e9e219a	0.3088501
32	0x3ec700f8	0.38867927
33	0x3f7767e1	0.9664288
34	0xbed19fbb	-0.40942177
35	0xbefb5e21	-0.49095252
36	0xbe3bb813	-0.18331937
37	0x3e17c5d6	0.14821562
38	0x3e6f1f22	0.2335172
39	0x3e0d19d5	0.13779385
40	0x3e226f64	0.15862805
41	0xbeeb1a54	-0.45918524
42	0xbf327a5d	-0.6971796
43	0x3c45a5d4	0.012063462
44	0xbd05583d	-0.032554854
45	0x3f11fa32	0.5702239
46	0x3d1665a0	0.03671801
47	0xbdff1c90	-0.1245662
48	0x3dc681c6	0.09692721
49	0x3ea6179c	0.32439888
50	0xbf24f428	-0.6443505
51	0x3e97dd44	0.29661
52	0xbdd7d584	-0.10538772
53	0xbe23469e	-0.15944907
54	0xba2d41ea	-0.0006609248
55	0x3db8f8e0	0.09031844
56	0xbe8a038c	-0.2695583
57	0x3ef328a1	0.47491935
58	0xbc7b9c53	-0.015357095
59	0x3eab5791	0.33465245
60	0xbe231b04	-0.15928274
61	0xbe0dee8c	-0.1386053
62	0x3e947f77	0.29003498
63	0xbda407bf	-0.0800929
64	0xbd03e9f1	-0.032205526
65	0x3d6f280f	0.058387812
66	0x3e1a6011	0.15075709
67	0xbe34843f	-0.17628573
68	0xbe275f92	-0.16345051
69	0x3e640e2c	0.22271031
70	0x3d91b89d	0.0711529
71	0xbee4640f	-0.4460759
72	0x3ee742a5	0.45168033
73	0x3ec53f0e	0.3852467
74	0x3e0656d7	0.13119064
75	0xbf345066	-0.7043518
76	0x3f304906	0.68861425
77	0xbf9ff703	-1.2497257
78	0xbe994f1f	-0.29943177
79	0x3ea2a7d6	0.31768674
80	0x3ecb83ed	0.3974909
81	0xbf3b818c	-0.7324455
82	0xbeed2b9d	-0.46322337
83	0xbe939705	-0.28826156
84	0xbe5e5531	-0.21712185
85	0x3eb68065	0.35644832
86	0xbf1608c1	-0.5860711
87	0xbd372a23	-0.04471792
88	0x3e5f12fe	0.21784589
89	0x3ee5b5d9	0.448653
90	0x3f807146	1.0034568
91	0x3f5e0ec6	0.8674129
92	0x3e7a2d77	0.24431406
93	0x3e8caa5c	0.27473724
94	0xbf53a5ba	-0.82674754
95	0x3ec88e8c	0.39171255
96	0x3f33b42f	0.70196813
97	0xbf76729d	-0.96268636
98	0xbed2a29e	-0.41139692
99	0xbf385a37	-0.72012657
100	0xbf122034	-0.5708039
101	0xbf17568c	-0.59116435
102	0xbeff6c2e	-0.49887222
103	0x3fa2dbf3	1.2723373
104	0x3f0592fe	0.5217742
105	0xbf3aa360	-0.7290554
106	0x3f628a21	0.8849202
107	0xbf421b07	-0.7582249
108	0xbf71d52e	-0.9446591
109	0x3ee1bb4a	0.44088203
110	0x3f2c4c63	0.67304057
111	0xbecf5cef	-0.4050059
112	0xbf7ae71b	-0.9800889
113	0xbe494811	-0.19656397
114	0xbea477b7	-0.32122585
115	0xbf8cccba	-1.0999978
116	0x3f734d34	0.9503968
117	0x3f44945e	0.7678889
118	0x3f9bba3c	1.2166209
119	0x3fad7b72	1.3553298
120	0xbf36a3b2	-0.7134353
121	0xbf0adcd1	-0.5424319
122	0x3ea4a5dc	0.3215779
123	0xbdcfca21	-0.10145975
124	0x3e7acc28	0.24491942
125	0x3db5b69d	0.08872721
126	0x3dcec3a7	0.100959115
127	0x3d56ee20	0.052473187
128	0x3f1b77b1	0.6072951
129	0x3f1b2368	0.606009
130	0x3f62bd1c	0.8856981
131	0x3f9db496	1.2320735
132	0xbef6739b	-0.48135075
133	0x3e388346	0.18018827
134	0x3f0c97fa	0.549194
135	0xbddcedb7	-0.10787528
136	0x3dde1ac2	0.108449474
137	0xbf1474d5	-0.5799077
138	0xbe8f42cc	-0.2798065
139	0xbe08562c	-0.13314122
140	0x3f50eef2	0.816146
141	0x3f23539f	0.6379947
142	0xbedd44f2	-0.43216664
143	0xbe3283ff	-0.17433165
144	0x3ea123d1	0.31472638
145	0x3d8651b9	0.06558556
146	0xbccfe869	-0.025379376
147	0xbce548b2	-0.027988765
148	0x3f2477b0	0.6424513
149	0x3f0b2797	0.54357284
150	0xbe3e9619	-0.18611945
151	0x3e400d7c	0.18755144
152	0x3ed637ad	0.41839352
153	0xbc899d4f	-0.016798643
154	0xbe09ef30	-0.13470149
155	0x3c8c7886	0.017147314
156	0x3ed1f4c9	0.4100707
157	0x3d03a8ad	0.032143284
158	0xbdbf8040	-0.093506336
159	0xbcc5298e	-0.024067666
160	0xbcb3fada	-0.021970201
161	0x3f03adcf	0.51437086
162	0x3d2263e2	0.039646037
163	0x3f023eb9	0.5087696
164	0x3e1b4e5d	0.15166612
165	0x3e4f35c8	0.2023536
166	0x3ecc263c	0.3987292
167	0x3e401920	0.18759584
168	0xbefa7044	-0.48913777
169	0x3e0c16c8	0.13680565
170	0xbe84452e	-0.2583403
171	0xbead4157	-0.33838913
172	0xbf0d961e	-0.55307186
173	0x3ee8e7ef	0.4548945
174	0xbf5e5de4	-0.86862016
175	0x3e6551b3	0.22394447
176	0x3e2245e1	0.15846969
177	0xbef51bd4	-0.47872794
178	0x3d1de7b5	0.03855105
179	0x3d7b3c2d	0.061336685
180	0x3da19b81	0.07890988
181	0x3d98f881	0.07469273
182	0xbf2647c6	-0.6495327
183	0xbfbec9eb	-1.490537
184	0x3f3425ec	0.70370364
185	0x3e5f7398	0.2182144
186	0x3eb39f45	0.3508245
187	0xbe8d014b	-0.2754005
188	0x3efcdfa1	0.49389365
189	0x3dd80dfe	0.10549544
190	0xbb1764f0	-0.0023100935
191	0x3e50b24c	0.20380515
192	0xbf4e751e	-0.80647457
193	0xbe386843	-0.18008523
194	0x3e397246	0.18109998
195	0x3d17db80	0.037074566
196	0xbe557270	-0.20844436
197	0x3ec2a803	0.38018808
198	0xbeb64814	-0.35601866
199	0xbda62a84	-0.08113578
200	0x3f319aec	0.6937702
201	0xbc97f6ff	-0.018550394
202	0x3df956d3	0.121747635
203	0x3e53b9ef	0.20676397
204	0x3da2ca2e	0.07948719
205	0xbd9c19cc	-0.07622108
206	0xbe57aac2	-0.21061233
207	0x3e941554	0.28922522
208	0x3ea37082	0.31921774
209	0xbe9fc31f	-0.31203553
210	0xbe25dff0	-0.16198707
211	0xbde1d9c8	-0.110278666
212	0x3e827832	0.25482327
213	0x3de155db	0.11002704
214	0xbdcbd7ff	-0.09953307
215	0x3dd1093c	0.102068394
