Cropping_tool/weights/DCONV_3.npy (npy, 1136 bytes, 1 tensors)

array f4 [1, 3, 3, 28]
00000000: a005 8abe f1e3 523e ed32 ecbe 8c84 10bf
00000010: f9f1 a1be 3593 8c3e ed72 4e3e c07f 8e3e
00000020: 92bb 97be 8114 51be fea5 01bd d22e 8ebe
00000030: 4fd0 73be ccf6 1ebf 8070 b73e e17d 013f
00000040: 959b 073f 7a1e abbe 58bf c43e 6135 0fbe
00000050: bfea bc3e 8d8a b33e 8f76 8e3e ceaf 233f
00000060: 1f12 febe 7d43 2ebf b1ff c63e 59dc 07bf
00000070: 2e29 a4be 0f0b e53e 92d9 62bf 7494 2bbf
00000080: 3c7d 63bf 67fe c63e d02e 163f 7aba 163f
00000090: c558 38bf 87cc 5dbe f719 ba3c 1a8f cbbe
000000a0: 4f45 37bf 75a5 22bf ed39 d03e 4031 4d3f
000000b0: 0297 323f 9459 f9bd b6fe a13e 6070 09bf
000000c0: 4532 c83e 5bf9 f03e ddfe cc3e ccc2 0e3f
000000d0: df60 55bf d0d4 b2bf 4425 683f 8f31 a6be
000000e0: 2ada 3fbd 3b9d 903e dc20 0cbf 3c7a 37be
000000f0: 0769 f9be 5466 913e eccd e23e b101 033f
00000100: 2b1a 09bf f0c7 84bc ffd9 7dbe 6bf5 4ebe
00000110: 1b38 ffbe 1993 9cbd 4792 9f3d 9bd4 f13e
00000120: 4a3d a43d 806b 663e aeee 7cbd a024 4cbe
00000130: b3a1 703e e2ca 1b3e d35e 403e a12f 0f3e
00000140: 4dd8 fabe dc2d 84bf 06dc 493f f03e acbe
00000150: 56d5 efbe d578 633e 2c2f 70bf 1078 d4be
00000160: b17c 54bf 4822 133f 89c6 103f c91e cd3e
00000170: 376c 23bf 6963 ddbe a811 a33c e5d4 efbe
00000180: 48d6 edbe fa7c 11bf 8313 eb3e c62c 433f
00000190: 413c 8d3e ca1f 83be fda8 bc3e 7ee5 91be
000001a0: 752c 1c3f de94 1f3f b4fb c03e 460c 0f3f
000001b0: b5e3 3fbf 4460 40bf d4e0 343f 1db9 80bf
000001c0: 021c 13bf c593 dd3e 98ba c7bf 945f 12bf
000001d0: 3049 8dbf 05b7 503f f0b5 843f 3035 5f3f
000001e0: 8339 83bf dbcb 07bf 698c 853d 4676 37bf
000001f0: 7ddf 69bf 4daa 20bf cb0c 153f 2a9e a73f
00000200: 02d8 de3d 0880 b53e 7e0d 923e 34c1 11bf
00000210: e384 563f dfda 693f 89d9 3f3f 9cb7 ed3e
00000220: f7de b6bf 8cf3 b4bf bb0d bc3f ddbf 09bf
00000230: fb8f f8bd 5cc8 9a3e b20e 3bbf 18a1 38be
00000240: e024 1fbf e9c2 eb3e 8f65 0e3f b633 f53e
00000250: f94c 4ebf 83c6 2ebe 5c00 a4be 30e3 b7be
00000260: abd6 10bf 94a1 dcbd 2bee 423e 6dc3 503f
00000270: 033f 8ebe f81c 3d3f 2a16 aebd 0981 41be
00000280: 20c8 d33e 4d54 d23e da0b 163f 42e6 913d
00000290: 013b 6abf cc16 84bf c28d 673f a060 f03d
000002a0: fa09 abbe 1944 4e3d 6ad9 08bf 4e94 4d3d
000002b0: 136b a9be 4d60 ac3e 9680 d83e 7597 563e
000002c0: c8c8 5fbe 5f34 6cbe 76ae 52be a1b9 67be
000002d0: c684 47be 0ffc 13be a63f 6a3d a5e5 b73e
000002e0: fb5f 53be a74c 783d faaa 7139 0af6 92bd
000002f0: 4501 aa3e 7e59 ab3e 0313 b73e 948d 993d
00000300: 62a6 dcbe c8b0 09be c497 0b3f c44b 06bf
00000310: 7682 afbe 141f 983d 4419 31bf 1863 fd3c
00000320: d924 12bf 7309 e23e 2d36 123f 622d e33e
00000330: f5ea f1be a8e9 a8be ee87 9cbe 54a9 b3be
00000340: 7b75 e8be 74b4 c2bd 5122 813e 2abf 333f
00000350: 830e cabe 2c6a 053f e170 15bd 1880 82bd
00000360: b569 0c3f c389 0b3f 31f6 263f ff9c cd3d
00000370: 3844 3dbf 82f9 b7be c487 2e3f 721a d1be
00000380: 1be4 e0bd 7ed5 8c3d 95d2 8ebe fc7b 59bc
00000390: fd16 85be 0482 373e 651c 6d3e 2c15 2e3e
000003a0: 3ce6 93be 2716 11be 325f 0bbe 8d9c 33be
000003b0: e2f6 71be bab1 88ba 5213 4b3e 2a56 e73e
000003c0: c81b d2be 2d45 0d3f 840c 31bd 0140 92bd
000003d0: f948 823e 2464 943e c0b2 233f 999d 17be
000003e0: a734 b5be f583 7abe e6e7 7f3e 944d b53e
-0.26957417 0.20594765 -0.46132603 -0.5645225 -0.31629923 0.2745606 0.20161028 0.2783184
-0.29635292 -0.20417978 -0.031652443 -0.27770096 -0.23809932 -0.6209533 0.35828018 0.505827
0.52971774 -0.3342169 0.38427234 -0.13985206 0.36897847 0.35066643 0.27824828 0.6394013
-0.496232 -0.6807173 0.38866952 -0.530706 -0.32062668 0.44735 -0.88613236 -0.67023396
-0.8886297 0.3886597 0.5866518 0.5887829 -0.7201045 -0.21660052 0.02271746 -0.39757615
-0.7159013 -0.6353372 0.40669194 0.80153275 0.6976167 -0.12175289 0.31639642 -0.53687096
0.39100853 0.47065243 0.40038195 0.55765986 -0.8335094 -1.3971195 0.9068186 -0.32459685
-0.046838917 0.28244957 -0.5473764 -0.17917722 -0.48712942 0.28398383 0.4429773 0.51174456
-0.53555554 -0.016208619 -0.2479019 -0.20210807 -0.49847493 -0.07645244 0.07791572 0.47232518
0.080195025 0.22501945 -0.06175106 -0.19935846 0.23499183 0.15214112 0.18786173 0.13983013
-0.4899315 -1.0326495 0.78851354 -0.33641768 -0.4684245 0.22214063 -0.9382198 -0.4149785
-0.83002764 0.57474184 0.5655294 0.4006255 -0.63837 -0.43239906 0.01990588 -0.46842113
-0.46452546 -0.56831324 0.45913324 0.76240194 0.27585033 -0.2561019 0.36847678 -0.284954
0.61005336 0.6233653 0.37692034 0.558781 -0.7495683 -0.7514689 0.7065556 -1.0056492
-0.5746461 0.43276802 -1.5603819 -0.5717709 -1.103796 0.81529266 1.0368023 0.8719053
-1.0251926 -0.53045434 0.06520922 -0.71664846 -0.9135664 -0.6275986 0.58222646 1.3095143
0.10881044 0.35449243 0.2852592 -0.5693543 0.8379652 0.91349596 0.7494131 0.46429145
-1.4286793 -1.4136825 1.469169 -0.53808385 -0.12136837 0.30230987 -0.730693 -0.18030202
-0.6216564 0.46047142 0.55623716 0.47891015 -0.805862 -0.17067914 -0.32031524 -0.35915518
-0.5657756 -0.10773006 0.19036166 0.81548196 -0.2778245 0.7387233 -0.08500321 -0.1889688
0.4136362 0.4107994 0.58611834 0.07123996 -0.9149628 -1.0319457 0.9045068 0.1173718
-0.3340605 0.05035791 -0.5345675 0.050190262 -0.33089504 0.33667222 0.42285603 0.20956214
-0.21853936 -0.23066853 -0.20574364 -0.22629406 -0.19484243 -0.14451621 0.057189606 0.35917392
-0.20642082 0.060619976 0.00023047245 -0.071758345 0.33204094 0.33466715 0.35756692 0.07497707
-0.4309569 -0.13446343 0.5452845 -0.5245936 -0.3427922 0.07427803 -0.6917918 0.03093104
-0.57087475 0.44147834 0.57113916 0.44370562 -0.4724957 -0.32990766 -0.30572456 -0.35090125
-0.4540213 -0.09507075 0.25221494 0.7021357 -0.39464197 0.5211513 -0.036484603 -0.06372088
0.54848796 0.5450708 0.6521941 0.1003971 -0.7393222 -0.35932547 0.6817591 -0.4084049
-0.10981008 0.06876658 -0.27895036 -0.013274189 -0.259941 0.17920691 0.23155363 0.17000264
-0.28886592 -0.14168607 -0.13610533 -0.17540188 -0.23629335 -0.0010428943 0.19831589 0.45182925
-0.4103682 0.5518368 -0.043224826 -0.07141114 0.254463 0.2898265 0.63944626 -0.14806212
-0.35391733 -0.244644 0.24990806 0.3541075
