Utilities/weights/CONV_10_BIAS.npy (npy, 416 bytes, 1 tensors)

array f4 [72]
0	0x3e6da31c	0.23206753
1	0x3f85d9f9	1.0457145
2	0x3fa2f22a	1.2730153
3	0x3f1672ed	0.5876911
4	0xbd56647c	-0.052341923
5	0x3fbea0d1	1.4892827
6	0x3fcdb9e5	1.6072356
7	0xbfa4b7ba	-1.2868569
8	0xbf36eca2	-0.71454823
9	0x3f75c47e	0.9600295
10	0x3fa350a2	1.2758982
11	0x3ebf5975	0.37372938
12	0x3fab0b8c	1.3362899
13	0xbf619fba	-0.8813435
14	0xbe712c7c	-0.23552126
15	0x4003aedf	2.0575483
16	0x3fc17f43	1.5116962
17	0xbf545a80	-0.8295059
18	0x3eb22e1f	0.34800813
19	0x3f61df2a	0.88231146
20	0x40370fa9	2.8603308
21	0x3f501920	0.8128834
22	0xbf781020	-0.96899605
23	0x3f81618a	1.0107892
24	0x40034c99	2.0515501
25	0xbf5f9912	-0.8734294
26	0x3fe1ae72	1.7631361
27	0x3e27720e	0.16352102
28	0xbf7508e8	-0.95716715
29	0x3e544f6c	0.20733422
30	0x3fc0797b	1.5037073
31	0xbe9b2e18	-0.30308604
32	0x3f549215	0.83035403
33	0x3f26d62e	0.6517056
34	0x3e13a2d3	0.14417581
35	0x40007d66	2.0076537
36	0x3fb82941	1.438759
37	0x3fe34020	1.7753944
38	0x3ed05068	0.40686345
39	0x3dc8268a	0.09772976
40	0x3f8d0b4f	1.1019076
41	0xbfa1e0a0	-1.2646675
42	0x3fb6233f	1.4229506
43	0x3fedba01	1.8572389
44	0x3f001f9f	0.5004825
45	0xbc541bb1	-0.012946055
46	0x3d52b077	0.05143782
47	0x3f8b1f47	1.086892
48	0x3fb1f609	1.3903209
49	0xbdd7b02f	-0.10531651
50	0x3f7da9bf	0.99087137
51	0x3f0eb5cf	0.5574617
52	0xbed48130	-0.41504812
53	0xbe322705	-0.17397697
54	0xbf27d684	-0.655617
55	0xbe4d7499	-0.2006401
56	0x3fd97dc4	1.6991506
57	0x3d3389aa	0.04383246
58	0x3f49af37	0.7878298
59	0x3c882baf	0.016622392
60	0x3f52b04c	0.8230026
61	0x3edf1fb6	0.4357888
62	0xbf2d3588	-0.6765981
63	0x3f5ad13d	0.8547552
64	0x3e664486	0.22487077
65	0x3f542137	0.8286318
66	0xbe978604	-0.29594433
67	0xbec7d909	-0.39032772
68	0xbf5493d2	-0.83038056
69	0x3f9d5119	1.2290374
70	0x3e4ff865	0.20309599
71	0x3fa11405	1.2584234
