Utilities/weights/CONV_20.npy (npy, 11392 bytes, 1 tensors)

array f4 [32, 1, 1, 88]
000000 2f b7 44 bd 2c 34 32 3d 32 6b aa bd 40 06 71 bd
       -0.04802626 0.043506786 -0.08321227 -0.05884385
000010 41 d4 48 bc 3b cf ea 3c d0 ff b2 bd 7a 37 1b 3d
       -0.0122576365 0.028663268 -0.087401986 0.037894703
000020 1e b4 3c 3d e2 48 01 3d ac 12 b7 bb 3f 12 71 bd
       0.04607021 0.031563647 -0.0055869427 -0.05885529
000030 3a ad 10 3e 50 c2 d1 bd d0 e5 14 3e 4e a1 b3 bd
       0.1412858 -0.1024214 0.14540792 -0.08771001
000040 f1 ca 1a bd d0 02 c1 3d 9d 0b 1e 3e 34 9d 83 bb
       -0.037791196 0.094243646 0.15434118 -0.004016543
000050 0a e3 2f be 2f cc 70 3c b8 13 a2 3c bf cf 8d bd
       -0.17176452 0.014697119 0.019784793 -0.0692439
000060 14 ce 72 3e 3e b7 a9 3d b9 a7 57 bd 2a 21 d2 bc
       0.23711425 0.08286904 -0.052650187 -0.02565058
000070 5d 03 96 bc dc c6 17 3d 21 b9 74 3c 44 e9 36 3e
       -0.01831215 0.03705488 0.014936716 0.17862421
000080 06 e6 1c 3d b3 82 7a bc 77 df c7 bd 88 33 b7 bd
       0.038305305 -0.01528995 -0.097594194 -0.08945376
000090 43 4b 4a 3d 59 fe a0 bd 30 0a 95 3c a3 d1 c1 bc
       0.04938818 -0.07861013 0.018193334 -0.023659533
0000a0 1b 16 2d be 1e 1a 97 bc b9 cc 16 3d a1 88 78 bc
       -0.16902964 -0.01844507 0.036816332 -0.015169294
0000b0 66 d1 9d bc 1c 51 17 bd 30 d1 f2 bd be 8a 07 be
       -0.019264888 -0.036942586 -0.118563056 -0.1323652
0000c0 fa 34 33 3d db ca 8c 3d ed 09 8e bc f7 3e d9 3c
       0.043751694 0.06874629 -0.017338717 0.026519282
0000d0 d9 05 37 bd a6 6c 26 3e 74 cc e0 bd 72 6c 57 3d
       -0.04468331 0.16252384 -0.10976496 0.052593656
0000e0 ac f7 24 bd 6b 94 92 3d 4b fa f4 bd 13 85 13 3e
       -0.04027526 0.07157215 -0.11961802 0.14406233
0000f0 bf fc 81 3c 11 f8 bc bd 35 dd 95 3d 52 fa 73 bd
       0.015867589 -0.092270024 0.073175825 -0.059564896
000100 92 25 69 3d 60 17 49 3e 51 fc f9 3d 97 85 21 bd
       0.056920595 0.19637823 0.12206329 -0.03943404
000110 1c 6c ae be bf 65 75 3e 6a 83 44 3e 23 8b fe bb
       -0.34066856 0.23964594 0.19190755 -0.0077680512
000120 42 78 80 be 6a ca 40 3e ab 93 5b be 4f b2 8e be
       -0.2509175 0.18827215 -0.2144305 -0.27870414
000130 66 eb 97 bd 08 8c a4 3d 72 dd 30 be 22 77 3e 3e
       -0.074179456 0.08034521 -0.17271975 0.18600133
000140 49 c4 95 bd 52 b0 6a be c3 c5 88 3e a7 3d 72 be
       -0.07312829 -0.22918823 0.2671338 -0.23656331
000150 66 a1 2a 3d 10 3d ad 3e bc a4 ac bd 9d f8 0f 3e
       0.041657828 0.3383565 -0.08429858 0.14059682
000160 d4 35 bd 3b 19 e4 72 3d 42 ad 3d 3d 5b 8e 41 bc
       0.005774239 0.059299562 0.04630781 -0.011813725
000170 bd 18 98 ba ac 92 94 bc b7 e3 1e 3e 7d 85 b5 3b
       -0.0011604052 -0.018136345 0.15516554 0.0055395947
000180 6e eb da bb dc 12 f4 bd c0 64 18 bc a9 19 1a 3e
       -0.0066808974 -0.1191766 -0.009301364 0.15048851
000190 e7 23 2f bd 9d f7 32 be 48 df 25 3d 08 4e 19 bb
       -0.04275885 -0.1747727 0.04049614 -0.0023392458
0001a0 f2 b9 e7 3d f2 13 55 bb 30 5d 72 bc 4e 94 b6 bd
       0.11314763 -0.003251311 -0.014792725 -0.089150056
0001b0 db 15 5d bd 91 25 8d bd 34 96 81 bd d5 28 b2 bd
       -0.05397592 -0.06891931 -0.06327477 -0.08699194
0001c0 b6 e3 76 3d 05 c7 1d 3e fa 33 02 3e eb bc 2e bc
       0.060275756 0.15407951 0.1271514 -0.010665159
0001d0 c1 8b 44 3d b7 eb e8 3c 14 7e ba 3d e0 17 ca bd
       0.047984842 0.02843271 0.09106079 -0.09867835
0001e0 3d d3 08 be e5 b8 5f 3d a7 da 10 be da 03 2f 3d
       -0.13361831 0.05461969 -0.14145909 0.042728283
0001f0 7c ff e5 3c c1 6e 02 3e 1a a6 1a bd 29 4b a4 3d
       0.028075926 0.12737562 -0.037756063 0.08022148
000200 e3 fe 6c 3d 8c b7 9f bd 80 f8 e7 bd 91 32 b8 bd
       0.057860266 -0.07798681 -0.113266945 -0.0899402
000210 e9 b5 54 bc cc 2a dc bd ae 51 83 3c 9c a0 9e 3d
       -0.012982824 -0.1075035 0.016030159 0.077454776
000220 54 c0 b4 bb 73 8c d2 bd b7 9c fa 3c 82 7b cf bb
       -0.0055160914 -0.10280695 0.030592306 -0.006331862
000230 46 37 b0 3d e3 53 e9 3d 56 7f 04 3d 0e 8d bb 3b
       0.086042926 0.11392953 0.032348 0.005723602
000240 c7 1b b4 bd 1f 9d c7 bc 69 e4 ed 3d e4 f3 b1 3c
       -0.087943606 -0.024366913 0.116158314 0.021722741
000250 d0 cd 26 bd e2 00 23 3d 8e 73 1c bd 8e c4 b3 bd
       -0.04072362 0.039795764 -0.03819614 -0.08777724
000260 18 65 6a 3e 31 8e 13 be da 1d 37 3e af 32 b4 3d
       0.22890127 -0.1440971 0.17882481 0.0879873
000270 35 ee 60 be b0 5f 40 3d a1 7a e8 bd 4e ca 4f 3e
       -0.21965869 0.046966255 -0.113515146 0.20292017
000280 24 da 20 3e 8d 9b ef 3e fb ff ca 3d f0 22 4a bd
       0.15708214 0.46798363 0.09912106 -0.049349725
000290 1a c0 9a 3d 32 78 67 bd 79 17 88 3c 68 0c b1 bd
       0.07556172 -0.05651111 0.016612755 -0.086449444
0002a0 12 b0 62 3e 19 df d1 3e ed 86 bb be 07 6b 0d be
       0.22137478 0.40990523 -0.36626378 -0.13810359
0002b0 5e 40 a1 be c7 75 d0 be 00 07 04 bb 94 bd 03 be
       -0.3149442 -0.40714857 -0.0020145774 -0.12865287
0002c0 ce 0c 12 bd e2 87 09 3e 30 19 54 3d e0 aa c1 3e
       -0.035656743 0.13430741 0.051781833 0.3782568
0002d0 77 e9 fb 3d b5 b7 11 3d 25 67 1f 3e b4 67 a8 3c
       0.12300389 0.035575587 0.1556669 0.020557262
0002e0 0d fa 23 bd e4 d5 9c 3e 81 24 da 3c b2 d9 3e 3d
       -0.04003339 0.30631936 0.026628735 0.04659433
0002f0 c9 31 87 3e 7e 3a 1d bc ce b2 0c 3e 2c b3 8b bd
       0.2640517 -0.009596465 0.13740084 -0.06821284
000300 0a 0a be bd c0 f8 52 3e 67 4a 0d 3e 50 99 c2 bb
       -0.092792585 0.20602703 0.13797913 -0.0059386864
000310 14 45 ad 3e 17 79 ba 3d b2 7f 8f bc 9e 57 1f be
       0.33841765 0.09105127 -0.017516945 -0.15560767
000320 c1 58 ec 3d 10 7f ec bd 16 6f 50 3e f7 eb 39 3e
       0.11540366 -0.11547673 0.20354876 0.1815642
000330 ce 2f 4c 3e 5a 3b c5 3d bf d9 09 3e d3 d8 17 3e
       0.19940111 0.09630461 0.1346197 0.14828806
000340 8f 2c a2 bc 1b 0f 55 3d 50 c0 45 3e ff 1f de 3c
       -0.019796638 0.05201636 0.19311643 0.027114866
000350 fa 0c d9 bc 41 0c 5f 3d d7 23 97 3e b8 c1 d9 b9
       -0.026495446 0.054455046 0.2951953 -0.00041533797
000360 08 81 44 be 8f 9b 60 3d 2a bc ab bb 19 6a 67 3d
       -0.19189847 0.054835852 -0.0052409368 0.056497667
000370 26 8d 45 3b 59 30 2f 3e d4 4e 2f 3e 58 c7 e6 bc
       0.0030143945 0.17108287 0.17119914 -0.028171226
000380 7e 3a 6c bd fb dc 5a be 97 6c 8d 3e da 9c c4 bd
       -0.05767297 -0.2137336 0.2762191 -0.096002296
000390 ea e5 5b bd 1c 8e 5d bd 3a 4b 42 3e a2 66 41 3e
       -0.05368606 -0.054090604 0.18974009 0.18886808
0003a0 7b e3 13 3e a7 a4 01 3e 47 9a af 3d 6b fe ff 3d
       0.14442246 0.12660466 0.08574348 0.12499698
0003b0 2d 9f 1d 3e fe 7e 2e 3e af 39 bd be 0e 96 94 3e
       0.15392752 0.17040631 -0.36958072 0.29020733
0003c0 ad 0d 15 3d 01 e8 a5 3d 8e 7a bf 3e bb 4c db 3d
       0.036389995 0.08100892 0.3739819 0.107079946
0003d0 9e ab 04 3d 21 9e 1b bd d3 cb 01 3f 34 45 df 3e
       0.03239023 -0.0379926 0.50701636 0.43607485
0003e0 2f c3 18 3e 0e ce 34 be ab 27 d3 3e 51 c6 16 3e
       0.14918207 -0.17656729 0.41241202 0.14724089
0003f0 3b 65 9d 3e 9a 4d 5e 3e 7d 51 5e 3e 5c 1f 0c 3f
       0.30741295 0.2170929 0.21710773 0.5473535
