Utilities/weights/CONV_21_BIAS.npy (npy, 512 bytes, 1 tensors)

array f4 [96]
0.13509071 -0.16273753 6.7695875 6.737178 -0.7630271 -1.3277178 0.7278947 -1.3094829
-0.2138338 -0.08333282 -0.20013578 1.3413241 -0.9848434 -0.41229546 1.2241158 -0.3526593
0.10959192 -0.048369147 6.804811 6.7956557 -0.7229247 -1.2722399 0.8464049 -1.2524958
-0.06923602 0.07750894 -0.096062966 1.5548054 -1.0174289 -0.43989944 1.2214665 -0.32391268
0.07309261 0.0022127368 6.7047486 6.7117863 -0.72337204 -1.1534296 0.8919363 -1.2029027
0.0348788 0.2697745 0.04908102 1.6170808 -1.0010568 -0.4515843 1.163114 -0.20763433
0.01115185 -0.007616856 6.301663 6.317207 -0.5630346 -1.0317222 0.8292056 -1.0569314
0.1181753 0.32225198 0.042067766 1.531037 -0.92347634 -0.3446349 0.9826355 -0.10564938
-0.0009038031 0.07041424 5.573582 5.571579 -0.40036574 -0.983832 0.6431942 -0.9266368
0.18321311 0.34111825 0.10487827 1.466651 -0.72526467 -0.24476624 0.67590266 -0.0265004
-0.03938452 0.03856303 4.70659 4.7074876 -0.23576014 -0.90718377 0.56252754 -0.8531652
0.19275488 0.32584214 0.17019968 1.44541 -0.6615661 -0.18599239 0.5483217 -0.039864708
00000000: 3855 0a3e aba4 26be 76a0 d840 f696 d740
00000010: be55 43bf a8f2 a9bf 4f57 3a3f 239d a7bf
00000020: 3ff7 5abe 66aa aabd 65f0 4cbe 82b0 ab3f
00000030: b21e 7cbf 6418 d3be d4af 9c3f c38f b4be
00000040: bb71 e03d ba1e 46bd 03c1 d940 0376 d940
00000050: 9811 39bf c2d8 a2bf fead 583f c851 a0bf
00000060: 9dcb 8dbd 02bd 9e3d a9bc c4bd dd03 c73f
00000070: 1c3b 82bf 803a e1be 0459 9c3f e2d7 a5be
00000080: 94b1 953d 9003 113b 4d8d d640 f4c6 d640
00000090: e92e 39bf 95a3 93bf f055 643f b7f8 99bf
000000a0: 13dd 0e3d e21f 8a3e 2e09 493d 81fc ce3f
000000b0: a122 80bf 0f36 e7be ebe0 943f 189e 54be
000000c0: 40b6 363c d296 f9bb 39a7 c940 8f26 ca40
000000d0: 0923 10bf 790f 84bf d146 543f 8749 87bf
000000e0: e405 f23d 36fe a43e 404f 2c3d 05f9 c33f
000000f0: f268 6cbf fc73 b0be 008e 7b3f b45e d8bd
00000100: 33ed 6cba 5735 903d c95a b240 604a b240
00000110: bdfc ccbe 6adc 7bbf 60a8 243f 1238 6dbf
00000120: 389c 3b3e 0da7 ae3e 6bca d63d 38bb bb3f
00000130: f2aa 39bf 00a4 7abe f507 2d3f 5e17 d9bc
00000140: aa51 21bd 45f4 1d3d 639c 9640 bda3 9640
00000150: 1b6b 71be 323d 68bf ce01 103f 0969 5abf
00000160: 8961 453e c8d4 a63e d348 2e3e 3203 b93f
00000170: 655c 29bf ca74 3ebe d05e 0c3f 2d49 23bd
