Utilities/weights/CONV_9.npy (npy, 14464 bytes, 1 tensors)

array f4 [64, 1, 1, 56]
000000 7b 1d 86 be 1d 1b 12 3e fb 39 17 3d 48 29 64 bb
       -0.26194367 0.14268155 0.03692053 -0.0034814645
000010 6b 0f c4 bc 16 d9 33 bc 16 8b 4f bd ad 50 ea bc
       -0.023933133 -0.01097705 -0.050669752 -0.028602922
000020 6f 01 fb bc 34 c6 aa bc ab f9 b3 bb 07 3d 47 bd
       -0.030640332 -0.020846464 -0.005492409 -0.048642185
000030 94 c1 87 bc af 81 99 bd 76 26 19 bb 38 33 90 bd
       -0.016571797 -0.07495438 -0.0023368872 -0.07041019
000040 94 8e d1 bd 00 bc cd 3d e2 1f 8b 3d c4 24 20 3d
       -0.10232273 0.10045624 0.067931905 0.039097562
000050 e0 26 35 bd a7 78 70 bd 83 6b 89 3d c7 dc 5a bc
       -0.044226527 -0.058708813 0.06709959 -0.0133583015
000060 00 83 67 3c 7f 0f 80 3d 23 55 cb bd 1c 5d f0 ba
       0.014130354 0.06252956 -0.09928348 -0.0018338296
000070 3c d4 60 3c fc 13 e9 bd a2 93 9a 3d 5c 50 a6 ba
       0.013722476 -0.11380765 0.0754769 -0.0012688744
000080 00 15 c8 3c b3 87 a7 bb 34 76 74 3c f7 5c 94 be
       0.024424076 -0.005112612 0.01492076 -0.28977177
000090 1e cb 33 bd 98 54 43 be 99 7a 02 be 52 be 40 bd
       -0.04389488 -0.19075239 -0.1274208 -0.047056504
0000a0 6a b8 2c bd d2 1d 65 bc 75 e8 ba 3d 00 e3 be bd
       -0.04216806 -0.0139841605 0.09126369 -0.093206406
0000b0 8d 2f 97 be fe 83 3d 3c 41 00 c0 3c 6e 71 67 3c
       -0.29528466 0.011567114 0.023437621 0.014126165
0000c0 d5 38 4e bd 1c 9b 01 bd fa 80 7a 3c c0 af 08 3d
       -0.050347168 -0.031642064 0.0152895395 0.033370733
0000d0 19 eb aa 3e c0 7d 5c bc 0f 47 9f 3d 58 23 97 be
       0.3338249 -0.0134577155 0.07777225 -0.29519153
0000e0 50 57 8a bb eb 4e 9a bd 75 44 ff 3b 73 ca 90 3d
       -0.0042218342 -0.07534584 0.007790143 0.07069864
0000f0 4d 23 4e 3d b9 f8 18 3e 14 4d 06 3e c9 57 f4 bc
       0.050326634 0.1493863 0.1311534 -0.029827015
000100 1d 1f 13 3e 0d 08 bf bd e7 f3 ef 3d 78 87 8f 3c
       0.14367338 -0.093277074 0.117164426 0.017520651
000110 d4 a6 ac bd 4f 7a 0e 3e 76 93 e2 bc 3d 0d 27 3d
       -0.084302574 0.13913845 -0.027658205 0.04078411
000120 af 00 88 3d 9b 91 ed 3d bf 5a f4 bb 71 3e 8a 3d
       0.066407554 0.11600038 -0.007457107 0.06750191
000130 47 8b 58 3e 4a 20 18 3e 2e 73 22 be 12 b3 0d 3c
       0.2114688 0.14856067 -0.1586425 0.008648651
000140 9b 25 40 be 7d 2b a6 ba e5 b0 2b be 16 1a 9b 3c
       -0.18764345 -0.0012677755 -0.16766699 0.018933337
000150 5b e9 9f 3d e6 37 10 be 73 ad 7b bd ab 5a 84 bd
       0.07808181 -0.14083824 -0.06144471 -0.06462606
000160 08 73 67 3c 97 ce 23 3e 29 d1 08 3e 0f 77 e7 bd
       0.014126547 0.15996777 0.13361038 -0.113020055
000170 0c cd 02 3d d0 72 12 3e 1b 02 58 be d0 be 6c be
       0.03193383 0.1430161 -0.21094553 -0.23119664
000180 bd f1 38 bd ee 6a d0 3c 62 83 42 bd 56 1b 37 3d
       -0.045152415 0.025441613 -0.047488578 0.044703804
000190 93 4d ab 3d f1 94 40 3c 4a 50 19 be bb 85 d1 3c
       0.083644055 0.01175426 -0.14972034 0.025576463
0001a0 0d fb 7d 3e ff 69 01 3d d1 36 b7 3e ab dd 25 bd
       0.248028 0.031595226 0.3578401 -0.040494602
0001b0 3d 29 1b 3e fe 49 e5 bc a2 90 a2 bd 9a 5b 8f be
       0.1515245 -0.027989384 -0.07937743 -0.27999574
0001c0 7b 3a 12 be b9 a3 f4 3d e5 ba f2 be bb a2 0f be
       -0.14280121 0.1194529 -0.47408214 -0.1402692
0001d0 3e 2c da 3c 2f e0 8b 3c 08 38 37 bd 75 cc 99 bb
       0.026632424 0.017074673 -0.04473117 -0.0046935626
0001e0 e2 39 3d 3c c9 d6 a8 bd 28 df a1 bd bd 44 ed 3d
       0.011549445 -0.08244092 -0.07903892 0.115853764
0001f0 d1 6f 42 3d f4 d2 30 bd c6 d7 d5 3b b5 e1 3f be
       0.047469918 -0.04316993 0.0065259663 -0.18738444
000200 77 7d 99 3d 7d fc 29 3d d0 fb 8e be a6 75 d1 bd
       0.07494634 0.041500557 -0.27926493 -0.10227518
000210 a9 c4 16 be d2 c1 a6 bd 81 68 fd bc 81 c6 93 3d
       -0.14723457 -0.08142437 -0.03093362 0.07215596
000220 0e cc 1a 3d eb 3d f7 bd 39 01 35 bd ad 69 62 3c
       0.037792258 -0.12072357 -0.04419062 0.01381914
000230 8a 94 ac 3d 89 d1 80 bb af 52 36 3e cb 1b 85 3e
       0.08426769 -0.0039312285 0.17804979 0.25997767
000240 d9 e4 0f 3e 19 0d 49 be aa aa 33 bd 2d 33 03 be
       0.14052142 -0.19633903 -0.04386393 -0.12812491
000250 b8 18 cd 3a 26 78 6a 3d 4e 1b 05 3e b1 97 c6 bd
       0.0015647626 0.05724349 0.12998697 -0.096969016
000260 55 0e 05 3e 12 aa 19 bc 2e d0 2a be 4e 05 b8 3c
       0.12993748 -0.009378927 -0.16680977 0.022463467
000270 08 df 86 be 84 1c 04 be 98 6c 6f 3c 58 82 31 3b
       -0.26342034 -0.12901503 0.014613293 0.0027085748
000280 7e 06 92 bc 29 05 3a be a9 a9 30 3e 72 73 33 3e
       -0.017825361 -0.18166031 0.1725222 0.17524508
000290 94 fd 92 be cb c9 f8 3d 0f e5 2b bd a6 1e c8 3d
       -0.2870909 0.12147864 -0.041966494 0.09771471
0002a0 b7 43 8a 3d 9b f1 1e be b6 0d 15 be 2b 71 3c 3d
       0.06751197 -0.15521853 -0.14556012 0.046006363
0002b0 9c c8 47 3d 01 6e b0 bb 87 73 2d 3e 3d 63 95 3d
       0.0487753 -0.0053842072 0.16938601 0.07294319
0002c0 b6 48 74 3d 90 b7 8d bb ed e5 ea bd ac ae 0b 3c
       0.059639655 -0.004324861 -0.11469636 0.008525532
0002d0 71 5f 31 3d 72 65 65 3d ed 6c de bd 5b ae a0 be
       0.04330391 0.05600495 -0.1086062 -0.31383023
0002e0 41 9c 6b bd 5f bb 7e bd 45 7d 06 3e bc 8e 96 3d
       -0.057522062 -0.06219041 0.13133724 0.07351443
0002f0 1e cd f0 bb 1a be 12 3e 88 fd 57 bd c9 2b 2e 3d
       -0.0073486706 0.1433033 -0.05273202 0.042522226
000300 80 34 15 3d e6 8f 07 be f3 25 28 3e 86 c0 ff 3d
       0.03642702 -0.13238487 0.16420726 0.12487893
000310 0c 76 9e bc ad f1 ae bd ed ae 25 3d 1c 7e 93 3d
       -0.019343399 -0.0854219 0.040450025 0.07201788
000320 7f 2d 37 bb a3 70 31 3e e7 0e 63 bd a7 60 80 bd
       -0.0027950702 0.17328124 -0.055434134 -0.06268435
000330 29 19 f0 3d 9c 6e 8f bc a5 9d 79 be 81 20 88 3c
       0.11723549 -0.017508797 -0.24376543 0.016617062
000340 6e 9f 9a 3c f2 24 57 3c 65 6b d6 bc 9e d6 06 be
       0.01887485 0.013131367 -0.026174257 -0.13167807
000350 4b 63 3c bd 1a b4 be bd fd ed d6 bb f0 8f 5b bd
       -0.04599313 -0.093116954 -0.006559132 -0.053604066
000360 58 45 7b 3d 81 e7 78 bd 42 62 e9 bd 85 4f ea 3d
       0.06134543 -0.060767654 -0.11395694 0.114409484
000370 f7 c3 ca bd e8 28 08 3c 1e 59 27 3d 88 a8 e2 bd
       -0.099006586 0.008310534 0.040856473 -0.11067301
000380 cf 31 00 be fd 90 66 be 92 c8 14 be a7 7c 01 3e
       -0.12519 -0.22516246 -0.14529637 0.12645207
000390 80 21 d1 3e 1a e1 df bd 14 dc bb 3d 1e 02 ba 3e
       0.4084587 -0.109316066 0.09172836 0.3632974
0003a0 5c 9f f8 bd 3c a4 4b be 96 59 8d be 2a 93 3d bd
       -0.121397704 -0.19886869 -0.2760741 -0.046282925
0003b0 4c 18 fd 3d 9c 73 13 bd 27 ec ff 3d 80 7a 75 bd
       0.1235815 -0.035998926 0.12496214 -0.05993128
0003c0 24 66 c9 3d 12 4e a5 bd 56 9c 2f bc 2d 57 2b be
       0.09833935 -0.08071531 -0.010718426 -0.16732474
0003d0 f7 87 26 bd ec f8 7d bd e3 59 81 be 34 06 71 be
       -0.04065701 -0.06200497 -0.2526389 -0.23537523
0003e0 4c 51 05 3e f5 c7 f3 3d e9 76 60 bd d1 e3 36 3d
       0.13019294 0.11903373 -0.0548009 0.044650856
0003f0 57 7e da 3b 3d 85 e2 bd 67 87 46 be 0b 3c 62 3e
       0.006667893 -0.110605694 -0.1938759 0.22093217
