Utilities/weights/CONV_2.npy (npy, 2432 bytes, 1 tensors)

array f4 [24, 1, 1, 24]
0	0x3ea1a18d	0.31568566
1	0x3d8087f4	0.06275931
2	0x3ece6e64	0.40318596
3	0x3f0532d3	0.52030677
4	0x3caf822e	0.02142438
5	0x3f277d63	0.654257
6	0xbf029b70	-0.5101843
7	0xbeed2c7a	-0.46322995
8	0x3f92fdcc	1.1483703
9	0xbf555b31	-0.8334227
10	0xbb04ce63	-0.0020264618
11	0x3f28d7c7	0.6595425
12	0xbe7bd7ba	-0.24594012
13	0x3f37f93e	0.7186469
14	0x3e133e08	0.14379132
15	0xbbdb67df	-0.006695732
16	0x3ecb4b2d	0.39705792
17	0xbef79b7f	-0.48360822
18	0xbea5c943	-0.32380113
19	0x3f500412	0.8125621
20	0x3ed9b9b7	0.42524502
21	0xbdc77c89	-0.0974055
22	0x3e3f6536	0.18690953
23	0x3ed8ab32	0.42318112
24	0xbc730358	-0.01483234
25	0x3f21aeb9	0.6315723
26	0x3d8718b1	0.065965064
27	0x3c853555	0.016260782
28	0xbd8f491a	-0.06996365
29	0xbf483a2b	-0.7821376
30	0x3df021c1	0.11725188
31	0x3e5fcaf4	0.21854764
32	0x3e753c96	0.23948893
33	0x3ea9f028	0.33191037
34	0x3bf6b4f6	0.0075288964
35	0xbf0773f7	-0.52911323
36	0x3eff27d0	0.49835062
37	0x3de8b51c	0.11362669
38	0xbcf9309d	-0.030418688
39	0xbe0a559c	-0.1350922
40	0xbfb9949c	-1.4498477
41	0x3ec9c75f	0.3940992
42	0x3f14bfd0	0.5810518
43	0xbf100b8d	-0.56267625
44	0x3dce9921	0.10087801
45	0xbe412be3	-0.18864398
46	0x3dcb31f7	0.099216394
47	0xbf1b045d	-0.6055353
48	0x3f0bbb39	0.54582554
49	0x3dcc1a8f	0.09966003
50	0x3ea88e8a	0.3292125
51	0x3b700ab4	0.0036627473
52	0x3e7282ac	0.2368266
53	0x3e6868f3	0.22696285
54	0x3eb416eb	0.35173735
55	0x3e38b732	0.18038633
56	0xbde78d41	-0.11306239
57	0xbeacaeef	-0.33727214
58	0x3dace27b	0.08441635
59	0xbdba3d5b	-0.09093734
60	0xbec6467b	-0.38725647
61	0xbe03d053	-0.12872438
62	0xbebb20ec	-0.36548555
63	0xbda7f832	-0.082016364
64	0xbdb1624a	-0.08661325
65	0xbdcf540a	-0.10123451
66	0xbed3cc47	-0.4136679
67	0xbeebe898	-0.46075892
68	0xbeecf955	-0.46283975
69	0x3f3b188f	0.7308435
70	0x3d3535aa	0.04424063
71	0x3eb50c25	0.35360828
72	0x3ef3c279	0.47609308
73	0x3eaf7719	0.34270552
74	0xbd92ea04	-0.07173541
75	0x3ec94a46	0.3931448
76	0x3eb24010	0.348145
77	0x3f07c400	0.5303345
78	0x3e29c842	0.16580299
79	0xbea7d383	-0.32778558
80	0x3f013453	0.50470465
81	0x3ee9b0a1	0.4564257
82	0x3ee0e1f5	0.43922392
83	0xbee52ed2	-0.44762284
84	0xbe204807	-0.15652476
85	0xbed1e400	-0.40994263
86	0x3d41e5d5	0.047338326
87	0x3dbb8dba	0.091578916
88	0x3e07167a	0.13192168
89	0x3d1f5033	0.038894843
90	0xbd5770d3	-0.052597832
91	0xbeffb24c	-0.49940717
92	0xbf5c2cde	-0.8600596
93	0xbd9e8fc1	-0.07742263
94	0x3f411a70	0.75430965
95	0x3f176584	0.59139276
96	0x3d8dbdab	0.06920942
97	0xbc9bf487	-0.019037498
98	0x3dd868d7	0.105668716
99	0xbe082a0d	-0.13297291
100	0x3ee1e020	0.44116306
101	0x3da9d63f	0.08292817
102	0x3e3e2ea6	0.18572482
103	0xbe458639	-0.19289483
104	0xbecdc208	-0.40187097
105	0x3def857b	0.11695381
106	0xbe43e4ad	-0.19130202
107	0x3e403fb8	0.18774307
108	0x3e74b130	0.23895717
109	0xbfa325e2	-1.2745936
110	0x3df952a6	0.12173967
111	0x3e313e24	0.17308861
112	0x3ce19436	0.027536493
113	0x3be48e06	0.0069749383
114	0x3ef24668	0.4731934
115	0x3dddc0bb	0.10827776
116	0xbf0c0be9	-0.54705673
117	0xbba4e403	-0.005032064
118	0xbd5b5946	-0.053551935
119	0x3e4ea3af	0.20179628
120	0x3e463a4d	0.19358177
121	0xbd8c3f8a	-0.068480566
122	0xbe168254	-0.14698154
123	0x3f165bc0	0.5873375
124	0x3f5f2367	0.87163395
125	0xbb0d240e	-0.0021536383
126	0x3df62fd6	0.12020843
127	0x3ea08633	0.31352386
128	0xbe086486	-0.13319597
129	0xbea78b44	-0.3272344
130	0x3dc93533	0.098246
131	0xbe7df2f9	-0.24799718
132	0xbec5f0c1	-0.38660243
133	0x3d844351	0.06458152
134	0x3e0aa191	0.13538195
135	0x3d47d3ef	0.0487861
136	0xbe8e1b77	-0.2775533
137	0xbdbbea62	-0.09175564
138	0xbf1d07bf	-0.61339945
139	0x3ccec088	0.02523829
140	0xbea35426	-0.31900138
141	0xbe140bee	-0.14457676
142	0xbc6b62ce	-0.014366819
143	0x3e43e23b	0.19129269
144	0xbe86590b	-0.2623981
145	0xbe2b7ee1	-0.16747619
146	0xbe928f03	-0.28624734
147	0x3eccc79a	0.39996034
148	0xbdac7326	-0.084204
149	0xbf59ba80	-0.850502
150	0x3ec4b2ba	0.38417608
151	0x3ee913c1	0.45522884
152	0xbe06f037	-0.13177572
153	0x3d2c5e31	0.042082015
154	0x3edcfe1a	0.43162614
155	0x3e592e2d	0.21209021
156	0x3f0f57a3	0.559931
157	0xbdf6c82e	-0.120499
158	0x3e804676	0.25053757
159	0xbecd4318	-0.4009025
160	0xbdb32a84	-0.087483436
161	0xbcc58352	-0.02411047
162	0xbe9ac99a	-0.30231935
163	0x3f3347f4	0.70031667
164	0x3f215b73	0.63030165
165	0x3e2253f9	0.15852346
166	0xbe57609c	-0.21032947
167	0x3eba9ebd	0.36449233
168	0x3ea036d8	0.31291842
169	0x3cd9447d	0.026521916
170	0xbe16bd1f	-0.14720581
171	0xbdc41c22	-0.095756784
172	0x3e1a8633	0.15090255
173	0x3ecc9f03	0.39965066
174	0x3e9ae315	0.30251375
175	0xbe36bd65	-0.17845686
176	0xbe350231	-0.17676617
177	0x3c8eb6d2	0.01742116
178	0xbe835015	-0.25647035
179	0xbdab0621	-0.08350778
180	0xbe938cff	-0.2881851
181	0x3eb1f4a3	0.34756956
182	0xbeecd931	-0.46259454
183	0x3f4e0b15	0.8048566
184	0xbe0f261d	-0.13979383
185	0xbde4838e	-0.111579046
186	0x3e951998	0.2912109
187	0xbe17c8fc	-0.14822763
188	0x3e9d5f41	0.30736735
189	0x3f263b76	0.6493448
190	0x3ec60df5	0.38682523
191	0x3ebbf018	0.36706614
192	0x3e7bb47d	0.2458057
193	0xbdab979f	-0.08378529
194	0x3e47760d	0.19478627
195	0x3dabc2de	0.08386777
196	0x3e4210be	0.18951699
197	0xbe2d0397	-0.168959
198	0xbf54d69e	-0.8313998
199	0xbe1322dd	-0.14368768
200	0x3f396d65	0.7243255
201	0x3e63121b	0.22174875
202	0x3e4d0fc8	0.20025551
203	0x3eaa24bf	0.3323116
204	0x3f47a3e3	0.77984446
205	0x3f825bc9	1.0184261
206	0xbdafc9a1	-0.085833795
207	0xbddcdbdd	-0.10784123
208	0x3ec9df55	0.394282
209	0x3fad2373	1.3526443
210	0xbf32b286	-0.69803655
211	0x3e071a4a	0.13193622
212	0xbc5877e5	-0.013212179
213	0x3dd1ea1f	0.10249733
214	0x3effa2db	0.49928936
215	0x3ef5fdcc	0.48045194
216	0x3e1eae40	0.15496159
217	0x3e963938	0.2934053
218	0xbea44895	-0.32086626
219	0x3c62c8cf	0.013841822
220	0x3e6bb1d0	0.23017049
221	0xbf25f48c	-0.64826274
222	0x3edcfa64	0.43159783
223	0x3eb291cb	0.34876856
224	0xbed3d6e0	-0.41374874
225	0x3da769d6	0.081744835
226	0x3db982b0	0.0905813
227	0xbf9e1f67	-1.2353333
228	0x3e952412	0.29129082
229	0xbef6743b	-0.48135552
230	0x3e7196cb	0.23592679
231	0x3e5e847a	0.21730223
232	0xbf3604be	-0.71100986
233	0x3ebe9ffe	0.3723144
234	0x3f27f79b	0.6561219
235	0xbed8bc17	-0.42331
236	0xbf593504	-0.8484652
237	0xbe5f7dae	-0.21825287
238	0x3e57d33e	0.21076676
239	0xbf0ce36d	-0.55034524
240	0x3d16a957	0.03678259
241	0x3f98bef5	1.1933275
242	0x3e7c0c88	0.24614155
243	0xbce5d08e	-0.028053548
244	0x3d0c9b37	0.034327712
245	0x3ad47cf2	0.0016211553
246	0x3d8377d0	0.06419337
247	0xbd5608fd	-0.052254666
248	0xbf6df7c8	-0.9295621
249	0xbe61c314	-0.22047073
250	0xbdb1f379	-0.08689017
251	0xbf74c714	-0.9561627
252	0xbc582e72	-0.013194667
253	0xbc7be625	-0.015374695
254	0xbdc06a8d	-0.09395323
255	0x3d0528e2	0.032509692
