Utilities/weights/CONV_18.npy (npy, 832 bytes, 1 tensors)

array f4 [2, 1, 1, 88]
-0.15561964 -0.43968078 0.029535504 0.11181458 0.027201625 -0.0019078297 -0.16504546 -0.005786589
-0.07607028 -0.108130395 0.087790295 -0.17591858 -0.039476052 0.16855061 -0.23195939 -0.11791853
-0.16986714 -0.056353893 -0.089374594 -0.106063515 0.012472373 -0.021841163 0.14107206 -0.16196926
-0.014407398 0.05971802 0.059387423 0.29707703 0.05757749 0.06960866 0.17589098 -0.11869531
0.03071827 -0.09682464 -0.0013279442 -0.081779145 -0.04560098 0.22214083 0.09308613 -0.17563269
-0.12348347 -0.13512936 -0.19132185 -0.24362466 -0.22374164 -0.052217714 0.104562625 -0.23165113
-0.2627401 -0.2893215 0.017164994 0.28101745 -0.22276795 -0.10331739 0.056025494 0.22474071
-0.06027284 0.14571743 0.19702373 -0.1107313 -0.22289781 -0.314063 0.23016243 0.186807
-0.09954618 -0.07171134 -0.3145185 0.16061865 0.018657342 0.030147444 -0.022786694 -0.29539707
0.11948792 0.26647395 -0.2479662 -0.13521133 0.13321586 -0.029286977 -0.43298542 -0.2634187
-0.36488816 -1.3365453 -0.40552342 -0.5471087 0.17450821 0.054377135 -0.6128432 -0.23835087
-0.13742095 -0.48503613 0.05717549 0.064872436 0.094193846 -0.014078128 -0.13218346 -0.0016042636
-0.0983197 0.04253775 0.09180706 -0.1963834 -0.026646188 0.12682521 -0.1604036 -0.13035949
-0.1340547 0.026150731 -0.054878514 -0.09717048 -0.06364188 0.016017385 0.12650676 -0.1679471
-0.05598619 0.023922376 0.045941927 0.24673536 0.06922168 0.08202768 0.15099327 -0.03563076
0.019308276 -0.10836465 0.060312994 -0.056681715 -0.051796414 0.15138498 0.19303162 -0.08249432
-0.14096235 0.1653399 -0.27856296 -0.33781728 -0.067581974 -0.0722004 0.27709752 -0.32585412
-0.31315216 -0.26798636 0.06320426 0.25665405 -0.23484176 -0.11032503 0.06330516 0.24955969
0.048425402 0.055773124 0.15937191 -0.2546612 -0.04171056 -0.2908531 0.26656544 0.31616223
0.115762495 -0.12202435 0.21762529 0.1549424 0.24105376 0.03396419 0.33174232 0.02524819
0.15274328 0.2655086 0.03737577 -0.01898627 0.29392257 0.37208453 -0.0671178 0.36743808
-0.5137204 -1.9127804 -0.31958854 -0.42272872 0.14407496 0.18458942 0.3916696 -0.1878498
00000000: c15a 1fbe d71d e1be 71f4 f13c 0bff e43d
00000010: f1d5 de3c 2410 faba ad01 29be 6d9d bdbb
00000020: bcca 9bbd 7873 ddbd 66cb b33d 0024 34be
00000030: a4b1 21bd 8898 2c3e c386 6dbe 457f f1bd
00000040: a7f1 2dbe 57d3 66bd 070a b7bd d437 d9bd
00000050: ed58 4c3c 3dec b2bc 3275 103e 45db 25be
00000060: 020d 6cbc e29a 743d 3a40 733d 7b1a 983e
00000070: 60d6 6b3d fc8e 8e3d c41c 343e 8716 f3bd
00000080: e2a4 fb3c ff4b c6bd 6a0e aeba d37b a7bd
00000090: 18c8 3abd e378 633e f1a3 be3d 0ed9 33be
000000a0: e7e4 fcbd 5a5f 0abe e0e9 43be be78 79be
000000b0: 871c 65be 3ee2 55bd ee24 d63d f435 6dbe
000000c0: df85 86be f321 94be 9a9d 8c3c 85e1 8f3e
000000d0: 481d 64be 1198 d3bd fd7a 653d 6e22 663e
000000e0: a7e0 76bd f336 153e 97c0 493e 18c7 e2bd
000000f0: 533f 64be decc a0be b3af 6b3e 564a 3f3e
00000100: dede cbbd 65dd 92bd 9208 a1be 3779 243e
00000110: 48d7 983c c6f7 f63c 29ab babc 493e 97be
00000120: 15b6 f43d 466f 883e daea 7dbe d774 0abe
00000130: bd69 083e 3eeb efbc 44b0 ddbe d1de 86be
00000140: 9fd2 babe eb13 abbf c4a0 cfbe 510f 0cbf
00000150: 48b2 323e 8fba 5e3d 4be3 1cbf 4012 74be
00000160: 14b8 0cbe a856 f8be d930 6a3d d7db 843d
00000170: b4e8 c03d f3a7 66bc 1a5b 07be 2746 d2ba
00000180: d75b c9bd 103c 2e3d 5705 bc3d bb18 49be
00000190: 1b49 dabc 78de 013e d740 24be f57c 05be
000001a0: a345 09be 0f3a d63c 4bc8 60bd 5101 c7bd
000001b0: ad56 82bd e436 833c fd8a 013e 53fa 2bbe
000001c0: c651 65bd dcf8 c33c 9a2d 3c3d 32a8 7c3e
000001d0: 19c4 8d3d 21fe a73d fb9d 1a3e 8ff1 11bd
000001e0: 642c 9e3c 49ee ddbd c20a 773d 162b 68bd
000001f0: 7a28 54bd aa04 1b3e 15aa 453e c8f2 a8bd
00000200: 6f58 10be dd4e 293e ce9f 8ebe 63f6 acbe
00000210: 6b68 8abd cedd 93bd badf 8d3e 5ad6 a6be
00000220: 7b55 a0be 8235 89be 3c71 813d 2968 833e
00000230: 5c7a 70be 17f2 e1bd 23a6 813d 938c 7f3e
00000240: b759 463d 5c72 643d 6432 233e f462 82be
00000250: b1d8 2abd b3ea 94be 447b 883e 04e0 a13e
00000260: e314 ed3d e7e7 f9bd 2ad9 5e3e 38a9 1e3e
00000270: ccd6 763e 091e 0b3d 21da a93e 4bd5 ce3c
00000280: bc68 1c3e bef0 873e 5617 193d 1889 9bbc
00000290: 057d 963e dd81 be3e 0f75 89bd d820 bc3e
000002a0: 2e83 03bf fdd5 f4bf 1ca1 a3be e66f d8be
000002b0: 6388 133e 0205 3d3e eb88 c83e b35b 40be
