Utilities/weights/CONV_6.npy (npy, 6176 bytes, 1 tensors)

array f4 [42, 1, 1, 36]
0.17888398 -0.12200713 -0.06824862 0.037644215 -0.096178904 -0.29064688 0.025870694 0.12450269
-0.0465599 0.102207005 0.07215184 0.037188314 -0.035080705 -0.09183803 -0.08731944 0.11751018
-0.07101377 0.04259736 -0.04885933 0.15315863 -0.08952786 -0.0029835396 -0.14889716 -0.010392984
0.026551416 0.02103026 0.013242589 0.26699704 0.35296685 0.074155234 0.13376689 -0.13989659
-0.034517974 0.081762515 0.009334732 -0.19720799 -0.07588284 0.12784864 -0.04502305 -0.06905791
-0.03872749 0.035076816 -0.21411555 0.10847041 -0.06909603 -0.17134142 0.0069027497 -0.017806327
0.024536751 -0.057616048 -0.042310435 -0.048092335 -0.040317856 0.039425243 0.06095203 -0.09650227
0.028970137 -0.21445596 0.04136891 -0.05834034 -0.012624964 -0.13588707 0.09940563 0.03817709
0.012077399 -0.12030175 0.25801978 0.0964435 -0.25735915 -0.023533087 -0.025866099 0.009014244
-0.19801705 -0.039568923 -0.07196022 0.19519217 -0.11030655 -0.27460507 -0.08871012 0.08031298
-0.26485527 -0.04636848 0.27042854 0.09460029 0.0045739356 0.18160358 -0.06054436 0.17296338
0.08701224 -0.06421258 -0.17017813 -0.48389935 -0.013860388 0.115739636 -0.016387278 0.24610917
-0.105938025 0.095976144 0.50200427 -0.092966996 -0.5867369 0.22690661 0.031483855 0.2946126
0.04183816 -0.14704558 0.014627393 -0.16166256 -0.08928921 -0.1254856 -0.09389511 -0.27068448
-0.10874201 0.070493504 0.09618022 -0.06094533 -0.016560756 -0.0043377634 -0.026483595 -0.0144154625
-0.083200134 0.014131882 -0.100574 0.07350304 0.13145055 0.18419807 -0.045915287 -0.08770779
-0.07958162 0.20417216 -0.014666082 0.06339755 0.15719603 -0.1254329 0.04884082 0.09398655
-0.021057239 -0.22890536 -0.16471416 -0.010860525 -0.1665068 -0.17523885 0.03487229 -0.16306475
-0.09941825 -0.20810317 0.025383858 -0.020856312 -0.24312836 -0.14723928 -0.02319788 -0.07732459
0.20087454 0.08811364 -0.11921148 0.19993196 0.20380951 -0.15699986 0.016467825 -0.06403396
-0.27711952 0.0064273924 0.122545704 0.08136589 -0.008304547 0.059349857 0.16780844 -0.2192506
0.15413396 0.13437477 0.056505173 0.18110238 0.027432324 -0.012498421 0.3082672 0.21634686
-0.014353968 0.03674737 -0.23775715 0.002089197 0.09225368 -0.029369721 0.053935457 -0.17489558
-0.12201698 0.20104021 0.02738764 -0.14844276 0.19421986 0.12545754 0.057822138 -0.14048421
-0.0723253 -0.23835531 -0.08508852 0.14446259 0.0028764766 0.21476361 -0.15177462 -0.1358456
-0.19601764 0.12198695 -0.13222055 0.30236745 -0.12949364 0.010175329 0.092279345 0.05981351
-0.052087944 -0.43253377 0.07922768 -0.015841817 -0.15529975 -0.031239647 -0.2629156 -0.19394062
-0.16078177 0.10623353 0.04098966 0.17927276 -0.09407016 0.1556258 -0.5667633 0.019210668
0.10045324 -0.01866005 0.02141204 0.02679608 -0.057974882 -0.05973483 -0.05212028 0.07050828
-0.078898706 0.20495622 -0.050326318 0.10495495 -0.10143324 -0.098501354 -0.14827834 0.058700625
0.041033827 -0.2731152 -0.094927005 -0.07639312 -0.01305608 0.12814191 0.16249335 -0.11255178
0.20805562 -0.025925186 0.022575429 -0.3281204 0.010809967 0.12665662 0.23166397 -0.15022919
00000000: 5d2d 373e e0de f9bd efc5 8bbd d230 1a3d
00000010: 72f9 c4bd abcf 94be c7ee d33c 44fb fe3d
00000020: 98b5 3ebd e851 d13d 58c4 933d c652 183d
00000030: c9b0 0fbd 9415 bcbd 89d4 b2bd 2da9 f03d
00000040: ab6f 91bd 927a 2e3d b920 48bd 9ed5 1c3e
00000050: 625a b7bd 7d87 43bb 7f78 18be 5647 2abc
00000060: 5b82 d93c a747 ac3c 72f7 583c d6b3 883e
00000070: 12b8 b43e b3de 973d 30fa 083e 0d41 0fbe
00000080: b862 0dbd 1b73 a73d b4f0 183c e4f0 49be
00000090: 7668 9bbd c1ea 023e 176a 38bd 3c6e 8dbd
000000a0: b7a0 1ebd b5ac 0f3d 1b41 5bbe bc25 de3d
000000b0: 3882 8dbd 2074 2fbe 7630 e23b 93de 91bc
000000c0: 4c01 c93c cefe 6bbd b54d 2dbd 78fc 44bd
000000d0: 5624 25bd 5d7c 213d d6a8 793d fba2 c5bd
000000e0: c852 ed3c 589a 5bbe 7272 293d 48f6 6ebd
000000f0: f0d8 4ebc fb25 0bbe 2e95 cb3d 955f 1c3d
00000100: 48e0 453c c460 f6bd 2b1b 843e 2b84 c53d
00000110: 94c4 83be 76c8 c0bc 24e5 d3bc 7bb0 133c
00000120: fbc4 4abe 0613 22bd e15f 93bd 75e0 473e
00000130: 67e8 e1bd 0999 8cbe a7ad b5bd 227b a43d
00000140: 1c9b 87be e0ec 3dbd 9c75 8a3e ccbd c13d
00000150: f4e0 953b 4af6 393e 5dfd 77bd 501d 313e
00000160: 7933 b23d e381 83bd 2d43 2ebe a8c1 f7be
00000170: ae16 63bc e708 ed3d 9d3e 86bc 0b04 7c3e
00000180: 09f6 d8bd 248f c43d 5a83 003f 7b65 bebd
00000190: 6434 16bf 355a 683e 37f5 003d 76d7 963e
000001a0: 7e5e 2b3d 1e93 16be bca7 6f3c df8a 25be
000001b0: 43dd b6bd 4c7f 00be 144c c0bd 2897 8abe
000001c0: 22b4 debd e65e 903d 23fa c43d cfa1 79bd
000001d0: 6caa 87bc cc23 8ebb 20f4 d8bc d52e 6cbc
000001e0: d564 aabd 6989 673c bef9 cdbd c388 963d
000001f0: f99a 063e 6b9e 3c3e ab11 3cbd 24a0 b3bd
00000200: b0fb a2bd 8212 513e 024a 70bc 93d6 813d
00000210: fff7 203e 7b71 00be 500d 483d 057c c03d
00000220: 3b80 acbc 2b66 6abe d4aa 28be 58f0 31bc
00000230: c280 2abe d071 33be 3fd6 0e3d 72fa 26be
00000240: cc9b cbbd ff18 55be cff1 cf3c dbda aabc
00000250: a4f6 78be e5c5 16be 7b09 bebc 5b5c 9ebd
00000260: 0eb2 4d3e ed74 b43d 2625 f4bd f7ba 4c3e
00000270: 71b3 503e 92c4 20be 88e7 863c 3d24 83bd
00000280: 9ce2 8dbe e09c d23b 3ef9 fa3d 29a3 a63d
00000290: cb0f 08bc d618 733d fad5 2b3e 3b83 60be
000002a0: 4bd5 1d3e 8a99 093e f871 673d e772 393e
000002b0: c1b9 e03c 2dc6 4cbc 33d5 9d3e 088a 5d3e
000002c0: e82c 6bbc 6984 163d 9c76 73be e9ea 083b
000002d0: 7fef bc3d c598 f0bc 6deb 5c3d d417 33be
000002e0: 0ae4 f9bd 7cdd 4d3e 0b5c e03c 6101 18be
000002f0: 92e1 463e f177 003e e8d6 6c3d 18db 0fbe
00000300: 491f 94bd 6a13 74be e442 aebd 00ee 133e
00000310: 4583 3c3b feea 5b3e ce6a 1bbe 1c1b 0bbe
00000320: d9b8 48be 4bd4 f93d d364 07be e8cf 9a3e
00000330: fb99 04be 6cb6 263c f4fc bc3d 03ff 743d
00000340: 2b5a 55bd 1175 ddbe 1f42 a23d b3c6 81bc
00000350: e606 1fbe 4aea ffbc e09c 86be 5f98 46be
00000360: faa3 24be f790 d93d c6e4 273d 4793 373e
00000370: dba7 c0bd 5f5c 1f3e 6617 11bf b15f 9d3c
00000380: 6eba cd3d f6dc 98bc 4d68 af3c 7483 db3c
00000390: 1277 6dbd 82ac 74bd 137c 55bd a566 903d
000003a0: a595 a1bd 0be0 513e f822 4ebd 9ff2 d63d
000003b0: 3bbc cfbd 14bb c9bd 47d6 17be 1170 703d
000003c0: 1613 283d c1d5 8bbe 1769 c2bd ff73 9cbd
000003d0: 2be9 55bc a237 033e a864 263e 8c81 e6bd
000003e0: 880c 553e 0e61 d4bc 1bf0 b83c 66ff a7be
000003f0: 4a1c 313c 46b2 013e 5239 6d3e aed5 19be
