Utilities/weights/CONV_21.npy (npy, 36992 bytes, 1 tensors)

array f4 [96, 1, 1, 96]
000000 be 8c 8c bd ac d8 dd 3c 8f 35 84 be 25 40 33 be
       -0.06862782 0.027080856 -0.25822112 -0.17504938
000010 f8 18 cb bd c8 39 82 3d ef d6 17 be 8c 1b 87 3c
       -0.09916872 0.06358677 -0.14828084 0.016492628
000020 4a 23 d2 3e 36 5d 85 be 2c 7b 80 bd 31 60 07 3e
       0.41042548 -0.26047677 -0.06273493 0.13220288
000030 01 79 19 3e e9 8f 02 be 0f 41 63 3d 2c 4a dd bd
       0.14987566 -0.1275021 0.055481967 -0.10805163
000040 b5 2c 53 3b 36 e5 7c bd 99 7e 0c be bb c5 8c 3d
       0.0032222692 -0.06174203 -0.13720168 0.068736516
000050 d6 ed c5 bc dd 6e 59 3d 4e 5d ce bc b0 df 96 bc
       -0.02416126 0.053084243 -0.025190976 -0.01841721
000060 99 c6 35 be a2 c2 c7 bb ad ad 10 be 7a 09 02 be
       -0.1775154 -0.0060962 -0.14128752 -0.12698928
000070 68 41 ed 3d e2 6c 46 3e ed 09 b4 bd 8a 5c a4 3d
       0.11584741 0.19377473 -0.08790956 0.08025463
000080 78 4a 49 3e b1 c1 28 be 20 8a 20 bd 60 03 82 bd
       0.19657314 -0.16480137 -0.039194226 -0.063483
000090 d0 d6 38 bb 6a be d8 bd 0a f6 f2 bd b4 72 53 3e
       -0.002820421 -0.105831936 -0.118633345 0.20649225
0000a0 c8 0d f6 bd 3b b5 fe ba 93 51 1b 3e 0b b9 74 3d
       -0.12014347 -0.0019432673 0.15167837 0.059746783
0000b0 d3 88 0a 3d 7a cf 08 3d a8 b6 56 be e7 f3 4a bd
       0.033821892 0.03340099 -0.20968115 -0.04954901
0000c0 03 9a 39 3e 1a 57 50 3d 4d c2 08 3e 2c 95 82 bd
       0.18125157 0.050864317 0.1335537 -0.063761085
0000d0 3e 2e 19 3e cd d1 84 bd b0 30 88 be 39 59 24 bf
       0.14959046 -0.06485329 -0.26599646 -0.6419864
0000e0 ca 6f 6e 3a bb 1b 52 bb 0c d5 91 3d f2 bf 9d 3d
       0.00090956374 -0.0032059986 0.071207136 0.07702626
0000f0 e1 8e 7b 3e 6d d9 87 3c 9e 45 9b 3e 8e 3b c0 3e
       0.24566223 0.016583169 0.3032655 0.37545437
000100 f0 9e cf bd 4c d3 31 be a5 84 4f 3c 9d 3f 4e be
       -0.10137737 -0.1736576 0.012665902 -0.20141454
000110 5e 77 0c be 08 56 de 3d e8 a3 03 be 57 66 30 3e
       -0.1371741 0.10856253 -0.12855494 0.1722654
000120 08 f3 f7 bd 55 ad 27 3e 74 4d 85 bd 40 fc cf 3d
       -0.121069014 0.16374715 -0.06508914 0.10155535
000130 f5 2c ec 3d 90 77 27 bc 63 ff fb bd 3a e7 b6 bd
       0.115320124 -0.010221377 -0.123045705 -0.08930822
000140 0d 36 b7 3d f0 4f 9a 3e c1 db 54 3e cf a8 49 3d
       0.08945856 0.30139112 0.20786954 0.049233254
000150 fd fa d6 bc 12 2f fc 3d be 4a 3d 3e 46 8a d7 3d
       -0.026242727 0.123136654 0.18485543 0.105244204
000160 12 36 34 3e b9 c8 29 3e dc 95 cc bc e8 43 dc bd
       0.17598751 0.16580476 -0.024973802 -0.107551396
000170 41 4c 2e be f5 87 bb 3d 4f f9 36 be 5c 5a 41 3e
       -0.17021276 0.09156791 -0.17868541 0.18882126
000180 e6 34 b6 3b bc ec 80 3e ec bd 83 bd f6 74 c2 be
       0.005560505 0.25180614 -0.06432709 -0.3797986
000190 51 54 00 3e 4d 6c 03 3d da e0 25 3d 3f 4f 66 3c
       0.12532164 0.032085706 0.04049764 0.01405698
0001a0 0b e8 15 bd 06 2b 1d be 4b 8c 86 3d e4 09 9b 3d
       -0.036598247 -0.15348443 0.065697275 0.07570246
0001b0 69 6c 81 bd 9f df 86 3d 31 1f 84 be dd d5 a8 bc
       -0.06319506 0.06585621 -0.25805047 -0.02060979
0001c0 66 30 49 3c 83 a2 0b 3e 7d 9e 25 be d0 ff 4f be
       0.0122796055 0.13636212 -0.1617374 -0.20312428
0001d0 bb fa 11 3e 80 f0 f8 bc ec 80 0b be d1 b6 ed 3b
       0.14255802 -0.030388117 -0.13623399 0.0072544594
0001e0 34 4e 06 3e 99 91 d7 bd b5 8b 4e 3c 7c 91 36 3d
       0.1311577 -0.105258174 0.012606551 0.04457234
0001f0 1e d9 16 3e b7 fa 6a 3e 0e 70 81 3d ae f3 59 3e
       0.14731261 0.22947203 0.06320201 0.21284363
000200 bb 92 de bd 79 a4 1d 3e 79 25 b0 bd 65 ef cb bc
       -0.1086783 0.15394773 -0.08600897 -0.024894426
000210 af 3b 6d 3e c3 38 20 3e fe 9e 9a bd 4d bf 8a bb
       0.23167299 0.15646653 -0.075498566 -0.0042342306
000220 20 b2 84 bd 4c e6 ca 3d 4a ce 5c 3e 6d 7b e9 bd
       -0.06479287 0.09907207 0.21563068 -0.11400495
000230 34 be 2f 3a 8b b8 6f be 84 d3 d4 3d 93 54 29 3d
       0.00067040627 -0.23410241 0.10391906 0.041340422
000240 85 e1 da 3c 55 0e 85 bd cd 9e b2 3e 56 9c d5 bd
       0.026718864 -0.06496874 0.3488678 -0.10430209
000250 a0 a2 48 be 4a 5a b2 3d 61 04 f1 3d 0c 02 1c 3e
       -0.19593287 0.087086275 0.11768413 0.15235156
000260 9b 14 41 3b 74 a0 9c 3d 3c 69 5f be 68 f1 04 3d
       0.0029461745 0.076477915 -0.21817487 0.032456785
000270 69 66 da bd c6 55 7a 3d 68 e6 d0 3b a0 40 dd be
       -0.106640644 0.061116956 0.006375123 -0.43213367
000280 41 30 4d 3e ef ec b7 be f7 2a b1 3d a4 74 3c 3e
       0.20037939 -0.35922953 0.08650773 0.1840387
000290 5f c3 23 be 41 b6 b5 bc c7 d9 80 3d fb 74 9a bd
       -0.15992497 -0.022181632 0.06291538 -0.075418435
0002a0 c8 e8 72 3c a2 f1 0f 3d 04 0a d7 3b d9 b0 f8 3d
       0.014826007 0.03514255 0.0065624733 0.12143106
0002b0 8c 35 3c 3e 99 58 32 3e b5 ce 97 be 1d 97 36 3d
       0.18379802 0.1741661 -0.29649892 0.044577707
0002c0 b6 83 84 3d ea 23 2f be 08 36 92 be 20 57 87 3d
       0.06470434 -0.17103544 -0.28556848 0.06608415
0002d0 45 01 88 3d 15 4e 75 3d c1 82 e6 bd 42 f9 05 3e
       0.06640867 0.059888918 -0.11255408 0.13083366
0002e0 c1 f9 c2 3d ac 44 8b bd e6 2f 7a 3d 90 2a d9 be
       0.09520293 -0.068002075 0.061080836 -0.42415285
0002f0 7c a5 94 bd de f8 25 3c 4e a9 6f 3e 1b a6 f4 3a
       -0.07258126 0.010130135 0.23404428 0.0018665226
000300 9e fb c6 3d 18 c4 8f be 80 37 14 3f fa 30 03 3c
       0.09715961 -0.28079295 0.57897186 0.008007282
000310 95 67 90 3e 2f 17 1d 3f f5 ee e2 3d b5 8e 4d 3d
       0.28204027 0.613635 0.11080734 0.050184924
000320 9f 61 da 3e 3f b8 f7 bd 7d 1b b4 3e 50 ef a1 3e
       0.42652604 -0.12095689 0.35177222 0.31627893
000330 03 73 21 be b9 0d ac 3e 53 27 8c 3e 8c 22 77 3c
       -0.1576653 0.3360422 0.27373752 0.01508392
000340 e6 67 04 bd 16 9b 5b be 07 25 7f 3e 95 d5 c8 bd
       -0.032325648 -0.2144588 0.24916469 -0.098063625
000350 d6 0a 03 3e de e8 1f be 27 c5 4f 3f 55 6e 96 bd
       0.12797102 -0.15616176 0.81160206 -0.07345263
000360 34 da d5 3f 3a df 85 3f 7a 55 30 3e 02 31 a6 3e
       1.6707215 1.0458748 0.17220107 0.32459265
000370 94 5e c3 3e 05 10 72 3d a8 99 b0 3c a0 8b 80 3e
       0.38158095 0.05909731 0.021557644 0.25106525
000380 54 3c 45 3e 72 7b 5d bd 29 23 bb bd 2f a1 95 3c
       0.19261295 -0.054072805 -0.09137566 0.018265335
000390 dc 29 ac 3e c0 25 ef 3e 9b 4a 8d 3d ad 58 08 3f
       0.33625686 0.46708488 0.068989955 0.5326031
0003a0 60 4d 94 3d 4c c0 05 3e 9f 8f 55 3f 0e 8e 29 3f
       0.072413206 0.13061637 0.83422273 0.66232383
0003b0 a5 62 64 3f 46 79 20 3e a0 0a 01 3f 73 97 e3 3d
       0.8921302 0.15671262 0.5040684 0.11112871
0003c0 d0 90 70 3e 4f bf 97 3c 63 70 46 3e 6c 23 38 3e
       0.23492742 0.01852384 0.1937881 0.17982262
0003d0 7b 8f f9 3e 0c f7 21 bd ef 62 de 3d ca 8c 9a 3e
       0.4874228 -0.039542243 0.10858714 0.3018554
0003e0 93 98 23 3e 8c 46 46 be 9d a0 aa bd 1e 2d 2c 3e
       0.15976171 -0.19362849 -0.08331416 0.16814086
0003f0 ca 0f f5 3e a3 fb 65 be b4 d9 13 3e 03 2f b4 3e
       0.4786361 -0.22459273 0.14438516 0.35192117
