Utilities/weights/DCONV_6.npy (npy, 1640 bytes, 1 tensors)

array f4 [1, 3, 3, 42]
000000 2b 1f 8d 3e 1e f5 47 3f 23 3f 99 3e 79 7f 21 bf
       0.27562842 0.78108394 0.29930982 -0.6308513
000010 df 75 3e 3e 33 25 bf 3c a1 8d f5 be 8c 5d a0 3e
       0.18599652 0.023333168 -0.47959617 0.3132137
000020 73 d9 38 bf 36 1c e4 be 10 03 24 3c d3 45 b1 3e
       -0.722068 -0.44552773 0.010010496 0.34623584
000030 b5 01 57 3d ea df 92 bd eb 26 6a 3f e5 46 8d 3d
       0.052491862 -0.071716145 0.91465634 0.06898288
000040 d8 46 b8 be 82 47 f1 3d 47 0a b0 3e 3d f4 4f bc
       -0.3599155 0.11781217 0.3438284 -0.012692508
000050 fc c7 ec 3c 1c 9f 19 bf 80 1a c2 be 97 3c 73 be
       0.028903954 -0.60008407 -0.37910843 -0.23753582
000060 3b 6a b6 3e 91 47 95 be a5 a8 01 3e 76 71 d9 3e
       0.35627922 -0.29156163 0.12661989 0.42469376
000070 2a e1 03 3d c8 3c b9 be cb 37 21 3d f0 33 0a 3f
       0.032197155 -0.36179185 0.03935985 0.539855
000080 c8 fe a3 be 4c b5 4d bf 81 25 b6 be 52 16 70 bf
       -0.3203032 -0.8035476 -0.35575488 -0.9378406
000090 2f 8d a5 bf 12 49 8d bf 51 ff a8 be 85 81 1c 3f
       -1.2933711 -1.1037924 -0.3300729 0.6113513
0000a0 59 e1 05 be b3 ab 32 bf 68 40 29 3f b7 7e 1e 3f
       -0.13074245 -0.6979324 0.661139 0.619121
0000b0 fd 28 f2 3e a5 44 23 bf b2 2c 05 3f b6 3f 11 3f
       0.47296897 -0.6377662 0.52021325 0.5673784
0000c0 c5 73 95 be c6 8e 7c 3e ce 1d ee be fa 8b 3b be
       -0.29189888 0.24663839 -0.46507114 -0.18315116
0000d0 21 dc 26 3e cb 9b 8e 3d ce 05 40 bf 84 6d a2 be
       0.1629491 0.06963309 -0.7500886 -0.3172418
0000e0 85 71 54 3f 18 f4 05 3f 78 b0 ff be bd c5 77 3c
       0.8298572 0.5232558 -0.49939322 0.015122828
0000f0 f6 40 48 be 67 7d 49 3e 9f 5b e7 3e 15 5c 7f bf
       -0.1955603 0.19676743 0.4518709 -0.9974988
000100 95 ff b7 be c4 66 02 bf 49 9c e6 bb c3 01 2d bf
       -0.3593718 -0.5093806 -0.0070376736 -0.67580813
000110 9b b5 a8 3e 9c 9c a8 3e ad 83 e7 be 71 70 26 bf
       0.32951054 0.32931983 -0.45217648 -0.6501532
000120 89 c6 71 3d 2f c9 8c 3e 73 d6 17 bf 82 34 28 bf
       0.05902723 0.2749724 -0.593116 -0.6570512
000130 b9 7d 15 3f 38 99 36 bf a7 7f b9 bf fd 42 a6 bf
       0.5839496 -0.71327543 -1.4492081 -1.2989193
000140 36 e3 9c be a0 f0 52 3f 65 14 74 bf 72 56 1c bf
       -0.30642098 0.82398415 -0.9534362 -0.61069405
000150 4e 13 0a 3f 6b 54 c4 bd d7 87 89 3e 75 b7 84 bd
       0.53935707 -0.09586414 0.2686145 -0.06480304
000160 70 78 aa 3e 5d e6 be 3e e7 4c e1 3e f8 8c 6d bd
       0.33295012 0.37285128 0.44003984 -0.057995766
000170 41 27 c1 3d af 4f 6c 3e cb 91 59 3e 3f 0a 28 bf
       0.09431315 0.23077272 0.21247022 -0.65640634
000180 93 de 26 bf f7 44 09 bf d8 bd 30 3e cf 64 f9 3e
       -0.6518337 -0.53620857 0.1725992 0.48709723
000190 fb 7c 5c be 56 0b 68 be fe b3 e3 be 91 78 08 3e
       -0.21532051 -0.22660574 -0.4447326 0.13327242
0001a0 d9 a1 01 3f 65 e2 04 bf e9 95 87 be 38 cd 70 be
       0.50637585 -0.5190795 -0.2648156 -0.23515785
0001b0 6e d3 03 be f9 be 38 bf 12 bf 92 3e c4 a0 56 bd
       -0.12873623 -0.721664 0.286614 -0.05239941
0001c0 df 73 1a bf 5b 39 86 be cd c9 08 3e 21 34 cd bc
       -0.60333055 -0.26215634 0.13358231 -0.025049271
0001d0 ed 19 04 bf 1b d0 33 3d cf 11 3a 3f bf 90 ba bd
       -0.5160206 0.043899637 0.72683424 -0.091096394
0001e0 f7 4e 58 bf 96 92 07 bf fe cd 82 bd 33 86 e7 3e
       -0.8449549 -0.5295805 -0.06386946 0.45219573
0001f0 79 7f ae bf 27 f6 b2 be 14 5a ae 3e 1a 68 39 3f
       -1.3632652 -0.34953424 0.340531 0.7242447
000200 ef 5a 1d 3f 7f 15 1b bf 6b da d3 3e a4 46 77 3c
       0.6146688 -0.60579675 0.41377577 0.015092526
000210 56 fe 9e be dc 94 0b bd 6b 32 1b bf 5f 0d 42 be
       -0.31053418 -0.03407751 -0.60623807 -0.18950413
000220 4a 3e 0a 3f bb 5c 64 3e f6 81 14 3f 15 d1 c7 3e
       0.54001296 0.22300999 0.58010805 0.39026704
000230 4a e5 0e 3f 54 13 6c 3e 85 09 38 bf 35 f4 f2 be
       0.5581862 0.23054248 -0.71889526 -0.4745194
000240 f3 9a 29 3f 89 42 0a 3e d2 bd ee be 10 97 31 bf
       0.6625206 0.13501944 -0.46629196 -0.6937113
000250 01 97 14 bf a1 ef 55 bf 9f 6e 78 3f ba 16 f3 bd
       -0.58042914 -0.8356877 0.97043794 -0.11869569
000260 0d 24 c8 3e 15 e3 b8 3e f7 fd 89 be a6 c8 23 bf
       0.39090005 0.3611075 -0.26951572 -0.6397804
000270 cc 17 00 3f 53 c2 f1 3e 21 5d bf bd a4 e5 9c bf
       0.5003631 0.4721857 -0.09343935 -1.2257581
000280 6b 30 17 bf a3 e5 8a bf 90 cd e2 bf 85 87 7f bf
       -0.59058255 -1.085133 -1.7718983 -0.9981616
000290 2a b5 5c 3e 33 66 22 3f ee 99 84 bf 1f 7d 8f bf
       0.21553484 0.63437194 -1.0359476 -1.1210059
0002a0 26 32 5a 3f ae a4 01 3f ef 95 30 3f 61 4d dd be
       0.8523277 0.50641906 0.6897878 -0.43223098
0002b0 bd d6 54 3f a7 94 59 3f 4d 0a b4 3e 0f c2 c2 be
       0.83140165 0.8499245 0.3516411 -0.3803868
0002c0 34 53 2f 3d e3 02 b3 3e 07 f8 8b 3f de 76 9a bd
       0.042803958 0.3496314 1.0935067 -0.07542203
0002d0 63 e4 4b bd df 1b be 3e 8e 3c 01 3d b0 b5 3f 3f
       -0.049778353 0.3713064 0.03155189 0.7488661
0002e0 76 66 ca be cb 90 61 bf bf 78 6a 3d cf 73 d3 3e
       -0.39531296 -0.8811156 0.05724406 0.41299292
0002f0 79 97 8d 3e ad c5 7c bf 6c 7f 76 bf 74 4b 56 bf
       0.27654627 -0.9873913 -0.9628818 -0.8370888
000300 33 73 27 3f 3c 52 e5 3c 67 c0 1f 3f 17 e9 2d 3f
       0.65410155 0.027993314 0.6240296 0.6793379
000310 94 4b 63 bf 2e 99 8e bf a8 1f 40 3f 59 b6 10 3f
       -0.887872 -1.1140497 0.75048304 0.5652824
000320 55 b9 7d bf dc da 51 bf 7d 62 8b be e8 2f 96 bf
       -0.9911092 -0.8197458 -0.27223578 -1.173337
000330 89 5f dc bf a6 9e d0 bf 56 3a 8c 3f 75 cd 30 3f
       -1.7216655 -1.6298416 1.0955303 0.690635
000340 86 22 c3 bf 10 60 42 bf 67 ad f4 3e 31 9c 3e be
       -1.5244911 -0.7592783 0.47788545 -0.1861427
000350 fc 3a 80 3e 3b 21 1a 3d 53 10 14 3f 09 6d 38 3f
       0.25045002 0.037629347 0.5783741 0.72041374
000360 38 0c 35 3f 41 6f da be 1d 2d 20 3f 2d 82 07 3f
       0.7072177 -0.42663005 0.6256884 0.5293301
000370 6b c4 98 3f 9c 2d a9 be 08 a7 b7 be ee 67 8a 3d
       1.1934942 -0.3304261 -0.35869622 0.06758104
000380 51 5c ec bd 57 2c 20 3f 8e 8c 95 bd f2 a9 1b bf
       -0.115410455 0.6256766 -0.07302199 -0.6080619
000390 14 4a c6 be 72 0a ee 3e 82 df e7 3e 4f a3 ca be
       -0.38728392 0.46492344 0.4528771 -0.3957772
0003a0 8c aa 32 bf 09 14 ef be e4 51 a0 bd 1e 47 ab 3d
       -0.69791484 -0.46694973 -0.078281194 0.08363174
0003b0 9f 52 e0 3e d9 df 75 3e 0d 6c 32 bf f0 08 eb be
       0.43813035 0.24011172 -0.6969612 -0.45905256
0003c0 ad 5d d9 3e f8 d0 3d 3e 4f 0d 7a bf fd e7 e2 bd
       0.4245428 0.18536747 -0.9767656 -0.110794045
0003d0 2e 6c 79 3e 24 a9 e1 be 28 b0 0d bf 0a 40 7f bf
       0.24357674 -0.44074357 -0.5534692 -0.9970709
0003e0 dc 94 71 3f c0 2e a0 3e a7 55 9b bf df f4 43 bd
       0.94367766 0.31285667 -1.2135514 -0.04784095
0003f0 4b da 5c 3e 54 44 0b 3d ab c7 a1 3e d0 4c d4 be
       0.21567647 0.03400071 0.31597647 -0.41464853
