Utilities/weights/DCONV_16.npy (npy, 3584 bytes, 1 tensors)

array f4 [1, 3, 3, 96]
0.06236582 0.3308545 0.010009417 -0.038980503 0.07951626 0.09584615 5.2808202e-05 0.063411355
0.10817696 0.057292018 -0.51803535 0.11779514 -0.2195385 0.05297601 -0.63199025 0.055452183
0.09743214 0.101020046 -0.11309574 -0.10671603 -0.08345985 0.117167026 -0.040766694 -0.11986098
-0.0047359653 -0.03557498 -0.67845887 -0.20640111 0.11975467 0.033577934 -0.29034114 0.24060234
0.114693664 -0.84667736 0.28384668 -0.0494887 0.8402126 0.0643715 0.25410005 -0.11124565
0.29637897 0.31706795 -0.16290237 -0.36414692 0.08719726 -0.059937812 -0.22359627 -0.70466083
-0.062192384 0.68334633 -0.13075873 -0.39217192 -0.12129835 -0.28794026 -0.046701558 0.14427838
0.07030869 -0.33390033 0.64027005 -0.33976045 -0.05366409 -0.53949773 -0.25943792 -0.46042266
0.04590957 0.1535111 0.101928815 0.95220417 1.2631415 0.39183453 -0.012108911 0.18847562
-0.08453468 0.46741396 -0.46592343 -0.14552645 -0.29643178 -0.29111123 -0.6859755 -0.5786221
-0.4213348 0.18189843 0.13338591 -0.12358067 -0.6660566 -0.41862583 -0.5525101 -0.15015967
0.2293188 -0.9337155 -0.773684 -0.6669441 -0.15509817 -0.90540123 -0.14408657 0.29576102
0.19021301 0.27463317 0.2567369 -0.31063667 0.6918256 0.17098878 0.20863417 -0.32265314
-0.09515831 -0.27844954 -0.7672529 0.0011800601 -0.17266154 0.71983504 -0.7261963 -0.1969805
0.08060832 0.3681588 0.41820404 0.0038314715 0.5083174 -0.14804137 -0.009183351 -0.44543338
0.045380726 0.27907202 -0.644184 -0.09890009 -0.07122994 0.07451981 -0.39896977 0.30879593
0.19073378 -0.17129035 0.3084398 -0.13516511 0.63526255 -0.23056209 0.2837278 -0.27310696
0.3728062 0.016941004 0.11464553 -0.4050525 -0.1277778 0.29640877 0.6544384 -0.39865094
-0.018028457 0.6430063 -0.31241012 -0.5993494 -0.76595145 -0.21149339 -0.6495014 0.5145559
0.2972619 -0.66658205 0.9417168 -0.7480182 0.21444774 -0.4121632 -1.2040431 -0.6017989
-0.29886007 0.18671723 0.03905082 0.168156 0.5203321 -0.012275757 0.42765385 0.40149125
-0.10902821 0.676743 -0.4434593 0.16344982 -0.24938333 -0.48199964 -0.48839954 -0.776601
-0.101962276 0.33188027 0.32263735 0.111243494 -0.5449279 -0.5918135 -0.5854064 -0.5847149
0.65550053 -0.92473716 -0.34224275 -1.3016056 -0.011646612 -0.9121542 -0.6554865 0.7446988
0.24019572 0.19291398 -0.03471628 0.09291939 0.7303082 0.069133006 0.16414584 -0.12276325
0.012336391 0.1591684 -0.22310829 -0.24119018 -0.0014885681 0.15449247 -0.5428614 -0.108473085
-0.1010916 0.011397309 0.08685507 0.004987961 0.023789965 0.03069074 -0.048171557 0.021462094
0.018880874 0.12678725 -0.42072955 -0.15520051 0.053946186 -0.47655165 -0.76490766 -0.11649472
-0.043417204 0.17673567 0.31792748 -0.08010735 0.43054107 0.010215636 0.18776768 -0.028248467
0.1608048 -0.047588482 -0.079845734 -1.0031623 0.08816802 0.45794204 0.4177325 -0.29441506
0.010967979 0.5958951 -0.21533573 0.09407259 -0.48821405 -0.10804721 -0.2318049 -0.49786025
0.26928636 -0.1602427 0.03252347 -0.025147116 0.14214359 -0.39936823 0.029537221 0.1984151
00000000: 4d73 7f3d c365 a93e 8afe 233c 05aa 1fbd
00000010: 6cd9 a23d fc4a c43d 607e 5d38 d0dd 813d
00000020: e28b dd3d 09ab 6a3d f79d 04bf 943e f13d
00000030: b3ce 60be 5ffd 583d 1dca 21bf d421 633d
00000040: 808a c73d 99e3 ce3d bd9e e7bd ef8d dabd
00000050: ffec aabd 44f5 ef3d fafa 26bd ac79 f5bd
00000060: 2830 9bbb 12b7 11bd 7baf 2dbf d05a 53be
00000070: f041 f53d 0489 093d 98a7 94be 7660 763e
00000080: 83e4 ea3d d9bf 58bf 5a54 913e aab4 4abd
00000090: 2c18 573f 34d5 833d 6719 823e c2d4 e3bd
000000a0: fcbe 973e bb56 a23e e1cf 26be 7771 babe
000000b0: 7a94 b23d 5a81 75bd 6cf6 64be a764 34bf
000000c0: 71bd 7ebd c9ef 2e3f 9ee5 05be c2ca c8be
000000d0: 456b f8bd e86c 93be 224a 3fbd b6bd 133e
000000e0: 01fe 8f3d fcf4 aabe bde8 233f 15f5 adbe
000000f0: e0ce 5bbd 861c 0abf 0cd5 84be 85bc ebbe
00000100: ac0b 3c3d 0432 1d3e 0ec0 d03d a7c3 733f
00000110: 9fae a13f 899e c83e 7464 46bc c1ff 403e
00000120: 8520 adbd e250 ef3e 848d eebe e304 15be
00000130: e8c5 97be 880c 95be 179c 2fbf 9420 14bf
00000140: 32b9 d7be 9543 3a3e 5196 083e dd17 fdbd
00000150: af82 2abf 2056 d6be 4d71 0dbf 75c3 19be
00000160: 8cd2 6a3e fb07 6fbf 2810 46bf d9bc 2abf
00000170: 0ed2 1ebe 60c8 67bf 6e8b 13be fd6d 973e
00000180: 33c7 423e b89c 8c3e 0573 833e c50b 9fbe
00000190: 7c1b 313f af17 2f3e 32a4 553e cb32 a5be
000001a0: 5ce2 c2bd f090 8ebe b06a 44bf 3fac 9a3a
000001b0: 30ce 30be 1c47 383f 00e8 39bf 42b5 49be
000001c0: fa15 a53d 4f7f bc3e d71e d63e 6d19 7b3b
000001d0: 1721 023f 2898 17be c475 16bc d80f e4be
000001e0: 24e1 393d 87e2 8e3e 3ee9 24bf 218c cabd
000001f0: 01e1 91bd d89d 983d c445 ccbe 801a 9e3e
00000200: b74f 433e bd66 2fbe d2eb 9d3e b968 0abe
00000210: 91a0 223f 7818 6cbe c544 913e add4 8bbe
00000220: 74e0 be3e dcc7 8a3c 47cb ea3d 0b63 cfbe
00000230: 2fd8 02be e4c2 973e 4689 273f fa1b ccbe
00000240: 6ab0 93bc 109c 243f 38f4 9fbe f66e 19bf
00000250: 6515 44bf b991 58be b945 26bf efb9 033f
00000260: b632 983e 1fa5 2abf 5a14 713f 1f7e 3fbf
00000270: 3098 5b3e 0e07 d3be 161e 9abf 7e0f 1abf
00000280: 3004 99be cd32 3f3e c1f3 1f3d 1631 2c3e
00000290: 7c34 053f 4220 49bc 72f5 da3e 4390 cd3e
000002a0: 2f4a dfbd 073f 2d3f 190d e3be 645f 273e
000002b0: 585e 7fbe a8c8 f6be 810f fabe 53cf 46bf
000002c0: 99d1 d0bd 36ec a93e b930 a53e a1d3 e33d
000002d0: 6580 0bbf 1781 17bf 32dd 15bf e0af 15bf
000002e0: e2ce 273f 93bb 6cbf 713a afbe 039b a6bf
000002f0: 6ed1 3ebc f082 69bf f7cd 27bf 95a4 3e3f
00000300: def5 753e 3e8b 453e a832 0ebd 854c be3d
00000310: 7af5 3a3f 9b95 8d3d d915 283e 4c6b fbbd
00000320: 931e 4a3c 0bfd 223e 8076 64be 8ffa 76be
00000330: 0f1c c3ba 4633 1e3e f7f8 0abf 2327 debd
00000340: 1d09 cfbd c7bb 3a3c 12e1 b13d 0d72 a33b
00000350: 2ce3 c23c 266b fb3c 8a4f 45bd 46d1 af3c
00000360: 10ac 9a3c 84d4 013e dd69 d7be e2ec 1ebe
00000370: adf6 5c3d 94fe f3be fdd0 43bf c994 eebd
00000380: 3dd6 31bd 32fa 343e 64c7 a23e 530f a4bd
00000390: e16f dc3e 7c5f 273c 2c46 403e 5469 e7bc
000003a0: 03aa 243e 24ec 42bd 2986 a3bd 9f67 80bf
000003b0: 6f91 b43d 6177 ea3e 09e1 d53e 92bd 96be
000003c0: 0ab3 333c 958c 183f f880 5cbe 21a9 c03d
000003d0: 31f7 f9be db47 ddbd 445e 6dbe 8ae7 febe
000003e0: e7df 893e aa16 24be 5537 053d 5301 cebc
000003f0: 178e 113e fe79 ccbe 0bf8 f13c 542d 4b3e
