Utilities/weights/DCONV_8.npy (npy, 2144 bytes, 1 tensors)

array f4 [1, 3, 3, 56]
0.16224717 -0.30793628 -0.14817102 0.3763042 -0.22635818 0.5047541 0.08246403 0.4386645
-0.09707436 -0.5615212 0.6683325 -0.590196 -0.13893597 -0.04061502 0.15405777 -0.4185345
-0.22322024 -0.88273793 0.58145475 0.38539207 -0.19814898 -0.87839276 -0.07625238 -0.22123228
0.05080226 -0.36556178 1.3692333 -0.33644134 -0.05924425 0.54937357 0.7265603 0.18283452
0.85286903 -0.5957287 0.38965267 1.3803145 -0.6489585 0.42428622 0.50232697 1.0476592
-0.1207816 0.35535774 0.06384064 0.05852833 -0.38824072 0.8888501 0.14821371 0.40592158
-0.72879285 0.6907072 -0.58955294 1.0611361 0.79854965 0.8473841 0.7396668 0.8141304
-0.28248826 0.13538493 0.13972504 0.10357311 -0.051176585 -0.22028267 -0.46684286 0.5721727
-0.16695185 -0.080475375 0.4539903 0.21695447 -0.57616377 0.23948634 -0.03201413 -0.3345149
-0.7628492 -0.30155194 0.96651816 0.28937504 -0.12165198 -0.67537546 0.03272178 -0.32469288
-0.3656955 -0.615666 0.59507483 0.029684627 -0.45144597 0.2930816 0.49454013 -0.9547398
1.0878778 -0.6285924 0.13031906 0.19461456 -0.3371573 0.45547205 0.72455233 0.6103904
0.5008928 0.80166173 -0.5787511 0.13462242 0.42410657 0.2448103 0.35794556 0.80152696
-1.5401267 0.7911996 0.05709692 0.48675853 -0.4791502 -0.049483858 0.8366178 -0.3346664
-0.504157 0.9173053 0.2714806 0.50953877 0.044522863 -0.4763116 -0.03630184 0.18115066
0.008546064 -0.15905721 0.012917128 0.0913355 -0.19959442 0.056209218 -0.4004938 -0.16701011
0.28200108 0.30938035 0.73829126 0.09055648 0.20633307 -0.5444273 -0.00051384483 0.061611287
0.09282154 -0.4570498 -0.01334013 0.29612756 0.25084755 -0.3658149 0.10640192 -0.309481
-0.19920014 -0.7421244 -0.34916526 -0.19063942 -0.16541745 0.45631307 0.57349396 0.1223806
1.116689 0.17404145 -0.50247884 -0.14903638 -0.45008707 -0.27952433 -0.16057575 0.4031929
-0.113836214 1.0773494 -0.49204725 -0.15796144 -1.6870971 -1.0543554 -0.3592314 -0.21400745
0.15729131 -0.30733898 -0.11588607 0.8544259 -0.25375453 0.54089844 -0.26140317 0.26868543
-0.31777936 -0.070838846 0.61563534 -0.25570914 -0.9291791 0.17719074 -0.4744264 -0.5143605
0.14991009 -0.59530467 -0.26873094 -0.35458404 0.08798882 0.095448755 0.392752 0.04902044
0.76974887 -0.043831155 0.6070293 0.080017924 -0.614028 0.45548844 0.2823119 0.038448717
0.10905418 -0.61766917 0.2570227 0.29638898 0.13663915 0.31960392 0.32670733 0.45256397
-0.33479142 0.82430893 -0.4410879 -0.56053984 -0.022145994 0.14753519 0.40209702 -0.078292735
-0.379781 0.80097336 -0.45793405 -0.3426557 0.23703335 0.45634636 -1.6920955 1.4915442
0.9918813 -0.30078503 1.0170053 -0.16442324 -0.52460915 -0.29518837 -0.94490683 -0.64434546
-0.77035254 -0.79434717 0.39458987 0.7101834 -0.766222 1.2089058 0.9518153 -1.0690844
-0.8434447 -0.210523 0.614609 0.59071046 -1.1730496 -0.42490923 0.45932627 -0.13204247
-0.1862104 0.20525424 -0.23109263 0.33867297 -0.68797714 -0.34277245 -0.463487 -0.63070774
00000000: 1f24 263e d3a9 9dbe 25ba 17be f2aa c03e
00000010: 70ca 67be 9137 013f e7e2 a83d a298 e03e
00000020: ecce c6bd dabf 0fbf d717 2b3f 1617 17bf
00000030: 3b45 0ebe ef5b 26bd 52c1 1d3e 274a d6be
00000040: d993 64be 1dfb 61bf 38da 143f 1c52 c53e
00000050: 91e7 4abe 59de 60bf 352a 9cbd b78a 62be
00000060: 0816 503d ea2a bbbe 0943 af3f 0a42 acbe
00000070: 19aa 72bd bfa3 0c3f dbff 393f f938 3b3e
00000080: a055 5a3f ad81 18bf 8e80 c73e 25ae b03f
00000090: 2522 26bf 0b3c d93e 8098 003f b219 863f
000000a0: 585c f7bd 73f1 b53e e2be 823d 67bb 6f3d
000000b0: 7dc7 c6be ae8b 633f 56c5 173e f4d4 cf3e
000000c0: 2b92 3abf 30d2 303f f1ec 16bf 4fd3 873f
000000d0: c06d 4c3f 2aee 583f ce5a 3d3f da6a 503f
000000e0: 4da2 90be 59a2 0a3e 1514 0f3e 241e d43d
000000f0: 8a9e 51bd c891 61be 0706 efbe e979 123f
00000100: 6df5 2abe 46d0 a4bd 6b71 e83e 5029 5e3e
00000110: 787f 13bf e83b 753e 4021 03bd 8945 abbe
00000120: 164a 43bf 0465 9abe bc6d 773f f728 943e
00000130: ac24 f9bd 68e5 2cbf 4607 063d 253e a6be
00000140: 713c bbbe 499c 1dbf d356 183f 2d2d f33c
00000150: ed23 e7be cb0e 963e 5d34 fd3e d469 74bf
00000160: 943f 8b3f 6eeb 20bf 5c72 053e 0a49 473e
00000170: e29f acbe a233 e93e 437c 393f 8c42 1c3f
00000180: 833a 003f b439 4d3f 0829 14bf 76da 093e
00000190: 7f24 d93e 8daf 7a3e a444 b73e df30 4d3f
000001a0: df22 c5bf 0f8c 4a3f 76de 693d 6a38 f93e
000001b0: 2d53 f5be 96af 4abd 962c 563f 6559 abbe
000001c0: 6f10 01bf 85d4 6a3f 81ff 8a3e 2271 023f
000001d0: 9b5d 363d 1ddf f3be 3db1 14bd 8f7f 393e
000001e0: ca04 0c3c e5df 22be 5da2 533c 1b0e bb3d
000001f0: 7b62 4cbe a33b 663d 860d cdbe b304 2bbe
00000200: 7262 903e 1a67 9e3e a800 3d3f ad75 b93d
00000210: fa48 533e 965f 0bbf 8bb3 06ba 1e5c 7c3d
00000220: 3819 be3d 6e02 eabe 9090 5abc 089e 973e
00000230: 176f 803e 174c bbbe 40e9 d93d 4b74 9ebe
00000240: 1ffb 4bbe ddfb 3dbf cac5 b2be fb36 43be
00000250: 3163 29be dea1 e93e 80d0 123f aea2 fa3d
00000260: aaef 8e3f ec37 323e 74a2 00bf fe9c 18be
00000270: d071 e6be d01d 8fbe f86d 24be 4d6f ce3e
00000280: f622 e9bd 96e6 893f 9eed fbbe a5c0 21be
00000290: ccf2 d7bf 1ef5 86bf 2eed b7be c524 5bbe
000002a0: f910 213e 895b 9dbe ad55 edbd a8bb 5a3f
000002b0: 1dec 81be 5278 0a3f a3d6 85be 2391 893e
000002c0: fab3 a2be f513 91bd 479a 1d3f 4fec 82be
000002d0: aede 6dbf 7d71 353e 04e8 f2be 21ad 03bf
000002e0: 0882 193e e365 18bf 1a97 89be 0a8c b5be
000002f0: 7c33 b43d a37a c33d ca16 c93e a8c9 483d
00000300: 430e 453f 4c88 33bd 4666 1b3f 70e0 a33d
00000310: f030 1dbf c835 e93e 2f8b 903e 677c 1d3d
00000320: cc57 df3d 911f 1ebf 7b98 833e 4cc0 973e
00000330: 22eb 0b3e 20a3 a33e 2f46 a73e 77b6 e73e
00000340: c869 abbe e905 533f 46d6 e1be 8a7f 0fbf
00000350: 846b b5bc 7713 173e a9df cd3e f157 a0bd
00000360: a872 c2be 970c 4d3f 5576 eabe 9170 afbe
00000370: dfb8 723e 3ba6 e93e 9696 d8bf ecea be3f
00000380: efeb 7d3f 7f00 9abe 3b2d 823f 915e 28be
00000390: c94c 06bf ee22 97be 6ae5 71bf d3f3 24bf
000003a0: d335 45bf 565a 4bbf af07 ca3e 94ce 353f
000003b0: 2027 44bf 6dbd 9a3f 2baa 733f c2d7 88bf
000003c0: feeb 57bf 5793 57be 0457 1d3f cd38 173f
000003d0: 7d26 96bf b48d d9be d02c eb3e 2436 07be
000003e0: f0ad 3ebe 2b2e 523e 8ca3 6cbe 8b66 ad3e
000003f0: 451f 30bf df7f afbe 2b4e edbe 1076 21bf
