Utilities/weights/DCONV_1.npy (npy, 992 bytes, 1 tensors)

array f4 [1, 3, 3, 24]
00000000: d799 c83d 6b8f 073e 6a54 643e bb17 b73d
00000010: d770 c0bd 6f86 11be b4ee a3be c720 53bd
00000020: 4cbd 2e3d a30d 45bd 5134 e0bd 1de5 e9bc
00000030: 212b a03d a8ac 9e3d 5f50 16bd b113 4cbd
00000040: cf31 3c3d 6c5b 113f daa7 d7bc 535c bf3e
00000050: 6db9 0cbf 186b c33d 4908 12bf 35b0 b43e
00000060: dedb e6bd 9af4 413b f9cb 6ebd 421a d13e
00000070: 1037 9f3e 05bd 593e 4197 67be 11c1 aebe
00000080: bbcd 97bf 0078 4c3e e60a 0ebf 89d2 663f
00000090: 083a c33e 8a28 85bf d3e5 693d 12e2 90be
000000a0: c80c b13d cca7 7b3f 3341 cfbd 189b 06be
000000b0: b439 c0be 3eb4 763d 7345 dcbe 3dc7 4a3f
000000c0: d425 f83d 8375 bd3b 6cf8 003e 2a5d 59bd
000000d0: a396 923d ae86 98be f13f 45be 6298 6dbd
000000e0: 8a96 7e3e 569b c03e 2cdc 92be 489e 61be
000000f0: 7253 85bd 6d42 aa3e 985d 76bb 8306 aebc
00000100: 9cb1 1a3c 6e65 0d3f dedc 0e3d 36bb dc3d
00000110: 0ed2 a33e 0cd4 8e3d aa48 0ebe 2284 a43e
00000120: 1e84 89be 822b e13d 0d5d 48bd dee7 b63e
00000130: eb02 753e 4981 823f e8fb 1abf 8296 2dbd
00000140: eb03 1d3e ed99 ae3e 3650 08be 15b2 30be
00000150: 7c59 c73d 42d3 1e3e 4898 293e 08a4 213d
00000160: ab95 ce3d 004c f63c 9db3 2cbe b18b e33e
00000170: cc27 6abd 355e 6fbe bad1 f3be 213f 3fbe
00000180: 863f 5dbf 57dd 9a3e b921 76bf 95fa a3bf
00000190: 2b1c e1bf 59e4 c03e 1ec8 28bf d5e7 9dbf
000001a0: a983 2ebf 172e 3d3f 41a5 873e 7b9d ac3f
000001b0: a3b7 6a3f 4972 dcbe f947 1c3e ed4f 8cbf
000001c0: c89b 80bf a129 8b3f f1e4 91bf c915 5bbf
000001d0: 2180 5ebf 7729 8fbe 6a97 96be d38a 1b3f
000001e0: 7ca3 da3e 0092 a13d a9d5 90be d580 26bc
000001f0: e9f1 58be 4295 49be c6d1 07be 7266 ea3e
00000200: c7df 6d3e 0160 263e 4f14 d4be 82ec 133f
00000210: db70 febe e88d 443f 0f1f 9e3b 79a8 2f3e
00000220: a386 c7bb e70c 733f cc07 3f3e 5519 03bf
00000230: d2ce 303f 0acd 383e bcf6 ca3e eb4b 483f
00000240: 0d6b 78bd 8e79 a8bd a689 c23d c537 6bbe
00000250: 59a0 233d 7813 3d3e 7f40 b93d a608 db3d
00000260: d8b4 df3c d42e ae3c 8682 a23e 953c a1be
00000270: fd35 10bf 633b afbb 2228 3e3f 103d b6bb
00000280: 4e63 50be 27a7 303e 71ce 983d c575 c13d
00000290: 5bce bb3e 1295 693c c072 3f3e 3b17 06bf
000002a0: 83ee 14be c301 babf 2646 793d 5439 193f
000002b0: f7b3 7bbd 8069 873e ebad 0cbc 3a5b 6e3e
000002c0: 27ff 993e 9367 a6be 8552 5a3f 84d9 c1be
000002d0: a245 01bf 51fa a73e a530 f7bf 2173 103d
000002e0: f0b3 a23f 39b7 4f3e 1085 223f dbbb 773e
000002f0: bc19 283f 4ed6 03c0 bb52 6f3f 3fb8 dabe
00000300: b97f 25be dd76 ee3e 8a06 cfbc 9aa9 a6be
00000310: 692f 95bd 3ac0 673e ab71 863d 9e1f 2dbb
00000320: 2d69 953d b35f 7abe 41c0 77bd f638 bfbe
00000330: 1113 9dbd 5b03 47be fc19 9b3e b217 edbc
00000340: 5140 21be 56fd 493e 6396 ff3e 75d6 98be
00000350: 69f1 bb3c fc74 12bf ba88 f13e e32b 98bd
0.097949676 0.13238303 0.22297826 0.08940073 -0.093965225 -0.14211439 -0.32018054 -0.05154493
0.042660996 -0.048108708 -0.109474786 -0.028551633 0.07820726 0.07747775 -0.03669774 -0.049823467
0.04594594 0.56780124 -0.026325155 0.37375125 -0.5497044 0.09541911 -0.5704389 0.35290685
-0.11272405 0.0029595257 -0.058299992 0.40840346 0.31096697 0.21263511 -0.22616293 -0.34131673
-1.1859659 0.19967651 -0.5548538 0.90165 0.38130212 -1.0402997 0.057103943 -0.28297478
0.08645016 0.9830291 -0.10119858 -0.13145101 -0.37544024 0.060230486 -0.43021736 0.79210263
0.1211659 0.0057818308 0.12594765 -0.053067364 0.07157638 -0.29790252 -0.19262673 -0.05800665
0.24862114 0.37618512 -0.28683603 -0.22033036 -0.065100566 0.33253804 -0.0037592407 -0.02124334
0.009441759 0.55232894 0.034878604 0.10777895 0.31996197 0.069740385 -0.13894907 0.3213206
-0.2685861 0.109946266 -0.048916865 0.35723776 0.23926894 1.0195705 -0.6054063 -0.042379864
0.15333526 0.3410181 -0.13311848 -0.17255433 0.09733865 0.15510276 0.16561997 0.039463073
0.10087141 0.030065536 -0.16865392 0.44442514 -0.05716686 -0.23375781 -0.47620946 -0.18676426
-0.86425054 0.30246994 -0.96145207 -1.2810847 -1.7586721 0.37674215 -0.65930355 -1.2336375
-0.6816965 0.7389845 0.26493266 1.3485559 0.9168646 -0.43055943 0.1526183 -1.0961891
-1.0047541 1.0872079 -1.1397992 -0.85580117 -0.8691426 -0.27961323 -0.29412395 0.60758704
0.42702854 0.078891754 -0.2828801 -0.010162552 -0.21186031 -0.19685844 -0.13263616 0.45781285
0.23229896 0.1624756 -0.41421744 0.5778276 -0.49695477 0.7677903 0.00482548 0.17154111
-0.006089048 0.9494156 0.18655318 -0.5121053 0.6906558 0.18046966 0.39641368 0.7824084
-0.060648967 -0.0822631 0.094989106 -0.22970493 0.03994784 0.18464458 0.09045505 0.10695009
0.027307913 0.021262564 0.31740206 -0.31491533 -0.5633238 -0.0053476556 0.7427999 -0.0055614784
-0.20350382 0.17251264 0.074612506 0.09446291 0.36680874 0.014256733 0.18696117 -0.52379197
-0.1454411 -1.4531788 0.060857914 0.598531 -0.061450925 0.26447678 -0.008586387 0.23276988
0.30077478 -0.32500896 0.85282165 -0.37861264 -0.50496876 0.32808164 -1.931172 0.035266045
1.2711163 0.20284738 0.6348429 0.24192755 0.6566427 -2.0599551 0.9348561 -0.42718694
-0.16162004 0.4657506 -0.025271673 -0.3255127 -0.072844334 0.22631922 0.06564649 -0.002641655
0.07295451 -0.24450569 -0.060486082 -0.37348145 -0.07669652 -0.19434874 0.30293262 -0.028941963
-0.15747191 0.19725546 0.49919423 -0.29851118 0.022942262 -0.57209754 0.47174627 -0.07430246
