Utilities/weights/DCONV_10.npy (npy, 2720 bytes, 1 tensors)

array f4 [1, 3, 3, 72]
0	0xbec7862e	-0.38969558
1	0x3edb6186	0.42847842
2	0x3ea0f79a	0.31438905
3	0x3e655bee	0.2239835
4	0xbc85ba39	-0.01632415
5	0xbe10e63d	-0.14150329
6	0x3ec06633	0.37577972
7	0x3ddd38d8	0.10801858
8	0x3ae63d9d	0.001756597
9	0xbe0127fe	-0.12612912
10	0xbdd4a846	-0.10383658
11	0x3ec699d8	0.38789248
12	0xbe30ff93	-0.17284994
13	0x3d2d4755	0.042304356
14	0x3f207862	0.6268369
15	0xbdbe9472	-0.093056574
16	0xbe25220f	-0.16126274
17	0xbde61cd1	-0.11235965
18	0x3e38e490	0.1805594
19	0x3f0a9071	0.5412665
20	0xbd838cc7	-0.064233355
21	0xbdf250d4	-0.11831823
22	0x3e1f8ab6	0.15580258
23	0xbede4d0c	-0.43418157
24	0x3e322f92	0.17400959
25	0x3c955645	0.018229613
26	0x3de49a4b	0.111622415
27	0xbf680770	-0.9063635
28	0x3e7ae192	0.24500111
29	0xbf88b9d7	-1.0681714
30	0xbebbb998	-0.36665034
31	0x3dec064e	0.1152464
32	0x3dbacee3	0.09121492
33	0xbe603ed6	-0.2189897
34	0x3f6d09ad	0.9259289
35	0xbf18b2f1	-0.5964804
36	0xbf17a692	-0.5923854
37	0xbfa7151e	-1.305332
38	0xbe1ff2d8	-0.15619981
39	0xbd4324eb	-0.04764263
40	0xbe5909e2	-0.21195176
41	0x3ed71823	0.42010602
42	0xbeeba95b	-0.46027645
43	0x3e89f5f6	0.26945466
44	0xbd2e199f	-0.042504903
45	0x3f810f4f	1.0082797
46	0x3d6cdb1f	0.057826158
47	0x3c534c61	0.012896628
48	0x3edaa6bb	0.4270533
49	0x3e984bdb	0.29745373
50	0x3f95b382	1.1695406
51	0x3f8d1eac	1.1024985
52	0x3d00ed94	0.031476572
53	0x3d9c8c91	0.076439984
54	0xbf0b9075	-0.545173
55	0xbdfc985d	-0.123337485
56	0x3f03947f	0.5139846
57	0x3c918aeb	0.017766437
58	0x3de61cb1	0.11235941
59	0xbee8e72e	-0.45488876
60	0x3f191ea5	0.59812385
61	0xbea2087d	-0.316471
62	0x3f1a03d9	0.6016212
63	0x3d560ce7	0.0522584
64	0x3d0c98b6	0.034325324
65	0x3fbae1d9	1.4600173
66	0x3fa90b5e	1.3206594
67	0x3f51b36b	0.81914395
68	0xbecbcd55	-0.39805093
69	0x3fb8dbd9	1.4442092
70	0x3f940597	1.1564206
71	0x3fe26b91	1.7689077
72	0xbe5d9b27	-0.21641217
73	0x3f0b571d	0.544298
74	0xbed2c81d	-0.411683
75	0xbe4bd1ef	-0.19904302
76	0xbf7c64bb	-0.985912
77	0xbd822b72	-0.06355943
78	0xbf6969b3	-0.9117691
79	0x3f03d50f	0.51496977
80	0x3e7f18cd	0.24911804
81	0xbf00ce45	-0.5031474
82	0xbdee101c	-0.11624166
83	0x3f3743cb	0.7158782
84	0xbeb7f482	-0.35928732
85	0xbd240019	-0.040039156
86	0xbd0ab9a5	-0.03386845
87	0xbe4c4596	-0.1994842
88	0xbee62bd0	-0.449553
89	0x3e70e3b7	0.23524366
90	0xbd260261	-0.040529612
91	0xbd406741	-0.04697347
92	0xbe6d389f	-0.2316613
93	0xbe1c5b12	-0.15269116
94	0x3e7104f5	0.23537047
95	0x3be7577e	0.0070599904
96	0x3f76f79f	0.9647159
97	0x3eaaca5d	0.33357516
98	0x3ec8b579	0.39200953
99	0xbf5c2ded	-0.8600758
100	0x3e21f8b9	0.15817536
101	0xbf61c71b	-0.88194436
102	0xbf0ac4f7	-0.54206795
103	0xbe11d0c0	-0.14239788
104	0x3eb73df7	0.35789463
105	0x3e29d8b0	0.16586566
106	0x3f17dfe4	0.59326005
107	0xbee09bd5	-0.4386889
108	0xbf1c072e	-0.60948455
109	0xbf72e723	-0.94883937
110	0xbc39fd89	-0.011351951
111	0x3e8b1076	0.27160996
112	0x3e048994	0.12943107
113	0x3eb0ea57	0.34553787
114	0xbec268ea	-0.37970668
115	0x3eab1d57	0.33420822
116	0xbd960f14	-0.07327095
117	0x3f996d80	1.1986542
118	0xbf4e9ce0	-0.8070812
119	0x3eb04110	0.3442464
120	0x3f54417c	0.8291242
121	0x3dc688b4	0.09694043
122	0x3fa7c259	1.3106185
123	0x3fa42a0a	1.2825329
124	0xbddde3f1	-0.10834492
125	0x3e73acd1	0.23796393
126	0xbf988568	-1.1915712
127	0xbe71eb0e	-0.23624822
128	0x3f8422d1	1.0323125
129	0xbf50caf0	-0.8155966
130	0xbda0e29a	-0.07855721
131	0xbedc0f11	-0.42980245
132	0x3e565c4d	0.20933647
133	0xbe6db9c3	-0.23215394
134	0xbe389497	-0.18025433
135	0x3e98d6b3	0.29851303
136	0xbf8773f4	-1.0582261
137	0x3fa45531	1.2838498
138	0xbe13f66c	-0.14449471
139	0x3f119618	0.5686965
140	0xbf4beeca	-0.7966124
141	0x3f1d00d8	0.6132941
142	0x3f927dbc	1.1444621
143	0x3fabcd5c	1.3422046
144	0xbe8a4f8f	-0.27013823
145	0x3d867727	0.06565695
146	0xbd3abcb8	-0.045590132
147	0xbd93eff6	-0.07223503
148	0xbf7f6013	-0.9975597
149	0xbeac11f4	-0.33607447
150	0xbee06512	-0.4382711
151	0x3e2a626e	0.1663911
152	0xbda05cf5	-0.0783023
153	0xbdd02ca2	-0.10164763
154	0xbedff350	-0.4374032
155	0x3efdde93	0.49583873
156	0xbe2022d8	-0.15638292
157	0xbe395e7a	-0.18102446
158	0x3e16288e	0.14663908
159	0xbee5a41b	-0.44851765
160	0xbef374db	-0.4755009
161	0x3e4d19be	0.20029351
162	0xbe2ae174	-0.16687566
163	0xbed8036d	-0.42190114
164	0xbecb72f6	-0.39736146
165	0x3e8088d1	0.25104383
166	0x3e4bd557	0.19905601
167	0x3e059e73	0.13048725
168	0x3e492d24	0.19646126
169	0x3e9761a7	0.2956669
170	0x3f7047f3	0.93859786
171	0xbed2525c	-0.4107846
172	0x3e2b75fc	0.16744226
173	0xbf38c6fa	-0.72178614
174	0xbf1698d4	-0.5882695
175	0xbe612694	-0.21987373
176	0x3e937e01	0.2880707
177	0x3eb7ae8b	0.35875353
178	0x3f4b7ceb	0.79487485
179	0xbd89d7d0	-0.06730616
180	0xbd50fd24	-0.051022664
181	0xbd5aedc7	-0.05344942
182	0xbf2bb039	-0.6706577
183	0x3d7b0820	0.061287045
184	0x3eee8286	0.46583956
185	0x3da31a81	0.079640396
186	0xbdacb29a	-0.08432503
187	0x3f6f95b7	0.9358782
188	0xbe49daaa	-0.1971232
189	0xbdd3a07a	-0.10333343
190	0xbf427af4	-0.7596886
191	0x3e8d5d9b	0.27610478
192	0x3e086114	0.13318282
193	0x3d1f5651	0.038900677
194	0x3eba5ee3	0.36400518
195	0x3f1fc637	0.62411827
196	0xbfad3532	-1.3531859
197	0x3e967769	0.29387978
198	0xbeecd60c	-0.46257055
199	0xbf031113	-0.5119793
200	0x3fa661c1	1.2998582
201	0xbedbf375	-0.4295918
202	0xbe5f4883	-0.21805005
203	0xbd19e81d	-0.037574876
204	0xbf293d9d	-0.6610964
205	0xbd90ba5b	-0.070667945
206	0x3e634d01	0.22197343
207	0x3cc384ef	0.023867099
208	0xbf2c7226	-0.67361677
209	0xbe7bfbf9	-0.24607839
210	0xbf92ef2d	-1.1479241
211	0xbf598668	-0.8497071
212	0xbf52bb81	-0.8231736
213	0x3f9bd96e	1.2175729
214	0xbea4f4ca	-0.3221801
215	0xbe308bcc	-0.17240828
216	0xbe8b6520	-0.2722559
217	0x3e079920	0.13242006
218	0x3edb8bb6	0.42880028
219	0x3f92bb74	1.1463456
220	0xbd09bf85	-0.033629913
221	0x3b6a9ca1	0.0035798925
222	0xbd9e22ac	-0.07721457
223	0xbf190f2c	-0.59788775
224	0xbf19f159	-0.6013389
225	0xbe95af09	-0.29235104
226	0xbd3d4b84	-0.046214595
227	0x3ca70398	0.020387456
228	0xbf18bbf7	-0.5966181
229	0x3dce1bbf	0.10063886
230	0x3eac48fe	0.3364944
231	0xbda35246	-0.07974677
232	0xbb4e9ad5	-0.0031525393
233	0xbe2e5240	-0.17023563
234	0xbe0177d2	-0.12643364
235	0x3ef07955	0.4696757
236	0xbe33cc38	-0.17558372
237	0x3ed1a078	0.4094274
238	0x3e5f68d1	0.21817328
239	0xbe2e15e2	-0.17000535
240	0xb8c32a3f	-9.3061935e-05
241	0x3ea7cd0a	0.3277362
242	0x3df6ad6c	0.12044796
243	0xbf567ddb	-0.8378579
244	0x3e5f9d3c	0.21837324
245	0xbe52ae27	-0.20574246
246	0x3e9eceeb	0.3101724
247	0x3e2bf58f	0.16792892
248	0x3d3ee4dc	0.046604976
249	0x3960506c	0.00021392264
250	0x3eb21fab	0.34789786
251	0xbf281d69	-0.65669876
252	0xbebfaae5	-0.3743507
253	0xbf542343	-0.82866305
254	0x3ec8abed	0.3919367
255	0x3d8ca610	0.068676114
