Utilities/weights/DCONV_7.npy (npy, 1856 bytes, 1 tensors)

array f4 [1, 3, 3, 48]
00000000: 1521 0ebf 648b ae3e e9b6 bdbd 5c0c 63be
00000010: 8622 68be 8762 88be 0f52 0e3f 3f88 863a
00000020: 862c 55bb 8812 e0be dcfc b13d 2010 173f
00000030: 04f1 883e 00bd 133f b07f bdbe 665c 5c3e
00000040: f92b 34be 9fd7 02be f0fa 763d 3aaa 07be
00000050: 63bb 293f be26 0e3f 2d4c 943e b1bb 883e
00000060: 025b cabd 630f 963c 48b4 2d3e 19f0 bbbe
00000070: f4e7 283f 6436 353f eff7 7bbe e9db 87bf
00000080: 001d 46bf f052 763e 2d9c a7be cbfe 00be
00000090: fbe7 54bf ca0d 1bbf 610e 06bf ac69 38be
000000a0: d179 9b3e 36d0 8bbd 8bd4 3bbf 528e 5b3f
000000b0: a667 bfbe d938 41bf 93f5 f93e 6a2e 823f
000000c0: 9857 5d3e 6e0f 5ebd 4d3b 80be 2589 88bf
000000d0: 6990 80be d054 88bd 14c7 903e bfaf 10bd
000000e0: 89e8 0ebf 2d59 f4bd ffcc 90bd 4f5c a33f
000000f0: ecb0 0bbe 758c 463e 8b85 aabe 4fa5 473e
00000100: 7c6a a93e f00c 8b3f 8815 41be 8911 10be
00000110: add9 813f 4c54 f43e 8eda 77bd 66eb 403f
00000120: 6667 a03d 632b 9ebd ada1 ae3e c919 1fbf
00000130: 1413 ffbd 7dc1 e5be fd22 13bf 173c 00bf
00000140: d63d 94bf 6b36 21bf c2d0 4fbf d3d6 483f
00000150: 7192 f8be 6d19 8cbe d946 87be 7dd3 083f
00000160: 0a55 113f f4cd bf3f 98ee 11bf 8551 29bf
00000170: 4e73 aabf 2cea a9bd ba27 aabe a0aa cb3e
00000180: e5ab 363f bfe2 f33e 497e 5abe 45b4 e1be
00000190: 9811 063f 1ebc 70be 71af 163c ced5 1abf
000001a0: 0a80 5abe a193 5abd 566b 4a3e 230e 4c3e
000001b0: c0a3 02bf 29d7 74be 0d9a 4d3e 9399 eb3d
000001c0: 4d0d 003d 0671 873e f74e 3dbe 006c a4bd
000001d0: 4429 9c3e bf14 c63e dab1 72bd a89c 33be
000001e0: 4071 2c3e dbe4 b4bd 7892 413d aa25 75be
000001f0: dd99 ecbe 0c72 60bf 8081 a0bd 1335 c73c
00000200: 73ed 5f3c 215d 75be 3773 17be eb87 c5be
00000210: 0fec 5dbe 586f 7d3e 811a 01bf dd05 bd3e
00000220: d7a2 243e eba9 6f3f d46f 563f db3f 39bf
00000230: 7d73 3c3e efa5 64bf 079b e8bf 1bcd e43e
00000240: 61c5 89bd 5e3b 3c3e e547 92be 2ea2 dc3e
00000250: ada4 9d3c db91 3a3c 4ca5 f33e 5905 603e
00000260: 8c07 933e 3914 96be 3d2d bf3d 3190 bfbe
00000270: 11d9 e1bc 3cfc 69be ba29 dbbd 52ab f2bd
00000280: 7f54 6bbe 7c0a 00bf 30e2 5c3f 8b64 843e
00000290: fec3 ff3d 43b4 d2bd 175b 7e3f e4ef b2be
000002a0: b5b6 84bf 6922 6fbf 0289 d93e 6d89 1ebf
000002b0: 08e3 443f 3b25 5d3f 2055 03bf 0a11 cabe
000002c0: bb9d b23e d090 dabc 01ce 6bbd c66c ae3e
000002d0: 7552 fb3d 20bb 2fbf 120c ecbe 85cc 01bf
000002e0: 4b4d 6dbe b873 813d 9a08 d1bf 0e26 a43f
000002f0: 9a2f 8d3f 59d2 ef3e a6d3 173f d73a 1dbf
00000300: 11a3 36bf 3ce8 81bf f609 653d 94d3 15bf
00000310: ab0f dc3d 1ab1 7c3f d77d ebbe ae55 d9be
00000320: c68f 853f f67e 373f 41a3 7bbf 5da8 6bbc
00000330: 08b9 3bbe 1439 053f f7e1 423f 9304 98bf
00000340: 3232 d93d 6416 c2bd efcb 443f 755a aabe
00000350: d85a 883d 616b a93f 9f75 b2bd f7d0 4f3f
00000360: 89e3 3abe 7ad4 1abf cdc6 c13f 19fb 27bf
00000370: 0cca e6be d49c 1fbe d047 f2be 009d 093f
00000380: c825 4fbf 2dd7 963d 9af2 643f 7c7c 47bf
00000390: d848 e3be 605e 693e 28d7 d3be e99e be3e
000003a0: ea90 07bf f7a8 83be ee1d 2cbf ab1d 84bd
000003b0: e16a d13e 4238 ad3d 3b5a 113f bcf9 f53e
000003c0: f4e2 2d3e a3d5 183d 4e68 e4be e9a1 9ebe
000003d0: 1b0e 0f3e e68c 91be d388 84bd b198 6cbf
000003e0: 9b48 adbe 59fa 023f 1a4a bd3e 9f19 99bd
000003f0: cf5d 1bbf 854f 88be 7d9f bc3e c753 0bbe
-0.5551923 0.34090722 -0.09263403 -0.22172683 -0.2266942 -0.2663767 0.5559396 0.0010263993
-0.0032527759 -0.43764138 0.08690807 0.5900898 0.2674638 0.57710266 -0.3701148 0.21519622
-0.17594899 -0.12777565 0.060297906 -0.1324853 0.66301554 0.55527866 0.28964368 0.26705697
-0.098806396 0.018317884 0.16963303 -0.36706617 0.6597893 0.7078612 -0.24606298 -1.0613986
-0.77388 0.24055076 -0.3273634 -0.12597196 -0.83166474 -0.60567915 -0.5236569 -0.1800906
0.30366376 -0.068268225 -0.7337119 0.8576404 -0.37383765 -0.7547737 0.4882017 1.0170414
0.21615446 -0.054213934 -0.25045243 -1.0666853 -0.25110176 -0.06656802 0.28276885 -0.035323855
-0.5582357 -0.119310714 -0.0707035 1.2762545 -0.13641709 0.19389518 -0.3330501 0.19496654
0.33089054 1.0863323 -0.1885587 -0.14069189 1.0144554 0.47720563 -0.060511164 0.7535919
0.07832222 -0.07723119 0.34107724 -0.6214872 -0.12454811 -0.44874182 -0.5747526 -0.5009169
-1.1581371 -0.6297366 -0.81177914 0.78452796 -0.48549226 -0.27363148 -0.2642124 0.53447706
0.56770384 1.4984727 -0.5700469 -0.66140014 -1.3316438 -0.08296618 -0.33233434 0.39778614
0.7135604 0.4763393 -0.21337236 -0.44082847 0.52370596 -0.23509261 0.009197102 -0.6048249
-0.21337906 -0.053363446 0.19767508 0.19927268 -0.5103111 -0.23910202 0.20078297 0.11503901
0.031262685 0.26453418 -0.18487154 -0.08028412 0.30500233 0.38687703 -0.059251644 -0.17540228
0.16840076 -0.08832713 0.047258824 -0.23940149 -0.46211138 -0.8767402 -0.078372 0.0243173
0.013667452 -0.23961307 -0.14790045 -0.3858026 -0.2167208 0.24749506 -0.50431067 0.36918536
0.16077743 0.9361865 0.83764386 -0.7236306 0.1840343 -0.89315695 -1.817231 0.44687733
-0.067271 0.18382022 -0.28570476 0.43092483 0.019243563 0.011387314 0.4758705 0.2187704
0.28716695 -0.29312304 0.093348004 -0.37414697 -0.027569326 -0.22850126 -0.10701318 -0.11849083
-0.22981451 -0.50016 0.86282635 0.25857958 0.124885544 -0.102882884 0.9935774 -0.34948647
-1.0368258 -0.9341188 0.4248734 -0.61928445 0.7690892 0.86384934 -0.51301765 -0.39466125
0.34885964 -0.02668038 -0.057569508 0.34067363 0.12271587 -0.68644905 -0.4610296 -0.507027
-0.23174016 0.063209 -1.633075 1.2824113 1.1030152 0.4684017 0.59307325 -0.6141791
-0.7134257 -1.0148997 0.055917703 -0.5852597 0.10745176 0.98707736 -0.45994446 -0.4244818
1.0434501 0.716781 -0.9829598 -0.014383403 -0.18332303 0.5204022 0.76126045 -1.1876396
0.10605277 -0.09476927 0.7687368 -0.33272138 0.06657952 1.3235894 -0.08713841 0.8117823
-0.1825086 -0.60480464 1.5138794 -0.6561752 -0.45076025 -0.15587169 -0.47320414 0.5375519
-0.80917025 0.0736526 0.8943268 -0.77924323 -0.44391513 0.22789907 -0.4137509 0.37230614
-0.52955496 -0.25714847 -0.6723317 -0.06450971 0.40901855 0.08457996 0.56778306 0.48042095
0.16981107 0.037313115 -0.44610828 -0.30982903 0.13970225 -0.2842781 -0.0647141 -0.9242049
-0.33844456 0.5116325 0.36970598 -0.0747559 -0.60690016 -0.2662317 0.3684043 -0.13606177
