Utilities/weights/DCONV_12.npy (npy, 3296 bytes, 1 tensors)

array f4 [1, 3, 3, 88]
0.30634192 -0.5291823 0.5140961 0.22131024 0.48902687 -0.13606991 0.5454125 0.5774285
-0.25331035 -0.24511196 -0.28382087 0.794635 -0.113681376 0.11831664 0.081911474 0.1831147
-0.32011902 0.30674693 -0.4566679 -0.44422537 0.6563321 -0.30097744 0.32023245 0.43270192
0.1786231 0.10079597 -0.028129784 -0.111788146 0.42338622 0.29241177 -0.6282606 -0.5783137
0.42920318 0.35665822 -0.0942 -0.2630929 0.31311473 -0.30461848 0.74493873 -0.6093547
0.3252859 0.039121386 -0.42556027 0.1068847 1.0809445 0.07168361 -0.56125087 -0.16405891
-0.49323866 0.57368326 0.54883087 -1.091346 -0.01688972 0.3368635 0.73158574 -0.38732037
-0.63225734 0.75226426 0.6093608 0.9864317 -0.72107846 0.1680113 0.7108951 0.5864598
-0.6424308 0.5288352 0.3967612 -0.33972642 -0.18648884 -1.0074658 0.68365115 -0.3362738
-0.14608978 -0.5219126 0.19364499 -0.09914279 -0.23796374 -0.41253942 0.27166095 0.53045696
0.754993 0.11604102 -1.3186159 -0.6243012 -0.99949497 -0.5700022 -0.4661499 -1.2498556
0.11658369 -0.28516877 0.40861133 0.28786466 0.828975 -0.17234543 0.03980275 1.0465698
-0.55965346 -0.003077036 -0.026293157 0.345728 -0.35290915 -0.023516985 0.27107367 0.2664683
-0.52961695 0.6222131 -0.52866405 0.053503275 0.38233185 -0.25820446 0.09606076 0.3089749
0.14657882 -0.25278023 -0.22695823 0.14135973 0.0677703 -0.117672786 -0.3048597 -0.7641936
0.35662895 -0.24570672 -0.23279451 -0.3451927 -0.18061198 -0.26903313 0.8676194 -0.5352763
0.804895 -0.03815572 0.2144487 0.5302655 0.2612667 0.64794177 -0.95291054 0.15718101
-0.6731387 0.6430546 0.20637198 0.49393046 0.37299562 0.0068541076 0.4759766 -0.7324695
-0.58776027 0.4925862 0.669483 1.2933747 0.2156613 0.16726407 0.8495669 0.6757774
-0.7885224 0.6082244 -0.08996014 -0.3132963 0.3454609 -0.6483708 -0.9792253 -0.91686827
-0.1878375 -0.8267045 0.354155 0.5483499 0.3265103 -1.1196911 0.35612038 0.1760709
1.1166801 0.76531005 -0.89917547 0.19630538 -0.80232847 0.66922694 -0.7622376 -1.3374588
-0.15419225 0.022243312 0.20627318 0.6137498 0.33203942 -0.1764329 -0.42571068 0.7231862
-0.3298746 -0.3224961 0.19262446 -0.27969742 -0.43240753 -0.13021971 0.06174412 0.23891993
-0.46896067 0.5246465 -0.3988627 0.61549383 -0.37405846 -0.11420284 -0.22277787 -0.07819007
0.39824003 -0.5209556 -0.20375277 0.41453764 -0.30600694 -0.07121026 0.01948016 0.070627466
0.00874266 -0.3749734 -0.25245523 -0.3343294 -0.21678555 0.1986447 0.45769718 0.08761787
0.30292028 -0.044528108 0.7337302 0.4845075 -0.18167529 0.2941195 -0.61940944 0.14624879
-0.07156817 0.19174601 -0.5040124 1.0835469 0.19983532 -0.12241041 -0.11945158 -0.5198175
-0.020301312 -0.18026665 0.4671956 0.65148884 0.25314426 -0.04595171 0.3114698 0.2651424
-0.4403647 0.25185126 -1.1393819 -0.33306146 0.6206861 0.29734275 -1.716003 -0.5475527
-0.30458602 -0.25145975 0.12304885 0.61461985 0.8648024 -0.64945054 0.28677085 -0.53342265
00000000: d9d8 9c3e 7e78 07bf cd9b 033f 279f 623e
00000010: bb61 fa3e e955 0bbe 27a0 0b3f 5bd2 133f
00000020: e5b1 81be a1fe 7abe f850 91be 336d 4b3f
00000030: c8d1 e8bd ff4f f23d 34c1 a73d 6b82 3b3e
00000040: a4e6 a3be ef0d 9d3e 60d0 e9be 8271 e3be
00000050: 6105 283f b719 9abe 82f5 a33e 1b8b dd3e
00000060: f9e8 363e 1e6e ce3d 6f70 e6bc 2ff1 e4bd
00000070: 14c6 d83e ffb6 953e b0d5 20bf 5e0c 14bf
00000080: 85c0 db3e e89b b63e eeeb c0bd 1db4 86be
00000090: 9350 a03e f4f6 9bbe 4eb4 3e3f abfe 1bbf
000000a0: e08b a63e bf3d 203d 09e3 d9be 5ee6 da3d
000000b0: 645c 8a3f dbce 923d 23ae 0fbf 0fff 27be
000000c0: c789 fcbe e8dc 123f 2e80 0c3f 3ab1 8bbf
000000d0: 4f5c 8abc 5f79 ac3e 3449 3b3f db4e c6be
000000e0: 9edb 21bf 6494 403f 12ff 1b3f ca86 7c3f
000000f0: 9998 38bf 270b 2c3e 39fd 353f 3b22 163f
00000100: 5876 24bf be61 073f 4924 cb3e 9ff0 adbe
00000110: eef6 3ebe a4f4 80bf c303 2f3f 142c acbe
00000120: 8f98 15be 109c 05bf df4a 463e 600b cbbd
00000130: c4ac 73be 5e38 d3be 2517 8b3e 07cc 073f
00000140: 3947 413f eaa6 ed3d 68c8 a8bf 34d2 1fbf
00000150: e7de 7fbf aaeb 11bf 33ab eebe 45fb 9fbf
00000160: 6ec3 ee3d a401 92be 8135 d13e ff62 933e
00000170: b537 543f 527b 30be 3508 233d 00f6 853f
00000180: 7345 0fbf 19a8 49bb bf64 d7bc 4303 b13e
00000190: 82b0 b4be b1a6 c0bc 2bca 8a3e 886e 883e
000001a0: fa94 07bf 5c49 1f3f 8756 07bf 4026 5b3d
000001b0: 00c1 c33e 6033 84be 81bb c43d f531 9e3e
000001c0: c218 163e 696c 81be bd67 68be 9bc0 103e
000001d0: 28cb 8a3d 6efe f0bd 9216 9cbe 31a2 43bf
000001e0: 1298 b63e 8b9a 7bbe af61 6ebe 19bd b0be
000001f0: 59f2 38be b6be 89be 4e1c 5e3f de07 09bf
00000200: 990d 4e3f 2c49 1cbd 7198 5b3e 7bbf 073f
00000210: c0c4 853e 83df 253f f2f1 73bf 0ff4 203e
00000220: d152 2cbf 3a9f 243f 2d53 533e 74e4 fc3e
00000230: 48f9 be3e 6c98 e03b 34b3 f33e 1f83 3bbf
00000240: 7577 16bf 4234 fc3e 3d63 2b3f 4d8d a53f
00000250: 51d6 5c3e 4647 2b3e 377d 593f bfff 2c3f
00000260: 9bdc 49bf 98b4 1b3f 063d b8bd 5f68 a0be
00000270: 40e0 b03e a1fb 25bf 82ae 7abf e1b7 6abf
00000280: 7958 40be e8a2 53bf ce53 b53e a960 0c3f
00000290: 5c2c a73e 0a52 8fbf 6955 b63e ee4b 343e
000002a0: 60ef 8e3f 5ceb 433f 5d30 66bf 4704 493e
000002b0: 6665 4dbf 7552 2b3f 0122 43bf da31 abbf
000002c0: 93e4 1dbe 9b37 b63c 4739 533e b51e 1d3f
000002d0: 1201 aa3e d3aa 34be c0f6 d9be bb22 393f
000002e0: 53e5 a8be 351e a5be 593f 453e 8034 8fbe
000002f0: 8564 ddbe 5158 05be 67e7 7c3d 6da7 743e
00000300: 9d1b f0be 3c4f 063f bb37 ccbe 0191 1d3f
00000310: 9784 bfbe 2ee3 e9bd e21f 64be 1e22 a0bd
00000320: 1ee6 cb3e 595d 05bf 91a4 50be 473e d43e
00000330: f1ac 9cbe afd6 91bd db94 9f3c 22a5 903d
00000340: 603d 0f3c 83fc bfbe d041 81be 392d abbe
00000350: 08fd 5dbe 8469 4b3e 4957 ea3e ff70 b33d
00000360: 5e18 9b3e 1b63 36bd bed5 3b3f 5e11 f83e
00000370: 1609 3abe d596 963e 9e91 1ebf 3ec2 153e
00000380: 5592 92bd 1159 443e f506 01bf aab1 8a3f
00000390: a1a1 4c3e 4fb2 fabd 08a3 f4bd c212 05bf
000003a0: f04e a6bc d297 38be 4334 ef3e f9c7 263f
000003b0: 209c 813e dc37 3cbd f878 9f3e bfc0 873e
000003c0: 7b77 e1be a6f2 803e 44d7 91bf 0887 aabe
000003d0: 49e5 1e3f 4f3d 983e fca5 dbbf 6a2c 0cbf
000003e0: b3f2 9bbe 55bf 80be 0901 fc3d ba57 1d3f
000003f0: b163 5d3f 6442 26bf a1d3 923e 638e 08bf
