Utilities/weights/DCONV_15.npy (npy, 3584 bytes, 1 tensors)

array f4 [1, 3, 3, 96]
0	0x3d6ed04b	0.058304112
1	0xbe1becb6	-0.15227017
2	0x3e017252	0.12641266
3	0x3f42b125	0.7605155
4	0xbe6809ae	-0.22659943
5	0x3ecde83e	0.4021625
6	0xbe2523c6	-0.16126928
7	0xbd917de8	-0.07104093
8	0x3ea22c48	0.3167441
9	0x3ede664d	0.43437424
10	0x3f59f484	0.85138726
11	0x3dfaff30	0.122557044
12	0xbdcdbc44	-0.100456744
13	0x3ece2c5d	0.40268221
14	0xbef411f8	-0.4766996
15	0xbe7631f7	-0.24042498
16	0xbdd9ce12	-0.10635008
17	0x3f20900b	0.6271979
18	0xbe068844	-0.13137919
19	0x3e0bd84b	0.13656728
20	0x3e103250	0.14081693
21	0xbf36d23e	-0.71414554
22	0x3e00f9d1	0.12595297
23	0xbe602292	-0.21888188
24	0x3c7c780a	0.015409479
25	0x3f66e897	0.90198654
26	0x3e695a20	0.22788286
27	0x3db4bc39	0.08824963
28	0x3f50e6f2	0.81602395
29	0x3f346852	0.7047168
30	0x3e055425	0.1302038
31	0x3dc19b17	0.09453409
32	0xbddedf75	-0.10882465
33	0x3cef6d2a	0.029226858
34	0xbf18a4b5	-0.59626323
35	0xbf0b162f	-0.54330724
36	0xbec6c2ac	-0.38820398
37	0xbf39e07b	-0.72608155
38	0x3eaa8544	0.333048
39	0x3e6acaf0	0.22928977
40	0xbdf12744	-0.117750674
41	0x3ec2efd7	0.38073608
42	0x3ee14b7f	0.4400291
43	0xbe3fdae7	-0.18735848
44	0x3e4f024c	0.2021572
45	0xbe47da0d	-0.19516774
46	0xbf1cc586	-0.61238897
47	0x3da51609	0.080608435
48	0x3ed318ce	0.41229862
49	0xbc000d8e	-0.007815732
50	0x3de65da4	0.11248329
51	0x3d997209	0.074924536
52	0xbd1b5828	-0.03792587
53	0x3e910177	0.2832143
54	0xbf208e02	-0.62716687
55	0xbf4b745a	-0.79474413
56	0xbeeb2be6	-0.4593193
57	0xbd6d2a35	-0.05790158
58	0x3e616d46	0.22014341
59	0xbf514059	-0.8173881
60	0x3d035244	0.032060876
61	0xbf0a86f0	-0.5411215
62	0x3f634313	0.8877422
63	0xbcdb8539	-0.026796924
64	0xbf1ab6ed	-0.6043537
65	0x3e1e4a42	0.15458015
66	0xbe76cf22	-0.24102452
67	0x3f2f498c	0.684716
68	0xbfda6de6	-1.7064788
69	0x3e9db8c3	0.30805025
70	0x3ee5a36a	0.44851238
71	0x3ea85288	0.32875466
72	0xbf10f661	-0.56625944
73	0xbda94e32	-0.08266868
74	0x3e904b75	0.2818257
75	0xbdd930fa	-0.10605045
76	0xbf5acbae	-0.8546704
77	0xbe753b38	-0.23948371
78	0xbe042efd	-0.1290855
79	0xbf83c0f2	-1.0293257
80	0x3dfe9a9d	0.12431834
81	0x3f96435c	1.1739306
82	0xbe1dc38e	-0.1540663
83	0xbd8a37f0	-0.067489505
84	0x3f17eab2	0.5934249
85	0x3e44004e	0.19140741
86	0x3faa4cfc	1.3304744
87	0x3f940b1b	1.1565889
88	0xbded7d2c	-0.1159614
89	0xbd745dd8	-0.05965981
90	0x3f59e57c	0.8511579
91	0xbeac4586	-0.33646792
92	0x3ea01eb7	0.31273434
93	0xbda7077c	-0.081557244
94	0x3f899302	1.0747988
95	0x3cd6fe14	0.0262442
96	0x3ca5b4cf	0.020227818
97	0xbe905e95	-0.2819716
98	0x3c1d5c4c	0.009604525
99	0x3e08d5de	0.13362834
100	0xbea1b51e	-0.31583494
101	0x3ed97c31	0.42477563
102	0xbecbff6f	-0.39843318
103	0xbeba6a92	-0.36409432
104	0x3e54f013	0.20794706
105	0xbe1a2725	-0.15053995
106	0x3eadc2af	0.33937594
107	0x3baf0ed2	0.005342343
108	0x3c3c8105	0.01150537
109	0xbd59a156	-0.053132378
110	0x3b3ea877	0.0029092112
111	0xbeb50c3d	-0.353609
112	0x3dc376f8	0.09544176
113	0x3eb0582e	0.34442276
114	0xbe6a137c	-0.22858995
115	0x3e8a95b5	0.27067342
116	0xbe4b7cfb	-0.19871895
117	0xbe4ef787	-0.20211612
118	0x3f662026	0.89892805
119	0xbba7afb4	-0.005117381
120	0xbe20b5cc	-0.1569435
121	0x3f2d5d2f	0.6772031
122	0x3e4a2c45	0.1974345
123	0xbe00f899	-0.12594832
124	0xbdf55b3f	-0.119802944
125	0x3f38d63b	0.7220189
126	0x3e016dde	0.12639567
127	0x3dbb03d8	0.091315925
128	0xbdadf047	-0.08493095
129	0xbef7794f	-0.4833474
130	0xbea2c317	-0.31789467
131	0xbe61a2c4	-0.22034746
132	0xbe21340e	-0.15742514
133	0xbf0d6bef	-0.5524282
134	0x3e409e5a	0.18810406
135	0x3f106dd1	0.56417567
136	0x3e898d75	0.26865736
137	0x3f896b04	1.0735784
138	0x3f79cb40	0.9757576
139	0xbe94fc8f	-0.29098937
140	0xbf5071a0	-0.8142338
141	0xbea96320	-0.3308344
142	0xbf5a0e4d	-0.8517807
143	0x3e3d7eed	0.1850545
144	0x3f3a5488	0.72785234
145	0x3ea26324	0.31716263
146	0x3ee89cf4	0.45432246
147	0xbe9658b3	-0.29364547
148	0xbf1fb145	-0.62379867
149	0x3eaabd6b	0.3334764
150	0xbf09d483	-0.5383989
151	0x3eb0ec41	0.34555247
152	0xbf13416f	-0.5752172
153	0xbdfc851b	-0.12330075
154	0x3f409c70	0.75238705
155	0xbf9c25f7	-1.2199086
156	0xbf34ab7a	-0.7057415
157	0xbf001b7d	-0.50041944
158	0x3d77f503	0.060536396
159	0xbe0ed13a	-0.13947001
160	0xbeaa51ff	-0.33265683
161	0x3e87858b	0.26469073
162	0x3e18f377	0.14936624
163	0x3f1b3a2e	0.6063565
164	0xbfa6a42b	-1.301885
165	0x3e62395d	0.22092195
166	0x3f80c3e6	1.0059783
167	0xbf08fada	-0.5350777
168	0x3ebbd02a	0.36682254
169	0x3f15aab8	0.5846362
170	0x3ebb13e8	0.36538625
171	0xbe9cbd7c	-0.30613315
172	0xbe54111d	-0.20709653
173	0xbd4aad74	-0.049481824
174	0xbf5f6e74	-0.87277913
175	0xbea40a92	-0.32039315
176	0x3f4d407b	0.80176514
177	0x3fa92ed9	1.3217422
178	0xbef284d2	-0.4736696
179	0x3f08cd67	0.5343842
180	0x3fa05df1	1.2528669
181	0x3eacf694	0.33781874
182	0x3fc47070	1.5346813
183	0x3f0595d6	0.52181756
184	0xbd0ffab4	-0.0351512
185	0xbe4fdec8	-0.20299828
186	0x3e9c784d	0.30560532
187	0xbf2eb729	-0.6824823
188	0xbd978548	-0.07398468
189	0xbe9ecf07	-0.31017324
190	0x3f664a65	0.8995727
191	0xbe0700fe	-0.13183972
192	0x3cf6ac9c	0.030111603
193	0xbe966fd6	-0.293822
194	0x3eb9fa54	0.36323798
195	0xbe6d950e	-0.23201391
196	0xbf20d580	-0.62825775
197	0xbdeb574d	-0.11491261
198	0xbe981d38	-0.29709792
199	0xbeabbc7f	-0.3354225
200	0x3d9144b7	0.070931844
201	0xbe182125	-0.14856394
202	0x3e76f42d	0.24116583
203	0x3e8185ed	0.2529749
204	0xbed7b5be	-0.42130846
205	0xbf5ec6c0	-0.8702202
206	0x3e376945	0.17911251
207	0xbc54e29b	-0.01299348
208	0x3e3b2cd0	0.18278813
209	0x3eab4f51	0.3345895
210	0xbda19d22	-0.07891299
211	0x3dded219	0.10879917
212	0x3f275068	0.65357065
213	0x3ea6e2e0	0.32594967
214	0x3f242203	0.641144
215	0x3d98a96a	0.07454188
216	0x3dd2614d	0.10272465
217	0xbc863fe6	-0.016387891
218	0xbcd0ac7b	-0.02547287
219	0xbe94bae1	-0.29048827
220	0xbe32d061	-0.17462303
221	0x3ee48759	0.44634512
222	0xbb9eb850	-0.004843749
223	0x3cca513b	0.024696937
224	0x3db76b77	0.08956044
225	0xbef08880	-0.4697914
226	0xbf01d299	-0.5071197
227	0x3e625730	0.22103572
228	0x3ebe03b5	0.37112203
229	0xbecd6cb9	-0.4012201
230	0x3ecd46af	0.4009299
231	0x3e993cb3	0.29929122
232	0xbee87848	-0.45404267
233	0x3e0cb3a2	0.137404
234	0x3f0fb27f	0.5613174
235	0xbea2b932	-0.31781918
236	0xbebd21a4	-0.36939728
237	0x3e8f2539	0.27958086
238	0xbf25c190	-0.6474848
239	0xbdab391a	-0.08360501
240	0x3eec32c1	0.46132472
241	0x3f508ef9	0.8146816
242	0x3e496485	0.19667251
243	0xbf538d5a	-0.8263756
244	0xbe95b944	-0.2924291
245	0xbddbeefb	-0.10738941
246	0xbedcb9f6	-0.43110627
247	0x3ec3031e	0.38088316
248	0xbecb157e	-0.39664835
249	0xbdc676c6	-0.09690623
250	0x3f92d80b	1.1472181
251	0xbed0a19d	-0.407483
252	0xbe9abce3	-0.30222234
253	0xbe73f7ca	-0.23824993
254	0xbd03dea6	-0.032194756
255	0x3ec0fe8a	0.37694198
